ML Algorithm/nn_model_1-3.params (torch, 15361 bytes, 8 tensors)

0.weight f4 [32, 42]
0	0xbe49e181	-0.19714929
1	0x3e349233	0.17633896
2	0x3e063ebb	0.13109867
3	0x3ea782e3	0.32717046
4	0x3ebb0f16	0.36534947
5	0x3dccb7d0	0.09995997
6	0x3af3e507	0.0018607684
7	0xbe41c4d0	-0.18922734
8	0xbeba3cb0	-0.36374426
9	0xbe82fe16	-0.25584477
10	0x3e821f5a	0.25414544
11	0x3ca73530	0.020411104
12	0x3dd89a64	0.10576323
13	0xbe78add1	-0.24285056
14	0x3e1b1de7	0.15148126
15	0xbe47a7a0	-0.19497538
16	0x3c2e7866	0.010648822
17	0xbd90395c	-0.070421904
18	0x3d5f718c	0.054551646
19	0xbddfc53a	-0.1092629
20	0x3c3d7bbc	0.011565145
21	0xbe864dd4	-0.26231253
22	0x3d93a414	0.0720903
23	0x3e8440fd	0.25830832
24	0xbd8239f0	-0.06358707
25	0x3ef64705	0.4810106
26	0xbe0013c0	-0.12507534
27	0xbe2263a4	-0.15858322
28	0xbe68b61c	-0.22725719
29	0xbee522c5	-0.4475309
30	0xbd73d1f9	-0.059526417
31	0xbce2821f	-0.027649937
32	0xbc4fb9d8	-0.012678586
33	0x3ef2b57f	0.47404096
34	0xbe2c54c4	-0.1682921
35	0xbe8f2891	-0.27960637
36	0xbe0717dd	-0.13192697
37	0xbee54480	-0.44778824
38	0xbdc72356	-0.09723537
39	0x3e2d4bd4	0.16923457
40	0xbd023397	-0.03178748
41	0x3e934338	0.2876222
42	0x3e3107ed	0.1728818
43	0x3d9e3200	0.077243805
44	0x3e562f9b	0.20916598
45	0xbdaf53cb	-0.08560904
46	0xbd2148c9	-0.039376054
47	0xbc472554	-0.012154896
48	0x3db26a38	0.08711666
49	0x3d6cb7be	0.057792418
50	0xbbcf89e4	-0.0063335765
51	0xbc37d306	-0.0112197455
52	0xbda9b3f0	-0.082862735
53	0x3d9048ee	0.0704516
54	0x3d852643	0.065014385
55	0xbd00354e	-0.031300835
56	0x3d5fdf36	0.05465623
57	0x3e45e0a5	0.19323976
58	0x3de47f8a	0.11157139
59	0x3daba613	0.083812855
60	0x3cf48ccb	0.029852292
61	0xbd699661	-0.057028178
62	0xbba749c7	-0.0051052305
63	0xbe1cb254	-0.15302402
64	0x3e1558d0	0.1458466
65	0x3e0bc934	0.13650972
66	0x3b8677fc	0.0041036587
67	0x3d88f575	0.06687442
68	0xbe16c402	-0.14723209
69	0x3d8bd555	0.06827799
70	0xbe0ad524	-0.13557869
71	0xbd47b552	-0.048756905
72	0x3bac14e0	0.005251512
73	0x3e081064	0.13287503
74	0x3d9f2977	0.07771581
75	0x3da66c7c	0.081261605
76	0xbda285c9	-0.07935674
77	0x3e410bbd	0.18852134
78	0xbc476ea6	-0.012172377
79	0xbe0c93c9	-0.1372825
80	0x3c7ebd85	0.015548115
81	0xbe51f9ee	-0.20505497
82	0xbda99916	-0.08281152
83	0xbebf2727	-0.37334558
84	0xbe1cd95c	-0.15317291
85	0x3cb34069	0.0218813
86	0x39e73a9a	0.00044103415
87	0x3db771eb	0.08957275
88	0xbde4720e	-0.11154567
89	0x3dd6e321	0.1049254
90	0xbd9d6876	-0.0768594
91	0x3ddf8aa5	0.10915116
92	0x3c2b2ea6	0.010448134
93	0xbca2b0f2	-0.019859765
94	0xbcde99b9	-0.02717291
95	0x3e1102f0	0.14161277
96	0xbd14c42c	-0.036319897
97	0xbcf2a05f	-0.029617487
98	0xbdee02bb	-0.116216145
99	0xbdf051a2	-0.1173432
100	0x3d820beb	0.063499294
101	0xbcdd234e	-0.026994374
102	0xb9bb9deb	-0.00035785077
103	0xbdc81fb4	-0.09771672
104	0x3d2b460a	0.04181484
105	0xbddd2679	-0.10798354
106	0x3dcacf8c	0.09902868
107	0xbd005764	-0.031333342
108	0xbdcb4b95	-0.099265255
109	0x3e018dfe	0.12651822
110	0x3dfefa29	0.12450058
111	0xbd554525	-0.052067894
112	0xbdd0cbf5	-0.10195152
113	0x3dcd4435	0.10022775
114	0x3cdc498b	0.026890537
115	0x3cce2ef8	0.02516888
116	0x3cbddab9	0.023175584
117	0x3e2d52b1	0.16926076
118	0xbc5c9c6c	-0.013465028
119	0x3ba8343f	0.0051331813
120	0xbda48f62	-0.080351606
121	0xbdf0e882	-0.11763097
122	0xbcb2ed1c	-0.021841578
123	0x3d071d39	0.032986853
124	0xbdaac8d9	-0.0833909
125	0x3e74a1ab	0.23889796
126	0x3e3c902e	0.18414375
127	0x3e80145c	0.25015533
128	0x3e91cc2c	0.28476083
129	0x3d7a45c9	0.06110171
130	0x3e27c56f	0.16383909
131	0x3e0cb980	0.13742638
132	0x3dcb3f78	0.09924215
133	0x3e640dfc	0.2227096
134	0xbec0973d	-0.37615386
135	0xbceb984c	-0.028759144
136	0xbd8b5ad6	-0.06804435
137	0x3e54d04b	0.20782582
138	0x3e5a914a	0.21344486
139	0x3d993f07	0.07482725
140	0xbd048abc	-0.03235887
141	0xbe03976a	-0.12850729
142	0x3e2cf6dc	0.16891044
143	0xbe99456b	-0.29935774
144	0x3db2c755	0.08729426
145	0x3e372454	0.17884952
146	0x3e00cbc9	0.12577738
147	0x3dc38a78	0.09547895
148	0x3c159ab4	0.009131122
149	0xbe062dc9	-0.13103403
150	0xbde2fbf3	-0.11083212
151	0xbefb2974	-0.49055064
152	0xbd81f5ce	-0.06345712
153	0x3ea0a8d1	0.31378797
154	0xbe25e2b1	-0.16199757
155	0x3d71a1df	0.058992263
156	0xbd52fb4e	-0.051509194
157	0xbea7152b	-0.32633337
158	0xbcd8cffc	-0.026466362
159	0xbf1fe03d	-0.62451535
160	0x3d9bee7d	0.076138474
161	0x3e2480eb	0.16064803
162	0xbcdfa4a9	-0.027300196
163	0x3e771bcc	0.24131697
164	0xbdb85408	-0.09000403
165	0x3d46dd71	0.048551027
166	0xbd49c46d	-0.04925959
167	0xbdddc635	-0.108288206
168	0x3c5b7dd6	0.013396701
169	0xbc2de610	-0.010613933
170	0x3dcfe108	0.10150343
171	0xbd94fd6f	-0.07274901
172	0x3dc58acd	0.09645615
173	0x3b961434	0.004580045
174	0x3d83af67	0.0642994
175	0x3e181a9c	0.148539
176	0x3dd5e469	0.104439564
177	0xbcf64791	-0.030063422
178	0x3d745f30	0.05966109
179	0x3dd8d4a8	0.10587436
180	0x3dd0866f	0.10181891
181	0xbd613fcb	-0.05499248
182	0x3d8cf6f9	0.06883044
183	0xbde91f51	-0.11382926
184	0xbd3c3ace	-0.045954518
185	0xbe313966	-0.17307052
186	0xbb26a4f3	-0.0025427907
187	0xbcbcad99	-0.023031997
188	0x3e1c9e0e	0.15294668
189	0xbd1fccc3	-0.039013635
190	0xbdd68ec3	-0.104764484
191	0xbe241774	-0.16024572
192	0x3e038ab6	0.12845883
193	0xbe9b348b	-0.30313525
194	0xbd4e5b7c	-0.050380215
195	0x3e57ab0a	0.2106134
196	0x3c7fc15d	0.015610066
197	0xbc72117c	-0.014774676
198	0x3bd849af	0.0066005806
199	0x3cae2bd7	0.021261139
200	0x3ca89af6	0.020581704
201	0xbe5c9ea9	-0.21544899
202	0x3e1523f2	0.14564493
203	0x3e237f6f	0.15966581
204	0xbdb5b77e	-0.08872889
205	0x3d3ed1eb	0.046586912
206	0x3ce5977b	0.028026333
207	0x3d8e853f	0.069590084
208	0xbac0b69c	-0.0014702859
209	0xbe9a00e4	-0.30078804
210	0x3b474eab	0.003041188
211	0xbc9953ad	-0.018716658
212	0xbde5d56c	-0.112223476
213	0xbe0ca8db	-0.13736288
214	0x3dfe3b74	0.124136835
215	0x3c9a5627	0.018839909
216	0xbd6d5fb0	-0.057952583
217	0xbd89e1bc	-0.067325085
218	0xbd91a0f4	-0.071107775
219	0xbe0f40bb	-0.13989536
220	0x3b8f2d69	0.004369427
221	0x3cfeb6c5	0.03109301
222	0x3b166132	0.0022946117
223	0x3decf9b7	0.11571067
224	0xbe27efd8	-0.16400087
225	0xbc953390	-0.018213063
226	0xbc7aa4dd	-0.0152980955
227	0xbe0636ad	-0.13106795
228	0xbd1ea1dd	-0.038728584
229	0xbdf1f290	-0.11813843
230	0x3da27f34	0.07934418
231	0x3bcfc523	0.006340639
232	0xbd49f804	-0.04930879
233	0xbdb91a8c	-0.090382665
234	0x3d22ce18	0.039747328
235	0x3df8b1c2	0.121432796
236	0xbdaf9405	-0.08573154
237	0x3daef8ed	0.085435726
238	0x3dbb4d2e	0.0914558
239	0x3cc8c52c	0.024508081
240	0x3d8acf15	0.06777779
241	0x3e1c9d83	0.15294461
242	0xbd8097f4	-0.06278983
243	0x3e0adfc3	0.13561921
244	0xbdb0c792	-0.08631815
245	0xbdc2f6be	-0.095197186
246	0xbd1bd2a4	-0.03804268
247	0x3e003d73	0.12523441
248	0xbdaeb16c	-0.08529934
249	0xbd196dfa	-0.037458397
250	0xbc40011e	-0.011719016
251	0xbe31d58d	-0.1736662
252	0xbddaa0a0	-0.10675168
253	0x3e2d2fd0	0.1691277
254	0x3d95ad08	0.07308394
255	0x3d8c72d5	0.0685784

0.bias f4 [32]
0	0x3d4708ac	0.048592255
1	0x3dc9ceef	0.098539226
2	0x3dd96bc6	0.10616259
3	0xbd1a7979	-0.0377135
4	0xbd853c12	-0.06505598
5	0x3ac60592	0.0015107861
6	0x3c2b9cce	0.010474397
7	0x3c30ccda	0.010791028
8	0x3d2d99d2	0.042383023
9	0xbc9a2548	-0.018816605
10	0x3c203dba	0.009780342
11	0xbafa6aaf	-0.001910528
12	0x3d7a3419	0.06108484
13	0x3bbc67e8	0.0057496913
14	0xbc7f0673	-0.015565502
15	0xbb936801	-0.004498482
16	0x3e5a0290	0.2129004
17	0xbd311b1b	-0.04323874
18	0xbe0bcfca	-0.13653484
19	0x3bb532a8	0.0055297203
20	0x3da33bf8	0.079704225
21	0x3e0491d9	0.12946261
22	0xbdba6a7c	-0.091023415
23	0xbd8100bf	-0.062989704
24	0xbdd3ddd1	-0.103450425
25	0x3d4bc9ae	0.049752884
26	0xbd7da631	-0.06192607
27	0x3e4923b7	0.1964253
28	0xbc2df165	-0.010616635
29	0xbbe57ce6	-0.0070034144
30	0xbc088f76	-0.008334985
31	0xbd9535d4	-0.072856575

2.weight f4 [32, 32]
0	0x3e0cc871	0.13748337
1	0xbe2fcf83	-0.17169003
2	0x3e42b12f	0.19012903
3	0xbe049e60	-0.1295104
4	0xbd69d8f0	-0.057091653
5	0xbe0f1370	-0.13972259
6	0xbe765d5b	-0.2405905
7	0xbe422aae	-0.18961594
8	0x3d7a0fe1	0.0610503
9	0x3e130e8c	0.14361018
10	0x3cbb217a	0.022843111
11	0x3d969e8a	0.07354458
12	0x3d8f851d	0.07007811
13	0x3dfa3f2f	0.122190826
14	0x3e8e6b32	0.2781616
15	0x3db5048c	0.08838758
16	0xbd9ec254	-0.07751909
17	0x3dbdd953	0.09269967
18	0xbd37776e	-0.04479163
19	0x3ce3e0d4	0.027817167
20	0x3d29f3b7	0.04149219
21	0x3dc02e42	0.09383823
22	0xbd802b18	-0.062582195
23	0xbdd2d8b5	-0.1029524
24	0xbcc20919	-0.023685979
25	0x3d15a817	0.036537256
26	0x3d4d87a7	0.050178196
27	0xbc53ddc5	-0.012931292
28	0x3e0fbb79	0.14036359
29	0xbd72e780	-0.059302807
30	0xbd7ee599	-0.06223068
31	0x3d893340	0.06699228
32	0x3f06a552	0.5259601
33	0xbe323267	-0.1740204
34	0x3dc0986d	0.09404073
35	0xbe4c28be	-0.19937417
36	0xbcff2506	-0.031145584
37	0x3ce36592	0.027758393
38	0x3e16d3b8	0.14729202
39	0xbd263219	-0.04057512
40	0x3e37d1e1	0.17951156
41	0x3db99e2b	0.09063371
42	0xbda3501c	-0.07974264
43	0xbd21ab3c	-0.039469942
44	0x3d45fec6	0.048338674
45	0xbc15399c	-0.009107973
46	0x3db58685	0.08863548
47	0xbe317c56	-0.17332587
48	0x3e89ae69	0.26890877
49	0x3e924508	0.28568292
50	0xbd21fbde	-0.03954684
51	0xbe774982	-0.24149135
52	0x3e1f5eb7	0.15563475
53	0xbd23dda1	-0.040006284
54	0x3d3d6fc3	0.046249162
55	0xbb83baf7	-0.0040200907
56	0x3e6caa4d	0.2311184
57	0xbe19a095	-0.15002663
58	0x3eed2a67	0.46321413
59	0xbdfed95b	-0.12443801
60	0x3edd7fb7	0.432615
61	0xbeb9fab1	-0.36324075
62	0x3d181d34	0.037137225
63	0xbece4d6e	-0.4029345
64	0x3ec92ea5	0.392934
65	0x3e423672	0.18966082
66	0x3dd69462	0.104775205
67	0xbda53a63	-0.08067777
68	0xbd9be579	-0.07612128
69	0xbc8ae109	-0.016953008
70	0x3eac2d3a	0.33628255
71	0x3e26d096	0.16290507
72	0xbd4de9bb	-0.05027173
73	0x3c3c9648	0.011510439
74	0x3e0d960a	0.13826767
75	0x3d1f5dbb	0.038907748
76	0xbd9b5f38	-0.07586521
77	0xbe4177af	-0.18893312
78	0x3df32e0a	0.11874016
79	0x3ddfb688	0.10923487
80	0x3d8e3ab9	0.06944794
81	0xbe066ff8	-0.1312865
82	0xbcdd63f7	-0.027025206
83	0x3dfcbee7	0.12341099
84	0x3db60669	0.088879414
85	0x3d697926	0.0570003
86	0x3df21b00	0.11821556
87	0x3cb5d79c	0.022197537
88	0x3ddee582	0.10883619
89	0x3e146fc7	0.14495765
90	0x3d48f7c8	0.049064428
91	0x3e47b4cb	0.19502561
92	0xbdbff960	-0.093737364
93	0x3d0a3321	0.033740167
94	0xbc30a4be	-0.010781465
95	0x3d96f6f6	0.07371323
96	0x3ee5c60b	0.44877657
97	0xbcf502a6	-0.02990849
98	0x3ccc28ae	0.024921741
99	0x3e975ec3	0.29564485
100	0xbe06865b	-0.1313719
101	0xbcd8da01	-0.02647114
102	0x3e2d47d8	0.16921937
103	0x3d2f24ca	0.042759694
104	0x3de336da	0.110944465
105	0x3ecbd7d5	0.39813104
106	0x3d893c6f	0.0670098
107	0xbd8d23ed	-0.06891618
108	0xbd25660f	-0.040380534
109	0x3e7a0fa7	0.24420033
110	0x3dc5d57f	0.09659862
111	0x3e03b41a	0.12861672
112	0x3e04f16c	0.1298272
113	0xbdcad4f1	-0.099038966
114	0xbe1fb4a6	-0.15596256
115	0xbc8f1a60	-0.017468631
116	0x3e162296	0.14661631
117	0xbe703e05	-0.23461159
118	0x3de58b6c	0.11208233
119	0x3d5e4fac	0.0542752
120	0x3cc3714f	0.02385774
121	0xbe1be8e1	-0.15225555
122	0x3ec48192	0.38380104
123	0xbe3696c7	-0.17830954
124	0xbdb7b687	-0.08970361
125	0xbdb4329d	-0.08798716
126	0xbc9f3822	-0.019435946
127	0xbe80fea1	-0.25194266
128	0x3e8e218d	0.27759972
129	0x3e61031f	0.21973847
130	0x3d67dc29	0.056606445
131	0xbc31632a	-0.010826865
132	0xbdacb536	-0.08433001
133	0xbd9236de	-0.07139371
134	0x3cc95d64	0.024580665
135	0x3e70890e	0.23489782
136	0x3e095b78	0.13413799
137	0x3c7e25e7	0.015511966
138	0x3e5469e6	0.20743522
139	0x3d8b1bdc	0.06792423
140	0x3e867ca4	0.26266968
141	0xbd1ceb32	-0.038310237
142	0xbcb669e1	-0.022267284
143	0xbd7959bf	-0.060876604
144	0xbdc30900	-0.09523201
145	0x3e4f5bbf	0.20249842
146	0x3d04f2d5	0.032458145
147	0x3e67fc5f	0.22654866
148	0xbd42ac32	-0.0475275
149	0x3e92fd93	0.28709087
150	0xbe2ef1ba	-0.17084399
151	0xbd0dd739	-0.03462908
152	0x3cdeb4c0	0.027185798
153	0x3e2d5865	0.16928251
154	0xbe0dddd1	-0.13854147
155	0x3e1201c6	0.14258489
156	0xbe22366b	-0.15841071
157	0x3e25fbaf	0.16209291
158	0xbd750733	-0.05982132
159	0x3e044b56	0.12919363
160	0x3d81ef2b	0.06344446
161	0xbe3ca9dd	-0.18424173
162	0x3e14feb1	0.14550282
163	0x3e82d406	0.25552386
164	0xbdebf43b	-0.11521193
165	0xbdaf42a1	-0.0855763
166	0xbe5521c9	-0.2081367
167	0x3c538ddc	0.01291224
168	0x3e180017	0.14843784
169	0x3e9de344	0.30837452
170	0x3c606ba1	0.013697536
171	0xbdcd5245	-0.10025457
172	0x3da89280	0.08231068
173	0x3daa03f2	0.08301534
174	0x3d74ef76	0.05979868
175	0x3e40e979	0.18839063
176	0xbd14b75d	-0.03630768
177	0xbddc5454	-0.10758272
178	0x3e170fab	0.1475207
179	0xbd8689cc	-0.065692514
180	0x3e8774d9	0.26456335
181	0x3dfed80f	0.12443554
182	0x3d443c17	0.04790887
183	0xbdbdeafc	-0.09273335
184	0x3e4ee6c0	0.20205212
185	0xbcaab426	-0.020837855
186	0x3ed6ae49	0.41929844
187	0xbdfca26c	-0.12335667
188	0x3e4c6b85	0.1996289
189	0x3d83c478	0.06433958
190	0xbdc68796	-0.0969383
191	0xbe81480d	-0.25250283
192	0x3e00a641	0.12563421
193	0xbdf95f1b	-0.12176343
194	0xbe2ca4b8	-0.1685971
195	0x3e84115f	0.25794503
196	0x3d8e225f	0.069401495
197	0x3e00a03a	0.12561122
198	0xbe10200f	-0.1407473
199	0xbdf3ae93	-0.11898532
200	0xbcf7bab1	-0.030240389
201	0x3bfc3aaa	0.007697423
202	0x3e0f4488	0.13990986
203	0x3dce28f8	0.10066408
204	0x3e6103e5	0.21974142
205	0x3c8ada95	0.016949931
206	0x3e0e4c17	0.13896213
207	0x3d32c25f	0.043642398
208	0x3e2ce57e	0.1688442
209	0xbdd1d7cf	-0.1024624
210	0x3e16651c	0.14687008
211	0xbd637c35	-0.055538375
212	0x3e875081	0.26428607
213	0x3e6d928b	0.23200433
214	0x3e07b5b2	0.13252905
215	0xbdc32b25	-0.095297135
216	0xbe230198	-0.15918577
217	0x3de0a657	0.10969227
218	0x3da6aa17	0.08137911
219	0x3e507d82	0.20360377
220	0xbdc0f9e1	-0.094226606
221	0x3e810dd3	0.2520586
222	0xbe19314b	-0.1496021
223	0x3e492e9c	0.19646686
224	0x3be349ab	0.006936272
225	0x3ccc0a09	0.024907129
226	0xbe0f7bdf	-0.14012097
227	0x3ec7f075	0.39050642
228	0x3e802015	0.25024477
229	0xbda80f35	-0.082060255
230	0xbd335cdf	-0.04378974
231	0xbe4571fd	-0.19281764
232	0x3cefe39b	0.029283335
233	0x3eddfe4e	0.43358082
234	0xbdfa9b94	-0.122367054
235	0xbd7aebda	-0.06126008
236	0xbe450a6c	-0.19242257
237	0x3c1fb752	0.009748297
238	0x3dbbb71d	0.091657855
239	0x3dc33dd9	0.09533281
240	0xbe3cff44	-0.18456751
241	0xbd9e1214	-0.07718292
242	0xbe119f9f	-0.14221047
243	0x3d803f94	0.062621266
244	0x3e72945f	0.23689412
245	0x3c2aa6c0	0.010415733
246	0xbdb907c8	-0.09034687
247	0x3a7c37dc	0.0009621361
248	0xbd549730	-0.051901996
249	0xbd198b6a	-0.03748647
250	0x3de5b74c	0.11216602
251	0xbbd8cc3a	-0.0066161426
252	0x3d00422b	0.031313103
253	0x3e819e7e	0.25316232
254	0x3dddb000	0.10824585
255	0x3e476de6	0.19475517

2.bias f4 [32]
0	0xbe077859	-0.13229503
1	0x3da047c9	0.07826192
2	0x3c86143a	0.016367067
3	0x3e54a89a	0.20767441
4	0x3e7a7a19	0.24460639
5	0x3e16b688	0.14718068
6	0x3caeb315	0.021325627
7	0x3d5464b5	0.051853854
8	0x3d52aad5	0.05143245
9	0x3e672f98	0.2257675
10	0x3d12aee8	0.035811335
11	0x3e2f9dbb	0.17150013
12	0x3e14ce63	0.14531855
13	0x3e11a52e	0.14223167
14	0x3e67eb43	0.22648339
15	0xbdf74584	-0.12073806
16	0xbd7da701	-0.061926845
17	0xbde9689d	-0.113969065
18	0xbb947fc1	-0.004531831
19	0xbddf7732	-0.109114066
20	0xbe063787	-0.1310712
21	0x3d8b6486	0.06806283
22	0x3da3c927	0.07997351
23	0x3e428df7	0.18999468
24	0xbe1b7507	-0.15181361
25	0xbc4c44a2	-0.012467535
26	0x3e2db2d2	0.16962746
27	0x3ba7597c	0.005107103
28	0xbe0413ad	-0.1289813
29	0x3d6f9316	0.05848988
30	0xbd708183	-0.058717262
31	0x3e099504	0.13435751

4.weight f4 [16, 32]
0	0xbc895251	-0.016762884
1	0x3eb4a376	0.3528096
2	0x3ea5e0e2	0.32398134
3	0x3e8f824b	0.28029093
4	0xbd6cfd01	-0.05785847
5	0x3c816c95	0.015798846
6	0x3d413c2b	0.04717652
7	0xbd6abcd3	-0.057308983
8	0x3e30f310	0.17280221
9	0xbd4f8091	-0.05065972
10	0xbd69d1a0	-0.05708468
11	0xbd4dee51	-0.050276104
12	0x3e8b4a51	0.27205136
13	0x3ee73544	0.45157826
14	0x3d85b2b8	0.065282285
15	0xbe1edfaa	-0.15515009
16	0x3ea42f7a	0.32067472
17	0xbdbb8217	-0.09155672
18	0x3e6c4e12	0.23076656
19	0x3d56f421	0.052478913
20	0xbd67bd66	-0.05657711
21	0xbdf86627	-0.12128859
22	0xbe9d1e5b	-0.30687222
23	0x3e051919	0.12997855
24	0xbe1bf4c1	-0.15230085
25	0xbe289199	-0.16461791
26	0xbd70357e	-0.058644764
27	0xbe0263c9	-0.12733378
28	0xbdacb0e6	-0.08432178
29	0xbd3de840	-0.04636407
30	0x3df6d489	0.120522566
31	0xbf09398b	-0.5360343
32	0xbda5e51a	-0.08100338
33	0xbe9e3b82	-0.30904776
34	0xbe5d9037	-0.21637045
35	0x3e44d3c2	0.19221404
36	0xbe9b2f44	-0.30309498
37	0x3ecfe166	0.40601653
38	0x3e620a6f	0.22074293
39	0x3ed76423	0.42068586
40	0x3f3f24fa	0.74665797
41	0xbebedc87	-0.37277624
42	0x3e2f447b	0.17115967
43	0xbe3b295c	-0.18277496
44	0xbde78cf9	-0.11306185
45	0xbec8d32a	-0.39223605
46	0xbd9e10e3	-0.07718065
47	0x3e4747d4	0.19460994
48	0x3e288507	0.16456996
49	0xbda5a90a	-0.08088882
50	0x3db81c7b	0.08989807
51	0xbe10b39b	-0.14131014
52	0x3db94819	0.09046955
53	0xbda704a0	-0.08155179
54	0xbec7ea9f	-0.3904619
55	0xbe43bcc5	-0.19114979
56	0x3e196d10	0.1498301
57	0x3e0e4c3d	0.1389627
58	0x3ebb6e3b	0.36607537
59	0x3e99bd3b	0.30027184
60	0xbcc54bb3	-0.024083948
61	0x3f2f0f65	0.68382865
62	0x3d7c5db5	0.061612803
63	0x3f433a5d	0.7626093
64	0x3dcdb1d1	0.100436814
65	0xbdf0a645	-0.117504634
66	0xbc3fddbf	-0.011710583
67	0xbe2d1ad7	-0.1690477
68	0x3e1c2bb0	0.1525104
69	0xbc23f79b	-0.010007764
70	0x3e934000	0.28759766
71	0x3e80e1f2	0.25172383
72	0x3dfdcc6f	0.12392508
73	0x3e45cb6c	0.1931588
74	0xbe23744d	-0.15962334
75	0xbcb3279f	-0.021869479
76	0xbdd31188	-0.10306078
77	0x3e034246	0.1281825
78	0xbe256a7f	-0.16153906
79	0x3d49c9a3	0.04926456
80	0xbb533069	-0.00322249
81	0xbe048837	-0.12942587
82	0x3cf9b021	0.030479493
83	0x3d4dd228	0.05024925
84	0x3d102e27	0.035200264
85	0x3d97d555	0.07413737
86	0xbdce9f6d	-0.10089002
87	0x3df22a73	0.11824503
88	0xbdaa51df	-0.08316397
89	0x3d9ccd04	0.07656291
90	0xbdbaf39d	-0.09128497
91	0xbd83fabf	-0.064443104
92	0xbd261651	-0.040548626
93	0x3ebce926	0.36896628
94	0xbd98ed33	-0.07467117
95	0x3eaac167	0.3335068
96	0x3da93071	0.082611926
97	0xbe4041ec	-0.18775147
98	0xbd043c89	-0.032284293
99	0xbed6b558	-0.4193523
100	0x3e30674e	0.17226908
101	0xbe269bf4	-0.16270429
102	0x3d2c58fc	0.04207705
103	0xbe4d31d3	-0.20038538
104	0xbe3fabfd	-0.18717952
105	0x3ecc61c0	0.39918327
106	0x3ee7a929	0.45246246
107	0x3e2a8a1f	0.16654252
108	0xbd94e7b6	-0.07270758
109	0x3d155f3a	0.03646777
110	0x3e7b9dfd	0.24571986
111	0x3e963d78	0.29343772
112	0xbee41528	-0.4454739
113	0x3eca482b	0.39508185
114	0xbefc065d	-0.49223605
115	0x3d8f5ec5	0.07000498
116	0xbdf9836d	-0.121832706
117	0xbd5dadfc	-0.054121003
118	0x3ee7d21f	0.45277497
119	0x3ba564cd	0.005047417
120	0xbdad5d9c	-0.0846512
121	0x3e7d1376	0.24714455
122	0x3ea3247b	0.3186377
123	0x3d8e5fc3	0.06951859
124	0x3ddf4249	0.10901315
125	0x3e4988bd	0.19681068
126	0xbd1a1903	-0.03762151
127	0x3f0f916e	0.56081283
128	0x3e039fdb	0.12853949
129	0xbbb1a1ae	-0.005420885
130	0xbd3f40f1	-0.046692792
131	0x3d3f3cf0	0.046688974
132	0x3dd2a685	0.10285667
133	0xbe1821f5	-0.14856704
134	0xbdb2f7b1	-0.0873865
135	0x3dadb524	0.084818155
136	0x3e20ffeb	0.15722625
137	0xbcfacbb5	-0.030614713
138	0xbdf3753f	-0.11887597
139	0x3c9aea30	0.018910497
140	0xbe130993	-0.14359121
141	0x3da766ba	0.081738904
142	0xbdd69ca7	-0.10479098
143	0xbe0062f7	-0.12537752
144	0xbe320e4b	-0.17388265
145	0x3e1c790d	0.15280552
146	0x3dd5d570	0.104411006
147	0x3d166d78	0.03672549
148	0x3e1d41a9	0.15357079
149	0x3dc80a69	0.097676106
150	0xbe2b8c31	-0.16752698
151	0x3e198377	0.14991556
152	0xbe18f692	-0.14937809
153	0xbe0b419f	-0.13599251
154	0x3e1fed58	0.15617883
155	0x3b99a111	0.00468839
156	0xbd2ecc9e	-0.042675607
157	0xbd883e17	-0.06652468
158	0x3e26b045	0.16278179
159	0xbe3076fa	-0.17232886
160	0x3d9d85b7	0.0769152
161	0x3dfd4814	0.123672634
162	0xbd2e2513	-0.042515825
163	0xbcf5a279	-0.0299847
164	0x3e5d4690	0.21608949
165	0x3e56456b	0.20924918
166	0x3e136f9f	0.14398049
167	0x3e2931c2	0.16522887
168	0x3e450c5b	0.19242994
169	0xbe668076	-0.22509941
170	0xbe807958	-0.25092578
171	0xbe20f847	-0.1571971
172	0xbcc4f7b2	-0.024043892
173	0xbbc2a9ef	-0.005940668
174	0x3e732ad1	0.23746802
175	0xbdce05d4	-0.100597054
176	0x3d59aa15	0.05314072
177	0xbe277d9c	-0.1635651
178	0x3dc090c3	0.09402611
179	0xbd42bfc3	-0.04754616
180	0xbd48fca8	-0.049069077
181	0xbdc6ea76	-0.097126886
182	0x3e7db65f	0.247766
183	0x3deaf971	0.114733584
184	0x3e03f561	0.12886573
185	0x3d52eabd	0.051493395
186	0x3e09a83f	0.13443087
187	0x3d9205f0	0.07130039
188	0x3d699698	0.057028383
189	0xbce5d4a8	-0.028055504
190	0xbd4ea0bd	-0.05044626
191	0x3df0bc42	0.11754657
192	0x3e3aadfc	0.18230432
193	0x3eed5bdf	0.46359155
194	0x3e49cce7	0.1970707
195	0x3be07344	0.0068496782
196	0xbdfce150	-0.123476624
197	0x3e6214cc	0.22078246
198	0x3e8b2292	0.27174813
199	0xbe65dc56	-0.22447333
200	0xbe4a6df7	-0.19768511
201	0x3ea86ef6	0.32897156
202	0x3e5662d7	0.20936142
203	0xbd63fc23	-0.05566038
204	0x3b081ef5	0.0020770405
205	0xbdd050eb	-0.10171684
206	0x3f289fd8	0.658689
207	0x3da52d6a	0.08065303
208	0xbd945da7	-0.07244425
209	0x3e0b7125	0.1361738
210	0xbe2bc861	-0.16775657
211	0x3c7fe149	0.015617677
212	0xbd359792	-0.044334
213	0xbaae7efc	-0.0013312991
214	0x3e8b5f9c	0.27221382
215	0xbccb3255	-0.024804274
216	0x3e0d33fd	0.13789363
217	0xbe0507b8	-0.12991226
218	0x3e9f560b	0.31120333
219	0x3e278d51	0.16362502
220	0xbd229165	-0.03968944
221	0xbe4c2f3b	-0.19939892
222	0xbe17c32d	-0.14820547
223	0x3e0e90f5	0.13922484
224	0x3ca5c5d6	0.020235937
225	0x3e5c08dd	0.21487756
226	0xbe110ce0	-0.14165068
227	0x3e997512	0.2997213
228	0x3d7f19f0	0.062280595
229	0x3e6d6e83	0.23186688
230	0xbd3c777a	-0.04601238
231	0x3e21cbd2	0.15800408
232	0x3e9785b8	0.29594207
233	0x3da10607	0.07862478
234	0x3dba524d	0.09097729
235	0x3d3ab375	0.0455813
236	0xbdb5a367	-0.08869057
237	0xbd946a68	-0.07246858
238	0x3ceaf7b0	0.02868256
239	0x3e046a23	0.12931113
240	0xbc3df96a	-0.0115951095
241	0xbc8e99dd	-0.017407352
242	0xbd113287	-0.035448577
243	0xbde04ea2	-0.10952498
244	0x3e282648	0.16420853
245	0xbdc784ce	-0.09742127
246	0xbe1471a2	-0.14496472
247	0x3d536017	0.05160531
248	0x3e0c5e16	0.13707766
249	0x3d6225ce	0.055211835
250	0xbdfbf2c1	-0.12302161
251	0x3cd01b2a	0.025403578
252	0x3deae56c	0.1146954
253	0x3df68828	0.120376885
254	0xbe0e10f9	-0.13873662
255	0x3e1f20b3	0.15539818

4.bias f4 [16]
0	0x3dd00362	0.10156895
1	0x3e18f499	0.14937057
2	0x3e8aa4e5	0.2707893
3	0x3e584425	0.21119745
4	0xbd8699a3	-0.06572273
5	0x3d44e8f7	0.048073735
6	0x3da2a6ee	0.079419956
7	0xbd0c0406	-0.034183525
8	0xbe2df22d	-0.16986914
9	0x3ea06fd0	0.31335306
10	0xbe332af5	-0.17496856
11	0x3c88ba7d	0.016690487
12	0x3d5f553e	0.054524653
13	0x3dab4d71	0.0836438
14	0xbd6bfe89	-0.05761579
15	0x3d111866	0.03542366

6.weight f4 [12, 16]
0	0x3f1dd16b	0.6164767
1	0xbec6981b	-0.38787922
2	0xbef37d11	-0.47556356
3	0xbee29e15	-0.44261232
4	0xbe19f7c6	-0.15035924
5	0xbe24bba4	-0.16087204
6	0x3d4a0e55	0.049330074
7	0xbe730d56	-0.23735556
8	0x3e1fe0bd	0.15613075
9	0x3eb3fa5f	0.35151955
10	0xbe995883	-0.29950342
11	0x3d0a2e66	0.033735655
12	0x3eab7fb4	0.33495867
13	0x3eeffecb	0.4687408
14	0xbf0b488b	-0.54407567
15	0xbea8ae25	-0.32945362
16	0x3d98cd55	0.07461039
17	0xbebcf05a	-0.36902124
18	0x3dfeaa95	0.1243488
19	0xbddda3ae	-0.10822235
20	0x3c969e8d	0.01838615
21	0x3e88c116	0.26709813
22	0x3ea92d11	0.33042195
23	0x3e392012	0.1807864
24	0xbe410e18	-0.18853033
25	0xbd79484e	-0.06085997
26	0x3e4be7df	0.1991267
27	0xbdc81c10	-0.097709775
28	0x3ec55fef	0.38549754
29	0x3e9ef41a	0.3104561
30	0xbf00b36f	-0.50273794
31	0x3eabbff1	0.33544877
32	0x3e8a12f3	0.26967582
33	0x3e8dc1fe	0.27687067
34	0xbebd407b	-0.36963257
35	0xbef1a73e	-0.47197908
36	0xbe119a0e	-0.14218923
37	0xbbd6b160	-0.0065519065
38	0x3dc5b0ae	0.096528396
39	0xbbd72692	-0.0065658772
40	0x3daa603d	0.08319137
41	0xbf2be4dd	-0.6714609
42	0x3e3bffdb	0.1835932
43	0xbe40a8ec	-0.18814439
44	0xbe0c3471	-0.1369188
45	0x3eba8b6c	0.36434495
46	0xbeef87a3	-0.4678317
47	0x3f0b02ef	0.5430135
48	0xbe94d481	-0.29068378
49	0x3f1d4ba2	0.6144353
50	0x3d01b429	0.031665955
51	0xbf1c2c66	-0.61005247
52	0xbe70a30e	-0.234997
53	0x3e1e1c35	0.15440448
54	0xbe88abea	-0.2669366
55	0x3e6f62e9	0.23377575
56	0x3c604689	0.013688692
57	0xbed4d15c	-0.4156598
58	0xbe0110f1	-0.12604119
59	0x3dd2982e	0.10282932
60	0xbef016f7	-0.4689252
61	0x3e3afda5	0.1826082
62	0xbe6742a2	-0.22584012
63	0x3ed94c68	0.42441106
64	0xbe90e886	-0.283024
65	0x3f5925f1	0.8482352
66	0x3ea53573	0.3226734
67	0xbecfc6bc	-0.4058131
68	0xbe0eb792	-0.13937214
69	0x3e592d43	0.21208672
70	0xbf30a209	-0.68997246
71	0xbd7c699c	-0.061624154
72	0xbe6ffe9a	-0.23436967
73	0xbe05b1b9	-0.13056077
74	0xbd950d5d	-0.072779395
75	0x3dd7dac0	0.1053977
76	0x3d87b220	0.066257715
77	0xbf650a70	-0.8946905
78	0xbe5df4be	-0.21675393
79	0x3e920d2c	0.28525674
80	0xbe539b91	-0.20664813
81	0x3f1d7fb9	0.61523014
82	0x3d83522f	0.0641216
83	0x3ea0539a	0.31313783
84	0xbe56e436	-0.20985493
85	0xbe3ad747	-0.18246184
86	0xbea640a9	-0.32471207
87	0x3d507aeb	0.050898474
88	0xbe3d11fb	-0.1846389
89	0x3d04b944	0.032403246
90	0xbe89f854	-0.26947272
91	0x3e2b0825	0.16702326
92	0xbe47ebdc	-0.19523567
93	0xbf5c2ae7	-0.86002964
94	0x3edd2500	0.4319229
95	0xbd54f8d2	-0.051995106
96	0xbed58869	-0.41705635
97	0xbf636ce3	-0.8883802
98	0xbe3a1c51	-0.18174864
99	0x3eb8bf43	0.3608342
100	0xbd68b7f5	-0.05681606
101	0x3e6855c9	0.22688974
102	0x3ef8ad60	0.48569775
103	0xbe63d138	-0.2224778
104	0x3de1ca6b	0.11024936
105	0xbefe9f80	-0.49731064
106	0x3e34a87f	0.17642401
107	0x3d38a843	0.045082342
108	0x3ec988ec	0.39362276
109	0x3eb3d75f	0.35125253
110	0x3d8f0b7b	0.069846116
111	0x3da40798	0.08009261
112	0xbebc554e	-0.36783832
113	0xbe3a87cc	-0.18215865
114	0xbe51dd16	-0.20494494
115	0x3efdf7c8	0.49603105
116	0xbe1e83c8	-0.15479958
117	0xbe703c51	-0.23460509
118	0x3e8a01fe	0.26954645
119	0xbbcbb650	-0.0062168017
120	0xbe66c361	-0.22535469
121	0xbeb50161	-0.35352615
122	0xbb55d267	-0.003262663
123	0xbdd3b46c	-0.10337147
124	0xbe82967e	-0.2550544
125	0x3f051ede	0.52000225
126	0x3ebfbd60	0.3744917
127	0x3e0bebf8	0.13664234
128	0xbe639610	-0.22225213
129	0x3ee50c23	0.44735822
130	0xbe0f67bf	-0.1400442
131	0x3ef15118	0.47132182
132	0xbe1d6f92	-0.15374592
133	0xbd2f8490	-0.04285103
134	0x3e20e1fc	0.15711206
135	0xbe3db09a	-0.185244
136	0x3e6e2330	0.2325561
137	0xbe764d01	-0.24052812
138	0x3d8427a3	0.064528726
139	0xbe2f1ab2	-0.17100027
140	0xbf173242	-0.5906106
141	0xbd8250e7	-0.06363087
142	0x3ed9ffd7	0.42578003
143	0xb95a89ce	-0.00020841436
144	0xbe6dd2f0	-0.23224998
145	0xbe6ff6f8	-0.23434055
146	0x3e2b00a7	0.16699468
147	0x3f26f35b	0.6521508
148	0xbe63b144	-0.2223559
149	0xbe8549fe	-0.26033014
150	0xbd2af66b	-0.04173891
151	0xbeb465f5	-0.35234037
152	0x3e00ff94	0.12597495
153	0x3efdc566	0.49564666
154	0xbe30a4f7	-0.17250429
155	0xbd22a4da	-0.039707996
156	0x3d4ae007	0.049530055
157	0xbed01ce0	-0.4064703
158	0x3e9f16e1	0.31072143
159	0xbc66d27d	-0.01408827
160	0xbcb1da52	-0.021710549
161	0xbee2a033	-0.44262847
162	0x3d1b50ea	0.037918963
163	0x3e16af68	0.1471535
164	0x3d57a6d9	0.052649353
165	0xbdf3c523	-0.11902835
166	0x3dc6d084	0.0970774
167	0xbe84309a	-0.2581833
168	0x3d92ceef	0.07168376
169	0x3de29d0f	0.11065113
170	0xbd1a574c	-0.03768091
171	0x3d89ec7c	0.06734559
172	0x3ed621e9	0.41822746
173	0x3ee435b7	0.4457223
174	0x3e80de0b	0.25169405
175	0xbf1c6fc1	-0.6110802
176	0x3ee28736	0.44243783
177	0x3e06f994	0.13181144
178	0x3d8cf23b	0.06882139
179	0xbe2ce205	-0.16883095
180	0xbe71da7e	-0.23618504
181	0xbe3ce813	-0.18447904
182	0xbeaef1f3	-0.34168968
183	0xbd0090da	-0.03138814
184	0x3b7b3f4e	0.0038337293
185	0x3f2c971d	0.6741808
186	0x3d8b58bd	0.06804035
187	0x3e7cb352	0.2467778
188	0x3de34cdf	0.110986464
189	0xbe95f521	-0.2928858
190	0xbe13e281	-0.14441873
191	0xbdf070f7	-0.11740296

6.bias f4 [12]
0	0x3e048373	0.12940769
1	0x3d754d75	0.059888322
2	0xbe6389de	-0.22220561
3	0xbd263212	-0.040575095
4	0xbcffd93b	-0.031231513
5	0x3d586307	0.052828815
6	0xbdc97638	-0.098370016
7	0xbe3e25f6	-0.18569168
8	0xbdac7872	-0.084214106
9	0x3d947048	0.072479784
10	0xbe168f70	-0.14703155
11	0x3e10cb87	0.1414014
