ML Algorithm/nn_model_1-2.params (torch, 685057 bytes, 8 tensors)

0.weight f4 [512, 42]
000000 50 71 c6 3d ea 6e 70 bc 59 3f bd 3d 7f 51 64 bd
       0.096895814 -0.0146748815 0.09240598 -0.055741783
000010 a4 ea 0b be f3 7d 07 3e 20 e5 05 3c eb cc a2 bc
       -0.13663727 0.1323164 0.008172303 -0.019873103
000020 51 f0 0d 3e 25 d0 34 bd c2 ed ab bc a0 f9 e8 bd
       0.13861205 -0.044143815 -0.020987395 -0.11375737
000030 88 eb 9d 3d f8 5f d2 3d f7 6e 44 3d fc 1e cc bd
       0.0771094 0.10272211 0.047957387 -0.09966847
000040 fe c8 14 be da 6c 55 3d eb 42 e6 bd aa 0b 8c bd
       -0.14529797 0.052105762 -0.11243232 -0.06838162
000050 5d 4b 18 bd f1 de 04 bc 1c 02 15 3e a5 e0 85 3d
       -0.037181247 -0.008109794 0.14551586 0.06536988
000060 b1 21 15 be 8c 2b 07 be 8c 1b f4 3d f0 7c 1c 3d
       -0.14563634 -0.13200206 0.11919317 0.038205087
000070 f7 fc a8 3d 41 f3 c9 3d 90 d4 3b bd ef ad 61 bd
       0.08251374 0.0986085 -0.045857012 -0.055097517
000080 77 9c d0 3c c6 89 c6 3d 95 03 da bc 2e 5b 1e 3e
       0.025465233 0.09694247 -0.026613036 0.1546447
000090 c2 b0 1b bb 05 fa dd bd 17 a6 16 be 49 49 04 be
       -0.002375648 -0.10838703 -0.14711796 -0.12918581
0000a0 3a 88 68 3d 88 58 88 3d 08 93 1e be 80 69 89 bd
       0.05677054 0.06657511 -0.15485775 -0.06709576
0000b0 85 ba 9a bd 88 c3 9c bc b6 24 fa 3d 61 f1 82 bc
       -0.07555107 -0.019136205 0.12214033 -0.015984239
0000c0 7f ca 9c 3d 63 5c bb bd 1c fd a2 3c f8 13 00 3e
       0.076558106 -0.09148481 0.019896083 0.12507617
0000d0 6f 57 12 3e 4b fa f8 3d 87 b4 f9 3d 32 d3 1c 3d
       0.14291166 0.121571146 0.12192636 0.03828735
0000e0 18 52 f5 bd 98 73 8d bd 88 db 3e bd e9 b3 4e be
       -0.11978549 -0.069068134 -0.04659608 -0.20185818
0000f0 b8 aa 92 bd 56 03 86 3c d7 fa eb 3d ba 50 04 3e
       -0.07161468 0.016359013 0.11522453 0.1292142
000100 ae 24 d5 bd dd 61 b0 ba 0f bd 12 be fc 8b 37 3d
       -0.10407387 -0.00134569 -0.14329933 0.044811234
000110 25 34 6d bd cd 69 1e 3e d4 79 56 3b c8 a9 d5 3d
       -0.057911057 0.15470047 0.0032726424 0.10432774
000120 1c ad 0e 3e 9b aa 7c bd d2 a8 ba bd 77 1a c8 3d
       0.13933223 -0.06168614 -0.09114231 0.09770673
000130 86 3e 32 bd b5 2a 07 be ca 55 a7 bd 47 4e 08 bc
       -0.04351666 -0.13199885 -0.0817066 -0.008319444
000140 fd fd 55 bd 4d 4d 83 bd 48 d5 d6 3c 5d 0c 86 3c
       -0.052244175 -0.06411228 0.026224747 0.016363317
000150 0e 4f f0 3d dd 73 df bd 81 d3 d2 3c 03 16 c9 bd
       0.117338285 -0.10910771 0.025735619 -0.098186515
000160 59 a8 f6 3d a0 6b 24 bc 5a ac 95 3d ae 33 24 3d
       0.120438285 -0.010035425 0.07308264 0.040088348
000170 d5 83 8a bd 75 e8 cc bb b4 a9 2a 3d 71 a5 7d bd
       -0.06763426 -0.006253297 0.041665748 -0.061925355
000180 08 47 ab bd 21 45 a3 3d 82 2f 9a bd 94 30 95 bc
       -0.083631575 0.0797217 -0.07528593 -0.01821164
000190 6f df f8 bc f5 f2 d2 bd 53 57 a8 bd 0f 61 5b bd
       -0.030379979 -0.103002466 -0.08219781 -0.05355936
0001a0 db 66 e2 3b 17 cd 98 3d 19 a1 54 3d 47 f6 3e bd
       0.006909234 0.07460993 0.051911447 -0.046621587
0001b0 52 63 1c bd 1c 94 48 3d ef e7 ee 3b f2 88 f1 3d
       -0.038180657 0.048969373 0.007290832 0.11793698
0001c0 cd ad 12 3e e3 29 30 bc 04 4c 15 3e e1 d5 f1 3d
       0.14324112 -0.010752174 0.14579779 0.11808372
0001d0 04 8d 55 3d ce 55 2b 3d 79 da b8 3d 5a fa 15 3e
       0.052136436 0.041829877 0.09026045 0.14646283
0001e0 6c 97 fa bd 08 2a b1 bd 28 7d 5f bd 39 df 13 be
       -0.12235913 -0.08650595 -0.054562718 -0.14440621
0001f0 d8 1f 77 3d 76 e8 02 3c b3 7b 8f bd e3 9c da bb
       0.060333103 0.007989993 -0.07006016 -0.0066715344
000200 34 86 1d 3e d0 b2 03 3e 24 af fb 3d 3f 1b b2 bb
       0.15383226 0.1286118 0.12289265 -0.005435377
000210 72 71 1a 3e e3 40 d1 3d 6c 0b 0e 3e d3 4b a9 bc
       0.15082338 0.10217454 0.13871545 -0.020666039
000220 b3 1d 34 bd f8 98 c0 bb 2d ff 13 3e 6a 94 78 3d
       -0.043973636 -0.0058776103 0.1445281 0.060688414
000230 9e 23 cb bd ca 8a 22 3e 5f 57 3c bd 88 6a 15 3e
       -0.09918903 0.15873256 -0.04598176 0.1459142
000240 08 2d ae bd 17 80 94 bd aa d8 d0 3d a2 07 39 bd
       -0.08504683 -0.07250994 0.101975754 -0.045173295
000250 ff 1c 89 3d d8 a9 51 3d ea 10 ad bd 60 9e 0d be
       0.06694984 0.051187366 -0.08450492 -0.13829947
000260 bc ca 00 bc cf 49 4c 3d 11 04 e9 bd 70 a0 14 be
       -0.007860836 0.049875077 -0.11377729 -0.14514327
000270 f5 d5 3e 3c 80 82 c4 bd 88 f6 27 be 3d 06 13 bd
       0.011647691 -0.095952034 -0.16402638 -0.03589462
000280 be 7b 60 3b c3 40 17 3d 22 2f 2c 3c e9 56 ce bd
       0.0034253444 0.036926996 0.010509284 -0.100751705
000290 52 0d 02 3e b7 b7 42 3d 3d 19 ba 3d a0 23 93 3d
       0.12700394 0.047538485 0.09086845 0.07184529
0002a0 2f 9f e5 bd 25 d0 40 3d e7 6d e3 bd 9e c7 e9 3d
       -0.112120025 0.047073502 -0.111049466 0.11415027
0002b0 bb 62 23 3e 65 b7 bc 3c 86 92 17 be 11 9c 52 bd
       0.15955631 0.023036668 -0.14801988 -0.051418368
0002c0 5b 6e da bd a0 e7 f8 bd c6 2e 91 3d 96 df 94 bd
       -0.1066558 -0.12153554 0.070889995 -0.07269208
0002d0 72 52 7c bd ad a8 82 bd 7a 9c 95 3b b7 57 ee bd
       -0.061602063 -0.063798286 0.0045657726 -0.11637824
0002e0 25 bb ba 3d 78 c7 1b be ba 07 f2 3d 1e 66 53 bc
       0.09117726 -0.1521281 0.1181788 -0.012902765
0002f0 0d fb 1c 3e 7b 21 56 3d 8b f2 62 bc 18 cb 71 3d
       0.15330143 0.052278023 -0.013851772 0.059031576
000300 a2 7f 31 3d 6d 1f c6 bd 62 7d 19 bd c4 af 5a bc
       0.04333461 -0.09673963 -0.03747309 -0.01334757
000310 f4 52 eb bc 5e 7a 03 3d 08 a6 e0 bd 48 69 03 be
       -0.028726079 0.03209912 -0.10969168 -0.1283313
000320 2c 1c 40 bd cb 7c 83 3d 4c dc 26 bd f5 b5 15 be
       -0.046901867 0.06420287 -0.040737435 -0.14620192
000330 76 e6 7d bb cd 99 2a bd 57 a4 b9 bd 11 b4 1b 3e
       -0.0038742102 -0.041650582 -0.090645485 0.15205409
000340 24 96 53 bd be ea be bd 39 3a 78 bd c3 c7 ff 3d
       -0.051656857 -0.09322117 -0.0606024 0.124892734
000350 83 2f 4d bd a5 27 93 bd d2 49 80 bc 58 0d 11 3e
       -0.05009414 -0.07185296 -0.0156602 0.14165246
000360 15 9e 84 bd cf 06 21 bd a7 be 2b be 8c 1b 24 bd
       -0.06475464 -0.039313134 -0.16771947 -0.040065333
000370 35 5e 83 3d 92 4d 03 3e e6 a1 2a 3e ef 90 1c be
       0.06414453 0.1282256 0.16663322 -0.15289663
000380 6f c8 2e bc 29 f1 6f 3d 6c 9a c3 bd 9d 88 c6 bc
       -0.010667904 0.058579598 -0.09550938 -0.024235064
000390 ba 93 ba 3d 9e c3 cb bd db 68 d7 3c e1 fd 19 be
       0.09110208 -0.099494204 0.026295116 -0.15038253
0003a0 97 40 b8 3d 0d 40 53 bc 00 fa 96 3d 4c dc 1b 3c
       0.089966945 -0.012893689 0.073719025 0.009512972
0003b0 c9 3a 8e bd 90 3b b9 3d 82 8e c4 bd 57 2f da 3d
       -0.06944806 0.09044564 -0.09597494 0.106535606
0003c0 6d c0 c5 bd ea 87 09 be 1f 4c 1e be 0c 95 d0 bd
       -0.09655843 -0.13430753 -0.15458725 -0.101846784
0003d0 6e 38 f7 bd 1f 94 a2 bd b8 4b 02 be 37 60 04 be
       -0.1207131 -0.07938408 -0.12724197 -0.12927328
0003e0 5a 8c b6 bc 94 17 0b 3e 91 a7 2f bd 19 cc 13 3e
       -0.022283722 0.13583213 -0.042884413 0.14433326
0003f0 13 48 fa 3c f7 fa 1b 3e 59 be 1d 3e 21 c6 0f 3e
       0.030551946 0.15232454 0.15404643 0.14040424

0.bias f4 [512]
000000 42 be 10 3d 60 85 d9 3d f3 ba a5 3d 87 2c e7 3d
       0.035337694 0.106211424 0.08092298 0.1128779
000010 5a ad f7 bd 78 4e 19 bd 2e e3 a1 bd dd 84 b0 3d
       -0.12093611 -0.03742835 -0.07904659 0.08619092
000020 5d aa b0 3d 3d db 17 be 02 c7 be 3d e5 f5 11 bd
       0.08626244 -0.14829727 0.093153015 -0.035634894
000030 26 f5 04 3e af 74 1d 3e e0 da db bd ee 6c c5 3c
       0.12984142 0.15376543 -0.107351065 0.024099793
000040 f0 9a 90 bd 73 20 ca bd d8 3c 4c bd 07 04 50 bc
       -0.07060802 -0.098694704 -0.049862713 -0.012696273
000050 ca 04 75 3d 73 bc 81 3c d4 83 13 3e 92 c1 83 3d
       0.05981902 0.01583693 0.14405757 0.06433405
000060 a1 dc bb 3d 03 88 ed bd a8 be 11 bd cf 91 0b 3e
       0.09172941 -0.11598208 -0.035582215 0.1362984
000070 d2 f6 07 be ac 7b a9 3d 00 cd 92 bd 6a d0 be bb
       -0.13277748 0.08275542 -0.07168007 -0.0058231847
000080 2d 76 c5 3d 5d a7 08 be d7 42 c5 bd ae 29 f2 bd
       0.09641681 -0.13345094 -0.09631889 -0.11824356
000090 84 56 a5 bd 65 49 d1 bb 7d a0 0e bd 66 50 93 bb
       -0.08073142 -0.006386923 -0.034821022 -0.004495668
0000a0 29 d0 cd bd ce 7b 13 be 8d d6 2a 3d 3f 21 63 bd
       -0.10049469 -0.14402696 0.041708518 -0.055451628
0000b0 a1 2b 8e bc 73 4b 4f 3d b2 0b df 3d 26 f4 f7 bd
       -0.017354788 0.050609063 0.108909026 -0.121071145
0000c0 88 17 2b bd 75 15 0a 3e f8 1f 03 be 22 3b 05 be
       -0.041770488 0.13484748 -0.12805164 -0.13010839
0000d0 5b d2 24 3c 74 b6 68 3d 4a 74 38 bd b7 66 08 3e
       0.010059918 0.056814626 -0.045032777 0.13320433
0000e0 f7 30 5d 3d 3f 97 17 3d 61 0a 52 3d 97 ef b8 bd
       0.054001775 0.037009474 0.05127943 -0.09030073
0000f0 da 86 20 3d cc 75 bb 3b 30 6b b5 3d 3a aa ea 3d
       0.039191104 0.0057208296 0.08858335 0.114582494
000100 be 09 15 be fa de f3 3c 59 62 fc bd 42 ec 3d 3c
       -0.14554498 0.02976941 -0.12323446 0.011591973
000110 da 51 f8 bd e8 37 ab bd aa 2d 84 bd 94 18 11 be
       -0.12124987 -0.08360273 -0.06454022 -0.14169532
000120 6c 7f 85 3c da f2 c5 bd bb 98 49 3d ac 72 08 be
       0.016296111 -0.09665461 0.04921792 -0.13324994
000130 70 31 df 3d f5 d3 40 3d 29 2e 66 3d 48 e5 dc 3c
       0.10898101 0.047077138 0.056196366 0.026964799
000140 c9 7f 95 bb f1 dd 01 3e 90 95 d5 3d 30 cb c0 bd
       -0.0045623523 0.1268232 0.104289174 -0.09413755
000150 2a 1b e3 3d cc 8f 89 3d f9 b4 fa 3d 8a ca 01 be
       0.110891655 0.0671688 0.12241549 -0.12674919
000160 25 11 1a 3e e1 fc f2 bc d8 0c 2c 3e 95 ce 15 3e
       0.15045603 -0.029661598 0.16801775 0.14629586
000170 d5 4f f4 3d 8c 26 64 3d a8 81 e6 bd ca 3f b8 bd
       0.11929289 0.055700824 -0.11255199 -0.08996542
000180 98 92 f4 bd 3b c1 ca 3c b1 e1 ef 3d 78 c6 f1 bd
       -0.11942023 0.024750343 0.11712969 -0.11805433
000190 02 d4 e0 3d 8e 55 c0 3d e6 db 0a 3e 28 58 a5 3d
       0.10977937 0.09391318 0.13560447 0.08073455
0001a0 30 17 0f be 20 ae 66 3c 06 0d d6 bd d1 a4 10 be
       -0.13973689 0.014079601 -0.10451703 -0.14125372
0001b0 6f 01 66 3d 87 5e 09 be e3 22 0d 3e 8d cf 85 bd
       0.05615371 -0.13414966 0.1378284 -0.06533728
0001c0 6f ae 0d be 4d 68 14 3e f3 99 c8 3d 98 bc df bd
       -0.13836072 0.14492913 0.097949885 -0.10924643
0001d0 03 ea 5a bd 73 8a af ba 2d b6 e8 3d 13 4f 21 3e
       -0.053445827 -0.0013392702 0.11362872 0.1575282
0001e0 a0 4e 02 be c5 f9 82 bd 42 7d 81 bd 6c dd eb 3d
       -0.12725306 -0.06395296 -0.06322719 0.11516842
0001f0 6c e7 0f 3e 8c a8 a8 bd fe 28 cc 3c 12 d3 d1 3d
       0.14053124 -0.08235273 0.02492189 0.102453366
000200 26 f4 17 3d 9f 21 19 bd 02 fc 9e 3d d5 c1 ea 3c
       0.037098072 -0.03738558 0.077629104 0.02865688
000210 e8 1a d9 bd d6 f7 88 3d 68 69 5b 3d 36 ea 18 3c
       -0.10600835 0.06687896 0.05356732 0.009333184
000220 c7 70 10 3e 69 11 4d bd 66 88 1d 3e 6b 80 d8 bd
       0.14105521 -0.05006543 0.15384063 -0.10571369
000230 e6 b8 ff bd b4 e3 de 3c d6 90 0a be d4 30 2f bd
       -0.124864385 0.027208187 -0.13531813 -0.042771176
000240 50 29 c4 3d a6 dd 13 bd 7a bc ab 3c 47 9c 17 3d
       0.09578192 -0.036100052 0.020963896 0.037014272
000250 5d e9 e1 bd fd 16 00 3e 11 41 e2 3d d8 85 0e 3e
       -0.11030839 0.1250877 0.11047567 0.13918245
000260 7c 0e 1e 3e 6d dc 40 bd b9 ac 04 3e 3f f9 7f bd
       0.15435213 -0.047085214 0.12956513 -0.06249356
000270 1f e5 cd bd d1 8a 90 3d f6 6c 58 3d 43 a8 b6 3d
       -0.10053467 0.07057727 0.05283829 0.08918812
000280 87 fa dc bd 7c 6f b0 3d db 5c cc bd 91 2e bc bd
       -0.10789972 0.08615014 -0.09978648 -0.09188569
000290 42 6f 91 3d ac a4 ea bd 6e 43 fa 3d 4c a0 5f bd
       0.07101299 -0.1145719 0.122198924 -0.05459623
0002a0 ed bd 0d be 45 53 8a bd 19 5c 61 3d 94 2e 81 3d
       -0.13841982 -0.06754164 0.05501947 0.06307712
0002b0 f5 78 be bc b4 9a fd bd de 45 8b bb a8 cd f4 3d
       -0.023251036 -0.12383023 -0.004250272 0.11953288
0002c0 60 f3 12 3e 52 b8 ff bc 43 fd d5 3d d5 ed 28 3e
       0.14350653 -0.03121582 0.104486965 0.16496976
0002d0 37 ca 09 be 11 fc 1c 3e 55 ce 02 3e 68 49 ae bc
       -0.13456045 0.1533053 0.12774022 -0.021275237
0002e0 da f4 12 3d 61 6d a6 bd 62 2b ab 3d fd ae e4 3d
       0.03587804 -0.08126331 0.08357884 0.11166189
0002f0 66 a9 0c bd 95 2e 16 3e 75 b5 e3 bd b1 21 96 3c
       -0.03434124 0.14666207 -0.111185946 0.018326612
000300 4e 09 a4 3d 24 bf 3b bb 51 e4 25 3e da 66 c1 bd
       0.08009587 -0.0028647864 0.16200377 -0.094434455
000310 69 b8 11 be f2 fb 07 be a6 b0 84 3c 3c 85 e3 bd
       -0.14230503 -0.13279703 0.016197514 -0.11109397
000320 71 c1 2f bd 23 de be 3b fd 81 14 3e 82 1c de 3c
       -0.04290909 0.0058248206 0.14502712 0.027113203
000330 ac 09 02 3e aa 6b 0a 3e ca 09 99 bd 14 2c 4d 3d
       0.12699002 0.13517633 -0.0747257 0.050090864
000340 be 40 1e bd 2c dc 84 3d e7 85 16 be 98 c5 98 bd
       -0.03863596 0.06487307 -0.14699517 -0.07459563
000350 ca 47 b2 3a a8 ce 0a 3e 49 71 ef bd 21 b6 ff bd
       0.0013601717 0.13555396 -0.11691529 -0.1248591
000360 da 1f 41 3b e9 2d 11 3d 09 78 ac bd b6 a2 43 bd
       0.0029468448 0.035444174 -0.084213324 -0.047762595
000370 54 13 66 3d 02 b0 c3 3a c9 aa c0 3d 17 f6 9f bc
       0.056170776 0.0014929774 0.09407575 -0.019526524
000380 a2 f7 eb bd ea d3 99 3d 58 b8 65 bc 24 0b 03 3d
       -0.115218416 0.075111225 -0.014021002 0.031993046
000390 1c 3d 10 be f4 b6 13 3c 25 ef d6 3c 03 b8 52 bd
       -0.14085811 0.009015787 0.02623708 -0.05144502
0003a0 7d a8 8f bd eb 1e a2 bc 75 66 25 3e d1 35 0b 3e
       -0.070145585 -0.019790133 0.16152366 0.13594748
0003b0 ce 02 23 3e bb 26 92 bd d1 d2 cc 3d ec 52 40 3d
       0.15919039 -0.071362935 0.100011475 0.04695408
0003c0 87 03 10 3d 76 40 e0 bc 82 d1 a0 bd 8b 1e c4 bd
       0.035159614 -0.027374487 -0.078524604 -0.09576138
0003d0 d3 b8 f0 bd 85 9a e4 bd 87 cf 9f bd 20 3a 82 3c
       -0.117540024 -0.11162285 -0.078032546 0.015896857
0003e0 54 09 29 3d 67 4b fb 3c 38 8c 7a bd f3 6e 6f 3d
       0.04126866 0.030675603 -0.06116888 0.05845542
0003f0 3f 34 19 3e 0c 6d 09 be 38 0a 0b be e8 29 60 3d
       0.14961337 -0.13420504 -0.13578117 0.054727465

3.weight f4 [256, 512]
000000 76 15 31 3d 0a e8 8d bc 9c 4a 9b 3c 5c 44 3e 3c
       0.043233357 -0.017322559 0.018956475 0.011612978
000010 f2 2d ad bc 9f 1a b3 bc 78 49 ee bb 00 6b cc 3c
       -0.021140072 -0.02186328 -0.0072719418 0.024953365
000020 d3 03 2a 3d 2d b2 8c 3c ec 6f bc bc 87 1e 21 3d
       0.041507553 0.017174805 -0.023002587 0.039335754
000030 7c f3 7c 3c ba a7 b4 bb 71 59 30 bd f5 1f b5 3c
       0.015438911 -0.0055131586 -0.043054048 0.022109965
000040 bc 8a 1c bc 1a fa 71 bc 60 7b e8 3a cf b5 2c 3d
       -0.009554561 -0.0147691015 0.0017736964 0.042165574
000050 91 70 1b 3d a5 04 38 3d a7 79 47 3d 47 96 18 3d
       0.03794915 0.044926304 0.0487 0.03725269
000060 d0 62 96 3a 84 5d 2a 3d 9e b7 85 3c de aa 85 bb
       0.001147354 0.04159309 0.016322907 -0.004079207
000070 53 7a 02 bc af b5 25 3d 6b 45 0c bd d2 e2 04 bd
       -0.007963735 0.04045647 -0.03424589 -0.032442875
000080 50 7e e7 3c 2f 7b 8f 3a b7 96 b2 bc 7c da 04 3b
       0.028258473 0.0010946746 -0.021800382 0.0020271828
000090 10 12 ce 3c d0 b7 61 bc a0 36 21 3d 06 bf c3 3c
       0.025155097 -0.0137767345 0.039358735 0.023894798
0000a0 6d 94 16 bc 5f 5d 6f 3c fc 9c 81 3c 11 57 49 bc
       -0.009190661 0.014609664 0.015821926 -0.012288825
0000b0 28 4e e0 bc bc db 20 3d 90 c5 cb bc d6 ef 0e 3d
       -0.027381018 0.039272055 -0.024874479 0.034896694
0000c0 e2 12 b3 bc a9 f2 a7 bc 83 de be bc 88 14 0c 3b
       -0.02185959 -0.020501452 -0.023299461 0.0021374542
0000d0 c4 77 e3 bb 7b 8d c6 bc ed 4e 2f 3d 78 d2 a8 bc
       -0.0069417674 -0.024237385 0.04279988 -0.020608172
0000e0 e0 f3 87 bb d1 b8 00 3d b5 aa fb bc d1 45 2c 3d
       -0.004148945 0.031426255 -0.030721048 0.04205877
0000f0 83 f0 60 bb a8 86 34 bc 99 ad f0 bb 09 49 f9 3a
       -0.0034323044 -0.011018433 -0.007344913 0.0019018959
000100 93 a9 c8 3b 73 8d 57 3c 29 62 20 bb 68 93 37 3d
       0.0061237304 0.013156283 -0.002447257 0.044818312
000110 aa 3f ed 3c 01 e0 f0 3b 30 6d 86 bc 06 33 da 3c
       0.028961021 0.007350922 -0.016409487 0.026635658
000120 ac d2 a1 bc a4 1d 47 3c 3f a7 0b bd 79 6a 54 bb
       -0.019753776 0.012153063 -0.034095045 -0.0032412095
000130 22 d8 a3 bc 9e bb 2e 3d 79 8a 73 bc d5 c5 bc 3c
       -0.020000521 0.042659394 -0.014864557 0.023043552
000140 38 0f 01 3b f6 49 a8 3c 75 8c e8 bc b3 a0 15 bd
       0.001969291 0.02054308 -0.028387288 -0.036530208
000150 25 bf 1f 3d 32 23 27 bd bc 00 6b 3c 81 8c ae bc
       0.03900065 -0.04080505 0.014343437 -0.021307232
000160 dc a3 b5 3c 4c cc 98 b9 a9 e5 42 3d 39 8f a9 3b
       0.02217286 -0.00029143912 0.047582302 0.005174544
000170 1b 89 18 3d 6d 4c 21 3c 07 25 2a 3d c6 99 63 3c
       0.03724013 0.0098448815 0.04153922 0.013891643
000180 0e 97 b6 b9 0e 51 19 3a c6 c9 87 3c 3b df c3 3c
       -0.0003482629 0.0005848565 0.016575705 0.023910156
000190 d6 c9 05 3d 8e 12 27 bd c6 45 2e 3d 4a 18 88 bc
       0.03266319 -0.04078918 0.04254701 -0.016613144
0001a0 76 b9 2b 3c 2b 15 f6 bc 28 4e 19 3d 9a 4f 2c bb
       0.010481229 -0.03003939 0.03742805 -0.0026292563
0001b0 20 7e a6 bb a7 ee 72 bc c5 79 e8 3b e5 ce 19 bb
       -0.0050809532 -0.014827407 0.007094594 -0.0023469266
0001c0 00 1c 28 bd 1e 7a a6 b9 b1 d8 8c 3c 82 d2 49 bc
       -0.041042328 -0.00031752972 0.01719317 -0.012318255
0001d0 d2 3e c6 bb 3c 72 b8 3c 6f 6c 28 3a e8 a2 68 bc
       -0.0060499692 0.022515409 0.0006424849 -0.014198996
0001e0 1f 78 65 bc b7 0f 0c 3d cb 29 1e bd e7 3d ad bc
       -0.01400569 0.034194674 -0.038614076 -0.021147681
0001f0 db 0b c2 3a ea f4 cc bc 38 d2 2f 3d 3c 84 cb bc
       0.0014804559 -0.025019128 0.04292509 -0.024843328
000200 83 8c ab bc 89 81 05 3d 4e bc 06 3d 0f d4 f6 ba
       -0.020941025 0.032594237 0.032894425 -0.0018831509
000210 d7 86 19 bd 59 06 79 3c 93 59 68 3d 6d b6 22 3d
       -0.03748211 0.015199267 0.05672605 0.039724756
000220 29 57 88 bc 2b ba 6a 3c a9 64 2a bd d9 1e 6a 3c
       -0.016643124 0.014326612 -0.041599903 0.014289581
000230 4d 71 59 3b 3c 7e 0b 3d bf b9 95 bc 3c 91 1b bd
       0.0033179105 0.034055933 -0.018277047 -0.037980303
000240 03 ff 10 bd ef cb 68 bc c9 df e6 3c a2 35 29 3d
       -0.035399448 -0.014208778 0.028182881 0.041310914
000250 d7 50 84 3c ad fe 01 3d b4 ed 2b 3d 0b 64 01 3d
       0.016151829 0.03173702 0.04197474 0.03158955
000260 db 45 39 3d 74 7f 09 bb 63 4a f7 3c 3e 65 0c bd
       0.045232635 -0.002098051 0.030186838 -0.03427624
000270 12 3c a0 3b 7a 53 5a 3d 4d ea 96 bc 96 1a 9b bc
       0.0048899734 0.053302266 -0.01842227 -0.018933576
000280 38 33 2e 3d 76 fc bc 3c 76 91 da bc 77 77 bb bc
       0.042529315 0.023069602 -0.02668069 -0.022884114
000290 9b 07 2b bd ce 69 20 3b 55 27 0d bd 9b 12 67 bc
       -0.0417553 0.0024477127 -0.034461338 -0.014103557
0002a0 91 19 c3 bc fe e1 9a 3c 12 25 25 3d ac ae bc 3b
       -0.023815902 0.01890659 0.040318556 0.005758127
0002b0 55 e1 07 bd 33 4c 86 3c 73 d0 ff bc fd 65 5d 3c
       -0.033173878 0.016393756 -0.031227326 0.013513085
0002c0 e9 22 f7 bc 13 d3 26 3b a3 79 35 3d 48 03 06 3d
       -0.030168014 0.00254554 0.044305455 0.032717973
0002d0 ac af a3 bc a1 5e 2c 3a a7 89 c7 3c 4f dd d8 bc
       -0.019981228 0.000657538 0.02435763 -0.026472716
0002e0 04 62 cd bc 7b 8c 05 3d b2 00 74 3c ac 83 57 3c
       -0.025071152 0.032604676 0.014892744 0.013153952
0002f0 99 6b 57 3d 2e 08 35 3d 47 ec 23 3d 55 74 14 3c
       0.052592847 0.044197254 0.040020254 0.009060939
000300 b0 58 de 3c 3a 81 c5 3a 70 80 26 3b 40 cf eb 3b
       0.027141899 0.001506842 0.0025406145 0.007196337
000310 b7 00 a2 3b a1 fa 36 3c 73 99 da 3c 9b eb fd bc
       0.004943933 0.011168153 0.026684498 -0.030996135
000320 b6 fb 12 3d 33 c9 29 bd c2 79 9d bc 26 ce 04 bc
       0.03588458 -0.041451644 -0.019223098 -0.00810579
000330 a2 4d ce 3c 3a 98 71 3c 23 41 24 3c 42 68 28 3d
       0.025183503 0.014745766 0.010025295 0.041115053
000340 2f 54 c7 bc 34 6a 24 3d 15 10 1d bb c9 d8 1c bd
       -0.024332134 0.040140346 -0.0023965884 -0.03829268
000350 cd 4f e0 3c 92 34 4a 3c fb 95 e8 3b 69 f4 02 bc
       0.027381802 0.012341635 0.007097957 -0.007992842
000360 97 86 1f 3d 93 d0 7c 3a fc ab 24 3d ba 00 45 3c
       0.038946714 0.0009644117 0.04020308 0.012024099
000370 65 b1 b0 bc 26 4d 22 bc 5b aa 51 3c 80 f1 0c 3d
       -0.021568963 -0.009906089 0.012796964 0.03441
000380 5c e5 f7 bc 68 80 8b 3c 90 21 3c 3d b6 5b 83 bb
       -0.030260734 0.017029002 0.045930445 -0.0040087355
000390 29 54 f3 3c ec c9 70 3c 3d 13 9a 3c 84 e4 1e bd
       0.029703217 0.014696579 0.018808002 -0.03879215
0003a0 ba 18 c0 3b a4 8d bd 3c 87 df 54 3c 42 e8 b2 bc
       0.0058623226 0.023138829 0.012992746 -0.021839265
0003b0 7e e5 f0 3c 45 f9 57 bc b4 30 b1 bb 20 0c a7 3c
       0.029406305 -0.013181989 -0.005407417 0.020391524
0003c0 c5 61 28 bd 4a 67 c0 3c e9 5d 58 bc 28 33 83 3b
       -0.041108865 0.023486752 -0.013205984 0.004003901
0003d0 e1 18 33 3c af b3 0d 3d f2 4b 93 3c 4f 63 7f bb
       0.010931225 0.034595188 0.01798055 -0.0038969105
0003e0 fe 49 d6 3c 06 fd 0e 3d e1 59 93 3b 8d ac 8a bc
       0.02615833 0.03490927 0.0044967984 -0.016927982
0003f0 05 59 0e 3d 3b f9 a8 3c ca f0 03 3d d9 2a 62 3c
       0.034752864 0.020626655 0.032212056 0.013804161

3.bias f4 [256]
000000 17 0a 21 3d 7b 62 67 bc 5a 21 c3 bc 9e 05 81 3c
       0.039316263 -0.014122601 -0.023819614 0.015749749
000010 73 74 fe b9 9f d7 92 bc 26 13 29 3d 2c ef c8 3c
       -0.00048533417 -0.017925082 0.041278027 0.024528109
000020 c8 1b 60 ba 13 3c 08 bb 5b e7 b8 3c 5b 9f 47 3d
       -0.00085490616 -0.002078776 0.022571256 0.048735958
000030 60 39 a9 3c 92 44 43 bb be a9 83 ba cc 36 8d 3c
       0.020657241 -0.002979551 -0.0010045094 0.017238043
000040 ef b4 d5 3c 28 5a 1d 3d b1 4a b6 bc 12 a6 07 bd
       0.026087252 0.038416058 -0.022252413 -0.03311736
000050 c2 f1 36 3d 78 6a 1d bc c8 a2 38 3b 99 f3 11 3d
       0.044664152 -0.009607904 0.0028173197 0.035632703
000060 eb 93 41 3d f1 a6 df 3a 11 5a ab 3c 76 f5 81 bc
       0.047260206 0.0017063302 0.02091697 -0.015864115
000070 16 3f 02 3d 21 a0 10 bd b4 12 3c bc 7a 46 77 bc
       0.031798445 -0.03530896 -0.011479069 -0.0150924865
000080 78 5f 04 3d c1 d1 36 3d 30 13 4b 3d b3 3b 2c bb
       0.03231761 0.04463363 0.049578846 -0.00262807
000090 aa 9b ec 3c 72 ef e8 bc c3 aa 43 ba de dd 9f 3c
       0.02888282 -0.028434489 -0.0007464105 0.019514974
0000a0 3d 6b 43 bc 43 5d a7 3c 88 96 a9 3b 02 f1 75 bc
       -0.011927423 0.020430213 0.0051754154 -0.015011074
0000b0 c5 87 15 3d 2a 56 f0 3b 23 2a 54 3d 84 43 92 bc
       0.036506433 0.0073344903 0.051797997 -0.01785446
0000c0 83 9a c5 3a 07 28 b8 bb c2 9a 1f 3c 56 ce df 3c
       0.0015075955 -0.005620006 0.009741487 0.027320068
0000d0 05 eb e0 ba 6e 6f aa 3b 2c 14 af bc 2c 8f f3 3c
       -0.0017159885 0.0052012717 -0.021371923 0.029731356
0000e0 8f 50 5f 3d 8e 8c fc bb f8 46 be 3c 36 7f 88 bc
       0.054520186 -0.007707185 0.0232272 -0.016662221
0000f0 c1 6a d5 bb 98 af d9 bc b4 42 36 3c dc 4b 9f 3a
       -0.00651297 -0.026572987 0.011124302 0.0012153345
000100 8f 4b 8a bb 27 16 41 3c ac 7c b6 3c 02 97 04 bd
       -0.004220433 0.011785067 0.022276245 -0.032370575
000110 fc 4c 13 3c b3 05 5d 3d 16 ef 8c bc 94 72 d2 3a
       0.0089905225 0.053960513 -0.017203849 0.0016055875
000120 e8 88 bf bb 8c 8d 8f bb a1 52 01 bc f6 7d e3 bc
       -0.005845178 -0.0043808874 -0.007893235 -0.027770024
000130 d3 35 d1 3c 31 0f 1e 3d ca f1 70 3c cb 17 2b bd
       0.02553836 0.038588706 0.0147060845 -0.041770738
000140 50 4b 20 3d 8e 68 b4 bc 42 a4 1a 3d 02 cb f0 bb
       0.039134324 -0.022022512 0.037754305 -0.007348419
000150 19 77 fd bb bb 65 cc 3c a9 31 39 3d 38 f5 fa 3c
       -0.007735145 0.024950853 0.045213375 0.030634508
000160 3a 2f 13 3d 2f 53 dc bc a8 96 10 3d be 81 d7 bc
       0.03593371 -0.026895134 0.035299927 -0.026306983
000170 e4 e6 99 3c fc 31 36 3b 58 e9 dc 3c 4a 2f 0a bd
       0.018786855 0.002780079 0.026966736 -0.033736505
000180 66 83 a9 bc c8 3a 90 ba a3 9c 8c 3c 22 e0 c2 bb
       -0.020692538 -0.0011003846 0.017164534 -0.005947129
000190 4b 80 7f 3b bd d5 19 3c 46 ea 40 3d 13 78 33 bb
       0.003898638 0.009389338 0.04709842 -0.0027384802
0001a0 3b 55 17 bd 23 18 29 3c 12 ae 61 3d d4 19 b6 bc
       -0.036946516 0.010320696 0.055097647 -0.022229113
0001b0 10 7d a8 3c 71 4d 4d 3d 23 7f a3 3c d1 c5 81 3a
       0.020567447 0.050122682 0.019958084 0.0009900873
0001c0 7a a7 61 3d 06 08 de bc f0 2f 9d 3a e8 34 16 3d
       0.05509136 -0.027103435 0.0011992436 0.03667155
0001d0 23 ce f4 bc 84 ff 02 bd 37 99 60 bc b6 e3 c7 3a
       -0.02988345 -0.03198196 -0.013708404 0.0015250358
0001e0 f7 36 f5 bc 66 5f 46 bc 45 93 06 bd 4b 6e f9 bb
       -0.029933436 -0.012107706 -0.03285529 -0.007612025
0001f0 21 75 0d 3d 15 28 25 3d f0 a1 f7 3c 46 6e 1e 3c
       0.03453553 0.04032143 0.030228585 0.009669846
000200 a4 8f fb b9 86 f4 5a 3c b7 ce d9 3c 33 83 85 b9
       -0.0004798147 0.013363963 0.026587827 -0.00025465488
000210 ca bf de 3c 86 9b f5 3b 07 86 5f 3b 35 23 d9 3b
       0.027191062 0.0074953465 0.0034106986 0.0066265115
000220 f9 9e 0a bd 63 6e 17 bd ef 22 11 3c 8c b4 57 3a
       -0.033843014 -0.036970507 0.0088584265 0.00082285027
000230 81 72 d5 bb 5c 33 18 3c ac b7 14 3d 39 93 00 3d
       -0.006513894 0.009289589 0.036307976 0.031390402
000240 4c 15 05 3c 95 60 21 3c c0 cf 76 3b ff 8f af 3c
       0.008122753 0.009849687 0.003766045 0.021430967
000250 61 8f db 3c f0 a8 b5 bc 21 73 ab 39 4c cb 0a bd
       0.026801767 -0.022175282 0.0003270144 -0.033885285
000260 7f f6 c4 bc ef 84 c5 3a 11 1e 07 bd 4c 5e 31 bb
       -0.02404332 0.0015069525 -0.032987658 -0.0027064262
000270 a8 05 fe 3c 0f c5 09 3d 58 3f 5f 3b 12 cd da 3c
       0.031008556 0.033635195 0.0034064855 0.026709113
000280 37 00 48 bb 67 7d 16 3d ca 16 1d 3d 50 e8 24 bd
       -0.0030517706 0.036740687 0.03835181 -0.040260613
000290 57 b4 e6 bc 37 15 1e 3d e1 4d 80 3d 15 6e 9a 3b
       -0.028162165 0.03859445 0.06264854 0.00471283
0002a0 e6 8a a0 3c b3 3e a8 bb 11 9a 18 bd 31 96 5b 3d
       0.019597482 -0.0051344275 -0.037256304 0.05361003
0002b0 52 df 46 3c 26 bf 28 3d 07 39 ee bc 68 82 bd 3c
       0.012138205 0.04119792 -0.029079927 0.023133472
0002c0 5c a3 35 bd 6f 60 f6 bb ee ec a6 3c 96 eb 17 3b
       -0.044345245 -0.00751882 0.020376649 0.0023181192
0002d0 03 4e af 3c c9 6b dc 3c fb aa 67 3c 5e b2 d3 3c
       0.021399504 0.026906865 0.014139886 0.025841888
0002e0 e7 3b d6 3c 68 62 c6 3c 8d 91 22 3c 38 b7 e5 3c
       0.02615161 0.024216846 0.009922397 0.028041467
0002f0 51 f5 f6 bc 93 9e f2 ba 66 5c 0d 3d f3 e8 f3 bc
       -0.030146273 -0.0018510394 0.034511946 -0.029774165
000300 7b d6 40 bc 2c 58 62 3c 76 3b a0 bc 4c 7c a2 3c
       -0.011769886 0.013814967 -0.019559603 0.01983466
000310 3b 85 1e 3c c8 72 f9 3c 86 47 26 3d ad a0 7e bc
       0.009675319 0.03045024 0.040595554 -0.015541238
000320 07 ff f2 3b b3 4e 26 3c 59 8a 25 bd 24 46 52 3d
       0.0074156555 0.010150599 -0.04041514 0.051336423
000330 56 ee 87 3c 99 d6 b0 bc 10 cf 85 3c 37 2e 17 3d
       0.01659314 -0.021586703 0.016334087 0.03690931
000340 aa bc 38 ba e2 8e 4b 3d 48 b0 23 3d a2 f3 62 bb
       -0.0007047156 0.04969681 0.039963037 -0.003463008
000350 41 3a 98 ba d1 cc 1b bd eb 51 9c 3c 39 c3 0f 3d
       -0.0011614041 -0.038037125 0.01908203 0.03509829
000360 1a 71 23 3d ac 7c 34 bd 12 a8 07 bb 90 86 29 bd
       0.039902784 -0.04406421 -0.0020699543 -0.041388094
000370 0a 15 9a 3c fc 1c 47 3c 03 b2 d9 bb 42 94 4f 3b
       0.01880886 0.0121529065 -0.006643535 0.0031674062
000380 1a 51 f4 3b 81 9f 8b 3c 8a 03 38 3d 2b 8b 1a 3d
       0.007455957 0.01704383 0.04492525 0.037730377
000390 d9 9b bb bb 6a a6 ce bc cd cf 11 3d c3 d1 9a 3b
       -0.0057253656 -0.025225837 0.035598565 0.0047247126
0003a0 14 6d 10 3d 9f 4a 94 3c 2f 4b 8d bc ac 81 81 b9
       0.035260275 0.018101988 -0.017247764 -0.0002470141
0003b0 6c 07 a0 bc d5 5d 01 bc 82 02 0f 3d 18 d2 f4 bc
       -0.019534789 -0.007895906 0.0349145 -0.029885337
0003c0 b7 ba 21 3d b4 58 0a bd ef a9 4c 3d 98 f3 2f 3d
       0.039484706 -0.033776 0.04996675 0.04295692
0003d0 9e ae 15 bd 0c 46 c9 bc 2a 5d 95 bc 96 58 88 3c
       -0.03654348 -0.024569534 -0.0182329 0.016643804
0003e0 50 4c b9 bc 7b 85 11 3d c3 7d 15 3d c9 ca 30 3d
       -0.022619396 0.035527688 0.03649689 0.04316214
0003f0 9d 83 b2 bc 71 c3 51 39 77 ee a2 3b 5c fc e8 ba
       -0.021791274 0.00020004601 0.004972275 -0.0017775404

6.weight f4 [64, 256]
000000 e5 25 84 3d f5 9e 1f 3d 46 2a c1 bc 31 b9 b4 bc
       0.0645254 0.038969953 -0.023579728 -0.022060962
000010 48 24 36 3c 0d 16 24 bd 46 f9 2d 3d bb ba 4a bd
       0.011117049 -0.04006009 0.042474054 -0.049494486
000020 24 6f f7 3c b6 e1 f3 ba f7 3c 11 3d f2 d8 98 3c
       0.030204363 -0.0018606696 0.03545853 0.018658135
000030 bc 08 39 3d 87 df 85 bb a7 60 49 3c a1 06 1c 3c
       0.045174345 -0.0040854844 0.01229111 0.009523065
000040 33 d4 53 3d 16 51 37 3d 83 e6 87 3d 9a 7e 44 bd
       0.05171604 0.044755064 0.066357635 -0.0479723
000050 40 e4 87 bc 3e ae 22 3d 20 fe 05 3c be b1 66 3d
       -0.01658833 0.03971695 0.008178264 0.056321852
000060 06 11 c5 bc 9c 0e 67 3d 39 c9 3d 3d 5a 93 32 3d
       -0.024055969 0.056410417 0.04633448 0.043597557
000070 67 ef 67 3c 62 22 ce 3c fa c3 13 3b d5 11 a1 3c
       0.014156199 0.02516288 0.002254723 0.019661823
000080 98 37 32 bc 47 05 0b bd 60 d0 6c 3d a5 2d a9 bc
       -0.010877512 -0.03394058 0.05781591 -0.020651648
000090 cf b9 d1 bb ab 25 67 bd 69 42 8f 3d 1e b9 88 bc
       -0.006400324 -0.056432407 0.069950886 -0.016689833
0000a0 85 c2 dc 3c 68 db 80 bc ce be 11 bd a1 cc fa 3c
       0.026948223 -0.015729621 -0.035582356 0.030615153
0000b0 cb 90 09 3d d5 50 b5 bc 32 b7 5e 3d 01 83 29 bd
       0.03358535 -0.02213327 0.054373927 -0.0413847
0000c0 95 11 2b bc 49 d0 2b 3d 44 12 6c 3d e4 cf d6 bc
       -0.010441204 0.041946683 0.057634607 -0.026222177
0000d0 45 9e 67 bd 59 9b 2b 3b 13 79 27 3d 9c 9f 2b 3d
       -0.056547422 0.0026185124 0.04088695 0.041900262
0000e0 16 92 55 3d fb b9 fc bc ce 4e 16 bd 57 41 0f 3d
       0.05214127 -0.030850401 -0.036696248 0.034974422
0000f0 85 20 75 bc 70 83 0e 3d 8c 08 0c bd 2f ff 8a 3c
       -0.014961367 0.034793317 -0.03418784 0.016967384
000100 c7 ec 54 3d 16 c8 4c 3d e2 22 9f bb 8f 9f 45 3d
       0.05198362 0.049995504 -0.0048564533 0.04824787
000110 a5 02 b9 b9 9c 8b 3c bb 3a 3c a9 3c 86 c7 87 bd
       -0.0003528792 -0.0028769737 0.020658601 -0.06629853
000120 38 53 d4 3c 4d 5c 58 bc e5 3d 56 bd ea f2 bf bc
       0.025918588 -0.0132056 -0.05230512 -0.02343126
000130 f3 e3 8e 3c 23 20 c9 3b 07 61 0e bc bc a2 0b 3d
       0.017442679 0.006137864 -0.008690125 0.034090742
000140 3c ea 41 bd 9b d4 1b 3c fb f6 e5 bb 42 82 c4 ba
       -0.047342524 0.009511138 -0.0070179678 -0.0014992433
000150 1a c7 42 3d c7 e2 9c 3c df a8 32 3d bc 7e 2f bd
       0.04755316 0.019151105 0.04361808 -0.042845473
000160 43 36 5f bd 11 6d fb 3c ea 7a bc bc 58 e4 f0 3c
       -0.054495107 0.030691655 -0.023007829 0.029405758
000170 c3 96 80 bc dc cb 13 3d 99 4b 23 3d 0e 3f 0c bd
       -0.015696889 0.036083087 0.039867017 -0.03423982
000180 d0 39 36 3c 5d 25 81 3c d0 73 36 bb c0 be 48 bd
       0.011122182 0.015764887 -0.0027840026 -0.04901004
000190 4d cb e3 bc 2b fb 75 3d b5 80 43 3d f4 4f 8d 3d
       -0.027806902 0.060053986 0.047730166 0.069000155
0001a0 b8 04 18 bd 34 83 2f bd b2 53 3d bd 1f 7b 35 3d
       -0.037113875 -0.042849734 -0.046222396 0.04430687
0001b0 39 31 b2 bb ab d1 71 bc 97 10 1a 3d 42 d9 19 bd
       -0.0054379967 -0.014759461 0.037613478 -0.03756071
0001c0 b0 a0 09 bc 4b bb f4 3c c9 03 fb 3c 1e 66 6e 3d
       -0.008400127 0.029874464 0.030641453 0.058202855
0001d0 3e ba 48 bd a1 ea 3a 3d b1 05 ad 3c f2 e4 c4 3c
       -0.04900574 0.045633916 0.021120878 0.02403495
0001e0 d8 2f 4a 3d 58 85 ef 3c fc 53 86 3c 79 4d 00 bc
       0.049362034 0.029238388 0.016397469 -0.007830971
0001f0 cb 88 be 3c 44 3b 6f 3d dd 36 2e bd 9f 38 d8 bc
       0.023258587 0.05840613 -0.04253279 -0.026394187
000200 80 60 78 bc 1f 3c 34 3b 58 69 bb bc 02 77 c1 bc
       -0.015159726 0.0027501655 -0.02287738 -0.023616318
000210 bd d0 49 bd 4a c7 a4 bc ef 67 03 bc 24 65 20 bd
       -0.049271334 -0.02011456 -0.008020385 -0.039158955
000220 5b f6 fd 3c 4c 88 93 bc f4 42 9f 3c fc f3 86 bd
       0.03100126 -0.018009327 0.019441105 -0.06589505
000230 b7 2c 2c 3c 0c 15 d2 bc 94 74 45 3d 8c 7b 16 3d
       0.010508708 -0.025644802 0.04820688 0.036738917
000240 f2 d2 4b bc e6 6f cf 3b 05 d2 22 3c 87 77 27 bd
       -0.01244043 0.006330478 0.009937768 -0.040885475
000250 97 44 5d bd a2 9c e3 ba 8c 6c 18 3d 30 34 65 3d
       -0.05402049 -0.0017365406 0.037212893 0.055957973
000260 14 94 79 bc 09 74 7f bd a3 86 35 bd 36 e7 8a 39
       -0.0152330585 -0.06236652 -0.044317853 0.00026493677
000270 19 99 50 3d 27 52 84 ba a0 f9 c3 bc cf 15 72 bc
       0.050927255 -0.0010095284 -0.023922741 -0.014775707
000280 57 5f 2a bd e3 46 d6 3b 3c c0 2a bd 1d 83 53 bd
       -0.04159483 0.006539212 -0.041687235 -0.05163871
000290 d4 e5 14 3d b7 16 b2 bc 01 11 9c bb 3e b0 37 bd
       0.036351994 -0.021739347 -0.004762769 -0.044845812
0002a0 eb 55 1d bc 7a 0c 20 bd fb e2 0c 3d 24 40 f0 3c
       -0.009603004 -0.0390744 0.034396153 0.02932746
0002b0 73 03 a2 3c f8 0d 9a bc 2e 84 22 3b 12 c5 e7 3b
       0.019777035 -0.018805489 0.0024798024 0.007073053
0002c0 bd 52 06 bc 28 82 e2 3c d3 78 62 3d 3c db 2a 3c
       -0.008198437 0.027649954 0.05529101 0.010428246
0002d0 09 b2 2b bd 90 6f 63 3c f2 b2 52 3d d8 9e 01 3d
       -0.041917834 0.013881579 0.051440187 0.031645626
0002e0 19 fe b1 3c c9 18 08 3d 1e 41 97 bc ca ac 13 bd
       0.021727609 0.033226762 -0.018463667 -0.036053456
0002f0 5f 52 49 bd 34 a2 1b bd 9d 99 d1 3b d2 09 13 3d
       -0.04915082 -0.037996486 0.006396486 0.035898037
000300 64 9b 5f bd 32 4e 1e bb 57 fc 2b 3c eb 39 ab bc
       -0.05459155 -0.0024155495 0.010497174 -0.02090164
000310 65 4b 97 3c 80 63 a3 3c 08 1b 71 3d b7 66 e1 bb
       0.018468568 0.019944906 0.05886367 -0.0068786996
000320 37 a9 6d 3c 8e 2a f6 3b 20 34 b8 3c cc 74 84 3d
       0.014505676 0.007512397 0.022485793 0.0646759
000330 0f dd 9e 3c 01 f0 ab bb 9e 74 95 bc 5c 89 ba bc
       0.019392518 -0.0052471166 -0.018244084 -0.022770576
000340 1a 51 ee bc bc d9 52 bd d0 fa 7a bd c5 74 77 3d
       -0.029091407 -0.05147718 -0.06127435 0.060414094
000350 5b 8d 1c bd e8 14 6e 3d 79 d7 49 bc 08 22 00 3d
       -0.038220745 0.058125407 -0.012319439 0.031282455
000360 f5 ac ad 3c 23 8b 80 bc 22 c9 cb 3c 36 00 20 3d
       0.021200636 -0.015691346 0.024876181 0.0390627
000370 7b 1a 44 bc 70 c0 21 bd fa 56 7a 3c ed d9 95 bc
       -0.011969204 -0.039490163 0.015279526 -0.018292392
000380 bb 6e ce 3b de 8c 29 3c 58 93 68 3c 6d a0 19 bc
       0.006299821 0.010348527 0.014195286 -0.009376627
000390 29 9b bb 3c 4e 04 6b bd 42 7f 4e bd 18 66 5a bd
       0.022901135 -0.057377152 -0.05041433 -0.05332002
0003a0 99 eb 6e bd e9 9b 9f 3c 7d c7 12 bc 61 56 75 bd
       -0.058330152 0.019483523 -0.0089586945 -0.05989683
0003b0 9d f5 78 3d 6b 89 a2 3c 66 79 16 3d d7 72 21 bd
       0.06078111 0.019840917 0.03673687 -0.03941616
0003c0 bd 63 12 3d b9 a2 23 3c c1 b8 54 bd e2 ba a6 3c
       0.03573965 0.009987527 -0.051934008 0.020352785
0003d0 59 00 88 3c 24 8c 3f 3c 5d 4e 4d bd b3 08 42 bc
       0.016601728 0.011691127 -0.05012356 -0.011842894
0003e0 e5 46 21 3c 5b da 7d bd 96 a1 48 bb 40 ce 03 bd
       0.009843563 -0.061975818 -0.003061389 -0.032179117
0003f0 de 1b fc bc 27 b8 1d bd ca b3 75 3d c7 98 b7 bc
       -0.030775007 -0.0385057 0.059985913 -0.022411717

6.bias f4 [64]
000000 eb 2b ad bc 5e c9 66 bc 22 ec 80 3d 59 9d 84 3d
       -0.021139106 -0.014086096 0.06295039 0.06475324
000010 94 03 c7 3c 08 1d f5 bc d7 ba 12 3c 57 e3 c5 3d
       0.024293698 -0.02992107 0.008955679 0.09662502
000020 3c 00 a3 3c d5 a6 a2 3b 6f 86 85 3d 7b 05 c3 bc
       0.019897573 0.0049637356 0.06519782 -0.023806324
000030 a3 fd 92 3c bf 5d 0c bd 53 9b 9a bb 59 ea aa bc
       0.017943209 -0.03426909 -0.004718223 -0.020863699
000040 a7 b9 00 3c 62 ed 87 bc 69 c0 78 3d 67 be da bb
       0.007856763 -0.016592685 0.06073037 -0.0066755298
000050 63 be 3c bd d3 36 51 bd f3 70 05 3d ce 68 8c bc
       -0.046080004 -0.051077675 0.03257842 -0.017139819
000060 2b f5 9b 3b da 15 0a 3b c4 ce 23 3c d4 1d 71 3d
       0.004759451 0.0021070153 0.009998027 0.058866337
000070 c2 eb a7 3d cb ac 82 3c 4e f9 2f 3d 39 47 96 3d
       0.08199264 0.015951535 0.042962365 0.073378034
000080 1a a6 8c 3d ad 26 b9 bc a3 6b 86 3d ce 18 52 bc
       0.06867619 -0.02260145 0.06563499 -0.012823297
000090 ed 26 ca bb fa 12 4b 3c 40 44 f4 3c 67 01 51 3c
       -0.006169191 0.012394661 0.0298177 0.012756682
0000a0 51 04 32 3d 71 b5 4f 3d de 38 f1 3b 0b 3a 21 3d
       0.043461148 0.050710145 0.0073615154 0.039361995
0000b0 6a 21 76 bc e4 3b a3 3d 45 ec 41 3d 2f 6c c9 bc
       -0.015022615 0.079704076 0.047344465 -0.024587719
0000c0 8d 59 a5 3b cb 75 2d bd d0 b2 92 3d e5 ae 12 bc
       0.0050460757 -0.042348664 0.07163012 -0.008952831
0000d0 6b 0d 81 3c fd b2 68 3d b8 98 ce bc 17 14 04 3b
       0.015753468 0.05681132 -0.025219306 0.0020153576
0000e0 02 62 8e 3d 58 77 7a 3c 24 76 3b 3d d7 c3 8f 3d
       0.06952287 0.015287243 0.045766965 0.07019775
0000f0 97 f6 85 3c a1 e3 6a 3c 6c 9e 9a 3c 63 b2 1d bd
       0.016352935 0.0143364975 0.01887437 -0.0385002

9.weight f4 [12, 64]
000000 79 34 ae 3c 1d 8d c3 bc 82 2d c3 bd a6 bc 42 bd
       0.021265255 -0.023870999 -0.09530164 -0.04754319
000010 0f 84 44 bd 46 b6 69 3e c6 c2 18 bc 96 34 38 3e
       -0.047977503 0.22823438 -0.009323781 0.1798881
000020 d7 b7 96 be cf 0c 2e be 4d be b0 3d 40 c8 31 be
       -0.29437134 -0.16997074 0.08630047 -0.17361546
000030 82 cd 4c be 12 d6 17 3e 49 ce fe bd db fb 50 be
       -0.2000027 0.14827755 -0.124416895 -0.20408575
000040 35 5a 3c be 61 e5 4e 3e 6b eb f4 3d a5 80 71 bd
       -0.18393786 0.20204689 0.11958965 -0.058960576
000050 03 68 e6 bc 77 7e 06 bd c7 dd 65 be 31 ce e9 bc
       -0.028125769 -0.03283545 -0.22447883 -0.028540703
000060 f6 e4 bd 3b 07 c7 b9 3e 80 ab f8 3d c6 c9 71 3e
       0.0057951165 0.36284658 0.12142086 0.23612127
000070 47 0b 1a 3e a3 d2 9d be 92 3e fc 3d 33 7c d6 3d
       0.15043364 -0.30824766 0.12316622 0.10472908
000080 f5 ce 5c 3d 8c 24 88 3d 35 b9 cb 3e 48 5b ba bc
       0.053908307 0.06647596 0.3978974 -0.022748604
000090 1e 30 53 3c 72 8e 1d bd 1e b8 92 bd 8d 6b bc b9
       0.01288989 -0.038465925 -0.07164024 -0.00035938286
0000a0 bf c4 61 3b 7d ca a1 3d 8e 23 87 bc 68 04 8b bd
       0.0034449545 0.0789995 -0.016496446 -0.0678795
0000b0 6a d7 05 3e 32 92 31 3d 6b 99 26 3e ae 32 63 3d
       0.13070455 0.043352313 0.16269462 0.055468254
0000c0 56 7c 83 3e b8 b1 92 3d 21 ea a9 be 7e 2e 96 bd
       0.25680798 0.071628034 -0.3318644 -0.073330864
0000d0 02 0a 55 3c 94 ed 5e 3e 41 22 49 bc d4 5f 92 be
       0.013002874 0.21770316 -0.012276233 -0.28588736
0000e0 aa cf 07 be 0f 77 81 bd 3d 3f 2e be 1e d8 01 3d
       -0.13262811 -0.06321537 -0.17016311 0.031700246
0000f0 86 ea 52 3d e0 06 81 be ad 20 44 bd 18 cd a9 bd
       0.05149319 -0.25200558 -0.047882725 -0.08291072
000100 ca 6c d6 3d 1b 77 7c bd 9b b0 3e be c3 0d e2 3d
       0.104699686 -0.061637025 -0.18622057 0.11037781
000110 2a 91 5f 3e e0 09 bd 37 fb 7e b8 3d 16 6a 66 bd
       0.2183272 2.2535154e-05 0.090085946 -0.056253515
000120 a2 36 81 be c0 56 9e bd 16 73 58 3e e5 20 66 bd
       -0.25236994 -0.0773139 0.21137652 -0.056183714
000130 ea 8a 58 be 76 44 24 bd 21 f6 96 3e 5e 37 3b 3e
       -0.21146742 -0.040104352 0.29484656 0.1828284
000140 31 7c 92 bd 19 cf 3b 3e 46 b0 9c 3e b7 c1 a1 bd
       -0.07152594 0.1834072 0.30603236 -0.07898276
000150 4b 5d fe bd 5e 38 e6 bd 1b 3d 17 be 36 d8 85 bd
       -0.12420138 -0.1124122 -0.14769404 -0.065353796
000160 3d e6 59 3b e6 c7 d2 bd c8 ba 96 bd 3d 89 59 bd
       0.0033248805 -0.10292034 -0.073598444 -0.053109396
000170 e6 22 ea 3d 63 8e 11 be 34 11 81 3d b8 fd 9d 3e
       0.114324376 -0.14214472 0.06302109 0.30857635
000180 e9 3b 6e be 1d 68 e6 bd 8e 20 bf bd 0a 3f f9 bc
       -0.23265041 -0.11250327 -0.09332381 -0.030425567
000190 b2 2c 9a 3d 2e 19 d5 3d d6 ed 41 be 04 54 bb bd
       0.07528056 0.10405193 -0.18938383 -0.09146884
0001a0 8b 13 1f be ff a0 cf bd e6 fb e1 bd 67 8a 7b 3e
       -0.15534799 -0.101381294 -0.11034374 0.24564515
0001b0 c6 df cd bd 0e bf 13 3e e2 9b 09 3d e2 2c 0d 3e
       -0.10052447 0.1442835 0.033595927 0.13786653
0001c0 7f 0e aa 3e 59 61 f6 3d f5 b8 fd bd 9b 9f c2 3d
       0.33214185 0.12030286 -0.123887934 0.095030986
0001d0 6b 9a 89 3d aa c3 d5 bb a4 56 01 be 72 d8 08 bd
       0.06718906 -0.006523569 -0.12630707 -0.033409543
0001e0 25 18 57 bd 05 77 9c 3d 51 c7 e4 bc a5 ee 38 be
       -0.05251326 0.07639889 -0.027927073 -0.18059786
0001f0 ae fa 1b 3e 8a d0 45 bd f1 9d 4a bd ce 43 3a 3c
       0.15232345 -0.04829458 -0.04946703 0.011368705
000200 03 07 66 bd f2 a0 6b bd ab ad c2 3b 7e 34 4a bc
       -0.05615903 -0.057526536 0.005941113 -0.012341617
000210 d6 cb ab 3e c4 22 9f 3d 22 05 69 3c 32 94 44 be
       0.33553952 0.07770303 0.014222415 -0.19197157
000220 47 c9 35 be ab 6a 45 bd 7e 34 8e 3e a1 4a a0 bd
       -0.17752562 -0.04819743 0.27774423 -0.07826734
000230 85 62 a9 3c b4 05 72 3e 36 51 66 bd 22 0a 81 bd
       0.02067686 0.23634988 -0.056229793 -0.06300761
000240 b4 4d a4 3d 6a c3 39 be 0d 13 81 3e f6 f7 b2 bd
       0.08022633 -0.18140951 0.25209847 -0.08738701
000250 97 d9 99 3d 3a 4c 26 bd d2 31 78 bc 64 ba b0 be
       0.07512205 -0.04060004 -0.015148597 -0.34517205
000260 10 90 14 be 12 7b 04 bd 5d cc 5f 3c 91 8b 7e bd
       -0.1450808 -0.03234393 0.013659564 -0.06214482
000270 49 2a 54 be 56 4a e7 3c a2 2a ad 3d cd e3 58 3e
       -0.20719256 0.028233688 0.08455397 0.21180649
000280 20 da 74 be 8e 2f 10 3d 23 28 93 3d 17 68 ec bc
       -0.23911333 0.0352016 0.0718539 -0.028858228
000290 4f 12 b4 bd cb bb b6 3d b2 a3 f2 bd 52 33 69 3e
       -0.087925546 0.089225374 -0.11847629 0.22773483
0002a0 13 e4 88 3e 26 6d 89 be eb 52 22 be 00 47 22 3e
       0.26736507 -0.26841086 -0.15851943 0.15847397
0002b0 a0 fb 4d 3e 08 ec 89 be c4 d3 8b be 31 8f 0d 3e
       0.20115519 -0.2693789 -0.27310002 0.13824154
0002c0 fb a4 13 3e 03 98 d1 3d 97 66 50 be 03 b6 df 3d
       0.14418404 0.10234072 -0.20351635 0.10923388
0002d0 66 55 be bd aa f0 cc be 0d 89 35 bd 41 e2 60 be
       -0.09293632 -0.40027362 -0.044320155 -0.21961309
0002e0 a8 a7 74 3e 22 69 fd bc 7a 2b 00 3e 76 1d a1 be
       0.23892081 -0.03093392 0.12516585 -0.3146779
0002f0 54 d0 93 be 56 cd 31 3e 06 80 9e bc bc b4 be bd
       -0.2886988 0.17363486 -0.019348156 -0.09311816
000300 d2 72 1d 3c f2 b5 13 bd 3b c3 12 3e 48 c2 09 be
       0.009609895 -0.03606219 0.14332287 -0.13453019
000310 05 92 29 3e cc 68 54 3e cb c9 02 3e c9 27 01 be
       0.16559608 0.20743102 0.1277229 -0.12612833
000320 f6 ff 3e 3c b7 24 af 3d 3d b1 28 3e 55 a5 7b 3e
       0.0116577055 0.08551925 0.16473861 0.24574788
000330 38 b4 0a be 99 c8 28 3e 75 d5 93 bd a7 dd 10 3e
       -0.1354531 0.16482772 -0.07218448 0.14147054
000340 ce 45 71 3e 47 b6 58 be 8d 79 e7 3d 6f 5b 5f 3d
       0.23561785 -0.21163283 0.11302481 0.054530557
000350 29 5d 9e 3d 68 78 ca bd 9a ab 43 be d7 72 41 be
       0.07732613 -0.09886247 -0.1910843 -0.18891464
000360 f8 0c 46 be 6a a1 3d bd a3 86 a7 bd 04 30 43 be
       -0.19340885 -0.046296515 -0.08179977 -0.19061285
000370 8d c5 08 be f9 7d a9 3d 32 8e b2 bd 78 b9 56 3e
       -0.1335661 0.082759805 -0.08718528 0.20969188
000380 7d 67 ad 3e e5 cc 81 bd 2c 7a 93 3d 0f 88 07 3e
       0.33868018 -0.06337909 0.07201037 0.13235496
000390 fd a2 c7 bd 2b df d9 bd fc a6 9b bd 24 1c 99 3d
       -0.097478844 -0.10638269 -0.07600209 0.074760705
0003a0 73 68 1e 3c a5 9f 1e bd 62 32 86 3a 48 59 de bc
       0.009668457 -0.038726468 0.0010238404 -0.027142182
0003b0 b8 e0 5a 3e 84 2b 3d be fe 66 85 bd d4 3b 8d bc
       0.21374786 -0.18473631 -0.06513785 -0.017240442
0003c0 cd bf 08 be 01 99 01 be dc 43 8e be 8a c5 62 bd
       -0.13354416 -0.12656023 -0.27786148 -0.05536417
0003d0 03 b0 d0 3d 79 58 a7 be 7f 37 2c bd 4e 1b 2b bd
       0.101898216 -0.32684687 -0.042045113 -0.041774087
0003e0 11 b4 8d 3e 1b 3f ad bd 6c 1e 4c 3d 1d 07 fe 3d
       0.27676442 -0.08459302 0.0498337 0.124037005
0003f0 c9 74 8e be 31 81 8e 3e 98 43 97 bd cd 14 2e 3d
       -0.27823475 0.2783294 -0.07385939 0.042500306

9.bias f4 [12]
000000 f0 66 fb b9 40 c5 9e 3d df 14 2a bd 3b a3 b2 bc
       -0.00047951145 0.07752466 -0.04152381 -0.02180635
000010 b5 b0 13 3e a1 4a db 3c dd 40 50 bd 49 63 87 bc
       0.14422877 0.026768984 -0.05084311 -0.016526835
000020 e8 8b 09 be 26 50 0e bc 6c d9 3d bd 4f 2e b7 bd
       -0.13432276 -0.008686101 -0.046349928 -0.089443795
