ML Algorithm/nn_model_1-1.params (torch, 685057 bytes, 8 tensors)

0.weight f4 [512, 42]
000000 95 30 17 be ec 1b 9e bd 8f 05 f4 bd 53 f8 09 3d
       -0.14764626 -0.077201694 -0.11915123 0.033684086
000010 ee 0a 05 be 13 e9 b7 3c f1 ad 70 3d 6c f1 20 3e
       -0.1299245 0.022450006 0.058759633 0.15717095
000020 4f 75 a9 3d 70 6e 54 ba f7 ed b2 bd 3c 1f 4f bd
       0.08274328 -0.00081036147 -0.087367944 -0.050566897
000030 07 b1 d5 bd bc 5e b0 3c a0 4a 93 bd 9f 0f 9b bc
       -0.10434156 0.021529548 -0.07191968 -0.018928347
000040 b4 1e 91 bd ca 71 87 3d fb 01 18 bd f3 ec 36 bd
       -0.07085934 0.066135004 -0.037111264 -0.044659566
000050 8e 8e b3 3d 7e c4 3b 3d 6c a4 57 3d 7d 3c 08 3e
       0.087674245 0.045841686 0.05264704 0.13304324
000060 60 f3 1a be a8 12 4f bd 6e 25 01 3e 57 d9 6b 3d
       -0.15131903 -0.0505549 0.12611935 0.05758032
000070 64 83 db bd 39 66 8f bd 2a 7a 8e bc f8 00 67 bd
       -0.1071842 -0.07001919 -0.017392237 -0.05639741
000080 4a 67 92 3d db 94 eb 3d 50 fe ca 3d 8d d1 60 bc
       0.07148607 0.11503001 0.099117875 -0.013721836
000090 7d c1 cd 3d 30 4f 84 bd c7 a4 88 3d 80 79 c7 3d
       0.100466706 -0.06460416 0.06672054 0.09739971
0000a0 7f 5b 9b bd d7 3f 04 be 8a 49 85 bd c9 53 cb 3d
       -0.07585811 -0.12914978 -0.06508167 0.0992809
0000b0 50 c8 9a 3c cd 4d e4 3d c0 bc 04 3e fd e2 98 3d
       0.018894345 0.11147652 0.12962627 0.074651696
0000c0 ae d9 b7 bd 2d 8b 04 3e 2b 7d 84 bb 61 e9 10 be
       -0.08977066 0.12943716 -0.0040432415 -0.14151527
0000d0 48 2c 96 3d 4e 0a ac bd 1e 8e dd bd 89 07 c5 bc
       0.07332665 -0.08400403 -0.10818122 -0.024051445
0000e0 0b 4e b5 3c 67 70 ec 3d 0f b8 a1 bd 8c 0c 10 bd
       0.02213194 0.115448765 -0.078964345 -0.035168216
0000f0 c2 e9 0c be 18 e9 bf 3d fa 86 04 3d 25 84 0f 3e
       -0.13761047 0.09370631 0.032355286 0.14015253
000100 35 ab 05 bd 5f ab 8d 3d ce d9 cd 3d e5 b7 b3 3d
       -0.03263398 0.06917452 0.100513086 0.087753095
000110 be a9 1c 3d 19 1e 70 bd b5 7f ef 3d 6b aa 8e bd
       0.038247816 -0.058622453 0.1169428 -0.069660984
000120 ae ab 60 bc 68 07 13 bd e5 fb f2 bd ed 07 17 3b
       -0.013712807 -0.035895735 -0.11864451 0.0023045496
000130 f8 0d 04 be f8 d2 55 bd 44 2d 07 bd 88 93 04 3e
       -0.12895954 -0.05220315 -0.033002153 0.12946904
000140 b3 cd 1f be 7e 3f 3b 3c 05 c8 8b bd f7 74 2f be
       -0.15605812 0.011428712 -0.0682526 -0.17134462
000150 17 36 dc bd db b1 e1 bd 8a 9b d0 3d 0d 93 28 3c
       -0.10752504 -0.11020251 0.10185917 0.010288966
000160 5b cf 4a bd 38 b7 4a bd ec 4b b4 3d 5e 27 51 bd
       -0.049514156 -0.049491137 0.088035434 -0.051062934
000170 07 d4 00 be fa d2 fa 3d a0 3b a6 3d d2 55 96 3d
       -0.12580882 0.12247272 0.08116841 0.07340588
000180 83 d9 00 be 47 9a 6e bd 82 d7 eb 3d be 62 06 be
       -0.12582974 -0.0582526 0.11515714 -0.13123605
000190 57 b2 67 bd e7 13 c8 3c 0a eb c5 3c 26 90 08 3e
       -0.056566563 0.024423553 0.024159927 0.13336238
0001a0 7e 6b b0 3d 82 7f 05 be 18 ef cd 3c 9e c9 0c 3e
       0.086142525 -0.13036922 0.025138423 0.13748786
0001b0 de f7 f1 3d e4 cb 6e bd be 07 b0 bd c3 a8 95 3d
       0.11814855 -0.058299914 -0.08595227 0.07307579
0001c0 95 12 01 bd 0b 60 74 bd 3a 45 1c be 28 5d 7d bd
       -0.03151186 -0.059661906 -0.15260783 -0.06185642
0001d0 6e da 56 bd 1b 3f 11 3e d1 09 e4 3d 04 77 f6 3d
       -0.052454405 0.14184229 0.11134685 0.12034419
0001e0 53 cd 6a 3d 23 c5 f0 3d de e5 94 bd 2b 8f a1 3d
       0.05732472 0.11756351 -0.07270406 0.07888635
0001f0 88 a8 0f be 0d 59 a6 3c f9 f5 e2 3d 08 37 7b bd
       -0.14029133 0.020306135 0.11082072 -0.06133178
000200 dd eb 0a be 5d 8f 73 bd 6a 05 9b bc 08 57 ef bc
       -0.13566537 -0.059462894 -0.01892348 -0.029216304
000210 4e fc 14 be c3 21 8e 3c 47 03 5f 3d 08 4f e3 3c
       -0.14549372 0.017350083 0.054446485 0.027747646
000220 98 42 b4 bd eb 87 b9 bd 00 e8 0e 3e e6 5f 82 bd
       -0.08801764 -0.090591274 0.13955688 -0.063659474
000230 61 bc 03 be 91 41 62 3d 50 20 a5 bd 3a d0 f4 3d
       -0.1286483 0.05523831 -0.08062804 0.119537786
000240 d8 63 f9 3d a5 40 15 be 74 38 ca bc db 76 60 3d
       0.12177247 -0.14575441 -0.024685122 0.05480085
000250 e4 87 a5 bd 44 42 c7 bd d1 9e 8b bd a3 93 01 bd
       -0.0808256 -0.09729436 -0.06817401 -0.031634938
000260 87 46 19 bc d3 3b 8d bd 39 f1 00 bd a4 88 1d 3d
       -0.009355194 -0.06896176 -0.031480048 0.03846039
000270 1c 6c 17 be 32 a5 8c bd d0 04 86 bd 75 a8 67 3d
       -0.14787334 -0.06867446 -0.06543887 0.056557138
000280 62 b8 ae 3d 38 8a 87 bd 2e 78 7d bd 97 26 07 3e
       0.08531262 -0.0661816 -0.06188219 0.13198315
000290 ac 8e f6 3d 02 fc 30 3d a8 30 c7 bd 97 3b d9 bd
       0.12038931 0.043209083 -0.09726077 -0.10607069
0002a0 da 2e d4 3d 1a f9 be 3c de ee 9e 3d 10 eb e3 3d
       0.10360499 0.02331214 0.07760404 0.11128819
0002b0 76 df a0 bd 42 0a 04 3e 50 d6 b4 bd 5f 67 a6 bb
       -0.07855122 0.12894538 -0.08829939 -0.0050782408
0002c0 77 ee 89 3d 02 68 a0 bd a5 5a bf 3d 63 dc 22 be
       0.06734937 -0.07832338 0.09343461 -0.15904383
0002d0 a2 94 0e 3e af e3 cd bd 2c e7 44 bd 0a 54 57 bd
       0.13923886 -0.10053193 -0.048072025 -0.05257038
0002e0 4d d4 00 3e 6e c1 0e be de 14 87 3d db 54 04 3d
       0.12580986 -0.13940975 0.06595777 0.032307487
0002f0 4e b7 dc 3d 54 b4 e3 3c d6 8d 98 3d a5 d6 a1 3d
       0.1077715 0.027795948 0.07448928 0.07902268
000300 69 1f 55 3c 31 b1 02 3e 56 a6 d3 3c a6 92 29 bd
       0.013007977 0.12762906 0.025836151 -0.04139962
000310 c9 3d 97 bd 63 2d 0a 3e 75 76 0b 3e e1 9d 11 3e
       -0.073848315 0.13493876 0.13619407 0.14220382
000320 8c d1 06 3e b3 6b 13 3e c0 4b 95 3d ce f3 e3 3d
       0.13165873 0.14396553 0.07289839 0.111304864
000330 8f 42 a6 bd 7c a0 ce 39 09 35 26 be cf 52 23 be
       -0.08118164 0.00039410952 -0.16231169 -0.15949558
000340 73 c8 e1 3d ea bd fa bd 43 15 0e bd c5 89 22 3e
       0.11024561 -0.122432545 -0.034688246 0.15872867
000350 16 a7 03 bd 46 36 d7 3c c4 cf ea 3d aa 2f e7 3c
       -0.032141767 0.026270997 0.114654094 0.02822097
000360 1c b6 d3 3d cf b0 05 3d 59 76 88 bd ea 8c a5 3d
       0.10337469 0.03263932 -0.06663198 0.08083518
000370 d9 4c a8 3d e1 76 53 3c d6 cb 0a be b5 5f d8 3d
       0.082177825 0.012906761 -0.1355432 0.1056513
000380 79 a8 d7 bd 43 49 84 bc 07 db 0b be 6a c4 8f 3d
       -0.105301805 -0.016148215 -0.13657771 0.07019885
000390 93 c3 fd 3b 22 80 5b bd 43 fa c6 bd 52 d1 ed 3d
       0.0077442615 -0.053588994 -0.097157024 0.1161219
0003a0 e6 b7 82 bd 25 d2 01 3c fd 4b 2d bd 83 e1 04 3e
       -0.06382732 0.0079236375 -0.042308796 0.12976651
0003b0 ff 47 1b be 50 79 11 3e 7d 1c c1 3d df 7f c0 3d
       -0.15164183 0.14206433 0.09429262 0.093993895
0003c0 a2 4d 98 3d 28 a4 89 3d ac 82 87 3d d1 a3 4c bd
       0.07436682 0.067207634 0.066167206 -0.049960915
0003d0 24 f5 d2 bd 0c 0f d0 3b 9f 20 a4 3d 39 68 0c be
       -0.10300663 0.00634945 0.080140345 -0.13711633
0003e0 19 42 df 3d ad de 06 be bb b2 0c 3e 34 a4 d4 bb
       0.10901279 -0.13170882 0.13740055 -0.006489301
0003f0 9c dd 3b 3d d2 c0 1d 3e ee 0a 4c 3d d7 50 bb bd
       0.04586564 0.15405586 0.04981511 -0.09146278

0.bias f4 [512]
000000 fc 3a 01 3c dc 13 15 3e b9 b6 ca 3d 54 ad f6 bd
       0.007887598 0.14558357 0.09898133 -0.120447785
000010 22 cf 2b 3e 5c 39 5c bb 38 74 ee 3c ae 54 3e 3d
       0.16778234 -0.0033603525 0.029108152 0.046467476
000020 64 70 92 bd 2f d7 e8 3d 04 ab c4 3d 67 e2 e6 3d
       -0.07150343 0.11369168 0.09602931 0.112736516
000030 04 3e 82 bc 66 c1 14 be d5 3f ba bd cc 1a 0f 3e
       -0.015898712 -0.145269 -0.09094206 0.13975066
000040 3f c6 09 be 77 70 d0 bd 79 3c 37 3e 15 13 93 3d
       -0.13454531 -0.10177701 0.17894162 0.07181374
000050 f5 69 ce 3d d1 01 b7 3d 9b eb f7 bd aa 34 9d 3d
       0.100788034 0.08935893 -0.12105485 0.076760605
000060 b0 41 da 3d b1 73 71 bb 86 69 21 3e 6e 2e f3 bc
       0.1065706 -0.003684264 0.1576291 -0.029685225
000070 5b 82 78 3d d7 ac 13 3e 38 e1 8c 3d ab 8c 9d bd
       0.06067119 0.14421402 0.068788946 -0.07692846
000080 2f b1 fa 3b 60 dd ee 3c d3 db 2a 3d 86 9c 6e bd
       0.0076505165 0.029158294 0.041713547 -0.05825474
000090 44 76 06 be e8 d5 7f ba d1 08 0a 3b 85 63 22 3e
       -0.13131052 -0.00097593525 0.0021062384 0.15858276
0000a0 57 cd f8 bc fb e6 d9 bd 1a 6f 16 3e 5d dc bc bd
       -0.030371351 -0.10639759 0.1469082 -0.092217185
0000b0 0a ec 94 bb 47 6f 9e bd c6 36 05 be 2e 90 68 3d
       -0.0045447396 -0.07736068 -0.13009176 0.056778125
0000c0 2b 51 7d bd 7c 08 ef bc c5 a4 cf 3d 47 05 17 be
       -0.061844986 -0.02917885 0.10138849 -0.14748107
0000d0 12 3c 07 be be 51 15 3e 39 dc e9 bd bc c6 1b bd
       -0.13206509 0.14581963 -0.11418957 -0.038031325
0000e0 3d 12 84 3d 1a 21 1a 3d 14 61 09 be f6 06 11 be
       0.06448791 0.037629224 -0.13415939 -0.14162812
0000f0 f0 90 b2 bd aa 06 cd bd 43 24 fa bd 66 c0 35 bd
       -0.08719051 -0.10011037 -0.122139476 -0.04437294
000100 fa d0 17 3e 0a 1b ba 3d 79 34 d6 bd 09 fc c6 3c
       0.14825812 0.090871885 -0.10459227 0.024290102
000110 e6 91 ca 3d 35 88 b3 bc f9 1f 9a bd c8 f4 09 3d
       0.09891109 -0.021915535 -0.075256296 0.033680707
000120 2c 99 d0 3d f2 fc 9e 3d 0c 2f 05 be 28 80 9e 3c
       0.10185465 0.07763089 -0.13006228 0.019348219
000130 7b 38 0d be ca ab e8 3d db 68 0c bd b9 14 06 3e
       -0.13791077 0.11360891 -0.034279685 0.13093843
000140 50 d6 03 be ae c3 06 3e 75 a8 47 bd 35 5b c7 3d
       -0.12874722 0.13160583 -0.048744638 0.09734193
000150 7c 3f 02 3e e5 54 2c 3d 64 c4 d5 bc 5f 71 8a bd
       0.1271953 0.04207315 -0.026094623 -0.06759905
000160 42 77 14 be e6 9d 78 3d 06 b7 cf 3c e0 1c 6c bd
       -0.14498618 0.06069746 0.025355827 -0.057644725
000170 85 a5 b3 3d fa 7a 29 bd e6 5a ca bd c7 4b 11 bd
       0.08771805 -0.041377045 -0.09880619 -0.035472658
000180 49 81 49 3d ef d4 d9 bc 61 6d a3 bd c2 cd 21 bd
       0.04919556 -0.026590792 -0.07979847 -0.039502867
000190 03 b0 97 bd ad a4 9a bd 37 94 46 3d 73 b6 76 bd
       -0.074066184 -0.07550941 0.048481192 -0.06023259
0001a0 b4 5e 92 bd fb ae 43 bc 27 c0 ca bd d9 62 1b bd
       -0.071469694 -0.011943574 -0.098999314 -0.037936065
0001b0 62 b3 e5 3d 33 9f 00 be 7f b4 1a 3e 97 0e 89 3c
       0.11215855 -0.1256073 0.15107916 0.01673059
0001c0 54 07 95 bd e2 05 75 bd a7 73 3b bd 47 25 38 bd
       -0.07276788 -0.059820063 -0.04576459 -0.044957425
0001d0 98 61 06 bd 36 03 de bd b5 41 6a bd 11 17 85 bd
       -0.032807916 -0.10840456 -0.05719157 -0.0649854
0001e0 92 41 0d 3e 93 24 aa bc 65 44 9b bd 01 a7 33 bd
       0.13794544 -0.020769393 -0.075814046 -0.04386044
0001f0 c9 40 25 bd 10 aa 1a be c8 b9 be 3b f7 fe bd 3d
       -0.040344987 -0.15103936 0.0058204867 0.09277146
000200 4c c8 02 be 4c e3 19 3e ec 3d 26 3e bb b2 0f 3e
       -0.1277172 0.15028113 0.16234559 0.14033024
000210 80 49 15 3e c6 1b ae 3d 62 76 9e 3d 91 29 c5 3d
       0.1457882 0.08501391 0.077374235 0.09627069
000220 23 6a 62 3d d3 4e c1 bc 5d 73 84 bd 32 83 17 3e
       0.055277 -0.023597157 -0.06467316 0.14796141
000230 69 4e fd bc b4 8d 41 3d d7 80 8b bd dc 3a 11 bd
       -0.030921178 0.04725428 -0.068116836 -0.035456523
000240 aa 63 00 3e fd 11 ad bd 75 74 b9 3c 31 89 d0 3d
       0.12538019 -0.084506966 0.022638539 0.10182417
000250 ae bc d9 bd 48 0c 93 bd 89 d6 0d be 07 d1 b5 bd
       -0.10631691 -0.07180077 -0.1385137 -0.088777594
000260 56 f6 9a 3d 8b 92 d6 3d ba 96 49 3a ec df 01 be
       0.07566516 0.104771696 0.00076900015 -0.12683076
000270 9c 2a ce 3d ef a4 e8 3d 93 a8 20 3e b9 3a 6e bd
       0.10066721 0.113595836 0.15689306 -0.05816147
000280 25 48 31 3d 5e f2 54 bd af c2 fb 3d b6 47 60 3d
       0.043281693 -0.05198895 0.12292992 0.05475589
000290 d7 e6 7f bd 0b 1e 0b 3e f1 95 c3 bc 7d 6b 41 bd
       -0.062476005 0.13585679 -0.023875209 -0.04722165
0002a0 aa 6f 20 3e 86 c6 16 be 33 7f c2 3d c5 5b 9c bd
       0.15667596 -0.14724168 0.094969176 -0.07634691
0002b0 28 96 ee bd c1 7a 83 bd bf 3a 9c bd c1 01 de 3d
       -0.11649734 -0.06419898 -0.076283924 0.10840178
0002c0 81 a3 de bc 4b e6 3c bd 91 8c 73 bd 79 f7 ce bd
       -0.027177574 -0.046118062 -0.059460226 -0.101057954
0002d0 b1 1e 03 be 9b d1 3b 3d 3a 56 04 3e 67 30 34 3c
       -0.12804677 0.045854192 0.12923518 0.010997868
0002e0 73 51 70 3d 6f 41 04 3e 6c 04 b1 3d 3a 15 07 3e
       0.058671426 0.12915586 0.086434215 0.13191691
0002f0 d4 d2 0a 3e 20 e2 95 3c ec 0c 98 3d 8d ce fc bd
       0.13556987 0.018296301 0.0742434 -0.12344084
000300 75 ff b2 3d 95 bf 55 bd 78 5b f3 bd c2 08 b1 3d
       0.08740131 -0.05218466 -0.11882681 0.086442485
000310 2c 6e e0 3d e5 b6 f9 bd 04 48 8a 3d fc 91 cb 3d
       0.109585136 -0.121930875 0.06752017 0.09939954
000320 21 43 c4 bd b4 18 bb 3c 32 9e 87 3d 29 e2 12 be
       -0.09583116 0.022838928 0.0662197 -0.14344086
000330 7f cd 02 be 32 bb fc bd a6 ab 25 bd 09 d5 74 3d
       -0.12773703 -0.12340392 -0.0404469 0.05977348
000340 c1 63 d9 3d 20 bd 00 be 6e 68 8c 3c 84 2a d0 bd
       0.1061473 -0.12572145 0.01713964 -0.10164359
000350 de 14 07 3e fe 02 a2 bc b4 bf 9d bc c3 0a 09 be
       0.13191554 -0.019776817 -0.01925645 -0.13383012
000360 57 8a 5e bd 0d 9a 00 3d 61 48 03 be 34 dc 8f bd
       -0.05433115 0.031396914 -0.12820579 -0.07024422
000370 2c 2d 31 3e 8b 42 bd bb a0 db af bc ed e3 b0 3c
       0.17302388 -0.005775755 -0.02146703 0.021593058
000380 79 1c f9 bd 16 71 cb 3b b0 16 8a 3d fb 4e fc bd
       -0.12163634 0.0062085493 0.067426085 -0.12319752
000390 81 d4 c4 3c 5a b3 68 bd 00 9e d4 3d 24 d8 62 3d
       0.024027111 -0.056811668 0.103816986 0.05538191
0003a0 8e b4 17 bd 89 1f 48 bd 45 f0 a6 3c 26 7f c1 bc
       -0.037037425 -0.0488582 0.020378241 -0.0236202
0003b0 53 b8 6e bd d5 2c ed 3d e1 76 49 bd cc 1a c6 3d
       -0.058281254 0.11580817 -0.049185637 0.0967308
0003c0 c5 c3 02 be fa 20 bd bd 75 38 15 3e b1 0c 11 be
       -0.12769993 -0.092348054 0.14572318 -0.14164998
0003d0 c8 7f 70 3d bb 5a 67 3c 19 51 bd 3d f4 b9 b8 bc
       0.05871561 0.014120753 0.09243984 -0.022549607
0003e0 a4 b0 dd bc 35 d3 03 3e 32 56 a5 3d 30 d3 bd bb
       -0.027061768 0.12873538 0.08073081 -0.005792998
0003f0 3c 3f 09 3e 57 72 0d be 9e 4c 53 bd 52 c9 11 3e
       0.13403028 -0.13813148 -0.05158674 0.14236954

3.weight f4 [256, 512]
000000 b7 76 11 bd 2c 0c ca 3c 57 0c d6 bc ad c9 2f bd
       -0.035513606 0.024664007 -0.026128931 -0.042916942
000010 6f c0 ae 3c c8 ad c8 bb fd d3 2d 3d 3d 7a 1e bd
       0.021331994 -0.006124232 0.042438496 -0.038690794
000020 b1 3e 05 bd 66 cb 02 3c fd 32 d8 bb f1 ad f9 bb
       -0.03253049 0.007983064 -0.006597875 -0.0076196124
000030 dd b5 2a 3b 15 65 0e 3b 19 9b 81 3c 61 49 61 3c
       0.002604834 0.002172773 0.015821027 0.013750405
000040 ba f0 4c 3d 23 34 4f 3c 9c bb 3b bd b2 09 0f 3d
       0.050034262 0.012646708 -0.045833215 0.034921356
000050 c3 93 cb 3c 56 65 cb bc 60 55 9a bc 9c 13 2e 3d
       0.024850732 -0.024828594 -0.018839538 0.04249917
000060 ad 8a 88 bc a8 f4 a9 bc 62 fd 4f 3d 56 07 25 bc
       -0.016667688 -0.020746544 0.050778754 -0.01007255
000070 32 b0 73 3d b9 51 34 bd 10 16 80 bc da a8 54 3c
       0.059494205 -0.04402325 -0.01563552 0.0129797105
000080 ff 85 8a 3b 95 86 10 3d e3 bf dc bc 2e c5 16 3d
       0.0042273994 0.035284597 -0.026946967 0.03680914
000090 16 e4 d9 bc b0 20 bc 3c ae 37 e1 3c 69 ff e4 ba
       -0.026598018 0.022964805 0.02749237 -0.0017471138
0000a0 5d 0d 3d bb da 49 f8 bc 0d 92 23 3d 38 cc 07 bd
       -0.0028847076 -0.030308653 0.039934207 -0.033153743
0000b0 b9 44 c7 bc de c4 f9 3c cb 03 26 bc af db 33 3d
       -0.024324762 0.030489381 -0.01013274 0.04391068
0000c0 18 f9 f8 bc 49 16 fc ba c8 2e 45 bc 93 81 1e 3d
       -0.030392215 -0.0019232716 -0.012035079 0.03869779
0000d0 80 4b 65 bc c2 7f b1 bc 3d 9e bc 3c 3a 6a 08 bd
       -0.013995051 -0.021667365 0.023024673 -0.03330443
0000e0 61 74 e9 3a 4c da d5 3c 84 ba b1 bc 1c 71 cf 3c
       0.0017811173 0.026105069 -0.021695383 0.02532249
0000f0 72 be 5d 3c 17 a5 25 bd 60 d0 09 3d a6 70 9a bc
       0.013534175 -0.040440645 0.033645988 -0.018852543
000100 7b 43 1e bc a1 fa 97 3c 19 ae 8a bb 5f 2e 62 bc
       -0.009659643 0.018552126 -0.00423218 -0.013805001
000110 b0 e2 a9 3a 18 7b ed 3c 7d 3a cf 3c d0 18 95 3c
       0.0012961235 0.02898936 0.025296444 0.018200308
000120 7b 39 55 ba 93 fe 70 3a 24 fa c1 bc 48 e6 76 3c
       -0.00081338704 0.0009193208 -0.023678847 0.015069552
000130 28 60 fa 3b 3f e6 5e 3b 5a 8f 18 3c 62 b2 5e 3c
       0.0076408572 0.003401175 0.009311521 0.013592334
000140 a0 79 64 bb d7 b7 f5 3c 7c c3 27 3d e0 ed cd 3c
       -0.0034862533 0.029994888 0.040957913 0.025137842
000150 ff e1 b0 3c ca e2 27 bc 36 9c 29 3d 06 40 6a 3c
       0.021592138 -0.010246942 0.04140874 0.014297491
000160 5c a4 bb 3c e7 42 28 3d 39 fb 1a bc c1 ce 41 bd
       0.022905521 0.041079428 -0.00945931 -0.047316317
000170 94 a8 e6 3c 61 9e 40 bd ce 49 01 3d fc b1 ee bc
       0.028156556 -0.047026042 0.031564526 -0.029137604
000180 56 79 ab bc 51 ff e9 3b 37 6b a8 bc ea e1 44 3d
       -0.02093188 0.007141032 -0.020558937 0.04806701
000190 73 50 b0 3c b1 ee f1 3c da f4 7c 3c ae 3c 14 3d
       0.021522736 0.029532762 0.015439237 0.03619068
0001a0 09 33 bc 3c 22 0d fb 3c 03 98 b3 3c 4c b7 d1 bc
       0.022973554 0.03064591 0.02192307 -0.025600098
0001b0 8c 49 ba bc a0 e1 02 3b ad ea 65 3c ac 63 8b 3c
       -0.022740148 0.0019970909 0.014033002 0.0170153
0001c0 f6 9f cb 3c 15 8f f8 3b 26 21 05 bd 07 a0 ba bc
       0.024856549 0.007585416 -0.032502316 -0.022781385
0001d0 1c 9d 39 b9 97 1f 23 3d 87 1d cf ba 3a cb 39 3d
       -0.00017701503 0.03982505 -0.0015801647 0.045359828
0001e0 02 f9 70 3c 61 ef c9 3c a5 82 28 3d 1b a4 ea 3c
       0.014707806 0.024650278 0.041140217 0.028642705
0001f0 e5 f5 1c bb 29 e0 26 3d cf fe c8 bc 6d 78 b2 3c
       -0.0023950275 0.04074112 -0.024535565 0.02178594
000200 18 d1 56 bc 06 44 a9 3c 44 d1 3c 3b 2a 3d c7 3c
       -0.013111375 0.020662319 0.0028811255 0.024321157
000210 89 c5 1a bd e7 a7 42 bd b2 02 a1 3c fb dd 23 3d
       -0.03778604 -0.047523405 0.019654606 0.04000662
000220 e3 92 1a 3d 49 0f 0e 3d 4e f9 55 3d c0 52 2b bd
       0.03773774 0.034682546 0.05223971 -0.041826963
000230 90 25 b4 bc e2 c5 8b bc 45 e3 fd 3c bd 88 8a 3a
       -0.021990567 -0.017062131 0.03099216 0.0010569316
000240 7d e3 28 bc 09 86 25 bd 64 55 c9 3c aa ff bf 3c
       -0.010308144 -0.04041103 0.02457685 0.02343734
000250 e9 a7 89 3b 06 cc 15 bc 80 51 48 3c e8 25 d6 3c
       0.0042009247 -0.009142881 0.012226462 0.026141122
000260 27 b5 14 bd ef 81 e4 b9 41 9b 5d bc fd 1b c3 bc
       -0.036305573 -0.00043584357 -0.013525785 -0.023817057
000270 7a bd 01 bb 39 0c cd bc e2 a5 91 bc c5 f6 9d 3b
       -0.0019796775 -0.025030242 -0.017779294 0.004820677
000280 db c2 86 bc cc d9 3e bd 6f f3 29 3d b5 8b 00 bc
       -0.016450336 -0.046594426 0.041491922 -0.007845809
000290 1a ea 82 3c 62 37 30 3d c1 68 a2 3b d1 ab 57 3c
       0.015980769 0.043021567 0.0049563353 0.013163523
0002a0 47 64 24 3c 40 64 2c 3c 55 d6 12 3d 20 93 98 bc
       0.010033674 0.010521948 0.035848934 -0.018624842
0002b0 4c 32 ca 3b c0 ad 80 b7 72 d4 1a bd 41 24 44 bc
       0.0061705466 -1.5339698e-05 -0.03780026 -0.011971534
0002c0 e9 84 67 bc 89 a9 0e 3c 7e 21 df ba f6 03 0d 3d
       -0.014130809 0.0087074125 -0.0017023531 0.034427606
0002d0 ea 4d 10 3d 64 94 3b bc c2 72 14 bd 5e 02 75 bc
       0.035230555 -0.011448953 -0.036242254 -0.014954178
0002e0 f4 1f 17 3d 93 49 21 3d 81 93 23 bd 7a dc 4a 3b
       0.036895707 0.039376806 -0.039935593 0.0030954168
0002f0 0a 72 89 bc a7 0f ca bc ca ab 10 bd a7 dc e1 3b
       -0.01677801 -0.024665667 -0.03532008 0.006892759
000300 4a 91 3a bb 5d 9b db 3c 63 1c d4 bb 4f de c6 3c
       -0.0028467947 0.026807481 -0.0064731105 0.024275927
000310 a4 97 09 bd bf 91 2d bc 54 09 cd bc d8 f8 aa bc
       -0.03359188 -0.010593831 -0.025028862 -0.020870611
000320 51 75 a9 3c 0f 79 d3 3b 10 26 31 3d 02 18 6e bb
       0.020685824 0.0064536403 0.04324919 -0.0036330228
000330 30 05 d4 3c 03 2b 03 bc 34 39 33 3c c0 ad 1b bd
       0.02588138 -0.00800586 0.010938931 -0.038007498
000340 f3 88 ef 3c 7d fd df bc 8a 6e 93 3c 77 07 90 bc
       0.029240107 -0.027342552 0.017997045 -0.017581685
000350 32 8f d7 bc 9f 3d 91 bc 85 53 0c bd 30 81 51 3c
       -0.026313398 -0.017729579 -0.034259338 0.012787148
000360 0f 94 a4 bc 4f c6 9a bc 41 86 34 3c 5e 31 67 bc
       -0.020090131 -0.018893389 0.011018337 -0.014110891
000370 d5 76 8c 3c 19 32 5e 3c 43 c6 ed 3b 56 71 04 bd
       0.017146507 0.013561749 0.0072563007 -0.032334648
000380 91 16 80 bc 9a ea 79 3c ff 40 31 bb c2 e1 20 3d
       -0.01563576 0.015253687 -0.0027046797 0.0392778
000390 90 fc 24 3a 7f 51 06 bd 5f 90 7e 3c 49 5a d0 bc
       0.0006293738 -0.032792564 0.01553735 -0.025433676
0003a0 9d 39 40 bb 42 68 28 3d 0b fa c3 3b 79 f5 19 3b
       -0.0029331215 0.041115053 0.005980735 0.002349226
0003b0 a7 13 bc b9 37 a0 9c bc e5 3a 46 bc 4b ca 2c 3d
       -0.00035872796 -0.019119365 -0.0120990025 0.04218511
0003c0 65 80 11 3d db 47 02 bb 3b 05 1d bd 77 2b 61 3b
       0.035522837 -0.0019879255 -0.038335066 0.0034358182
0003d0 00 e9 5b 3d 33 c6 f3 3c 75 cb 6a 3c 03 4b 05 3c
       0.053689003 0.029757595 0.0143307345 0.00813556
0003e0 b6 a7 bb bc d9 6a 0e 3d 1e 3b 2b 3c d6 6e 0c 3d
       -0.02290712 0.034769867 0.010451106 0.03428539
0003f0 a7 c7 1a 3c a4 27 cb 3c 25 d2 6c bc 09 d0 9a bb
       0.009447015 0.024799176 -0.014454399 -0.0047245068

3.bias f4 [256]
000000 c3 2e a4 ba d3 3e aa 3c bf 18 b5 3a 03 c6 b2 bc
       -0.0012526143 0.02078191 0.0013816579 -0.021822935
000010 68 77 67 3d 24 8e 8a 3c 32 a9 39 3c 4a ac 6a 3b
       0.05651036 0.016913481 0.011331843 0.0035808259
000020 4f f7 0f bd 77 50 8a 3c 54 14 7f 3c dc 43 e4 3c
       -0.03514796 0.016884072 0.015568811 0.02786439
000030 3a ad 87 3c cb 40 18 3d 85 64 32 3d f0 72 f1 3c
       0.016562093 0.037171166 0.043552894 0.029473752
000040 2b 55 47 3d 7f 35 48 3b b8 8a bb 3c aa 41 5b 3d
       0.048665207 0.0030549464 0.022893295 0.05352942
000050 d7 4d 3e 3d 97 a0 8e bc 04 f5 9c 3c d1 fd d4 bb
       0.046460953 -0.01741056 0.019159801 -0.006499984
000060 dc f3 d3 bb 17 d0 10 3d 51 cf 08 3d dd 7f 0d bd
       -0.0064682793 0.0353547 0.033400837 -0.034545768
000070 9a 27 0d bd 45 ed 0e bd bc 9a 12 bc 4c a0 fd bb
       -0.034461595 -0.034894247 -0.008948024 -0.007740056
000080 76 93 54 3d 7a 3c e1 bb 97 61 18 bd e5 da 29 3c
       0.051898442 -0.0068736644 -0.037202444 0.01036713
000090 ef 3f 4e 3d aa 98 9c bb 65 08 45 3d 0b 6b ed 3b
       0.05035394 -0.004778941 0.04810371 0.0072454265
0000a0 08 d2 80 3c f5 66 d9 bc 7a 22 ff 3c 5e 00 35 3d
       0.01572515 -0.026538352 0.03114437 0.044189803
0000b0 8a 1b aa bc 3f b0 66 3d 45 ba 37 3d f5 a3 9a bc
       -0.020765085 0.056320425 0.044855375 -0.018877009
0000c0 34 11 26 bc 2d 7d 92 3c 96 12 e8 3b 9c ad b0 ba
       -0.0101359375 0.017881954 0.0070822937 -0.0013479474
0000d0 50 e0 d5 3c 31 4c 0c bd 9c 72 b0 bc d0 b7 a8 3b
       0.026107937 -0.03425235 -0.021539025 0.0051488653
0000e0 30 bb cb 3c a9 8c 73 3d 6a 8b 23 3b a7 cb 54 3d
       0.024869531 0.059460316 0.0024954923 0.05195203
0000f0 70 4c a7 3b 8b 68 ae 3c 6d ba 45 3d 22 8b ec 3c
       0.0051055476 0.021290084 0.048273493 0.028874937
000100 f6 d5 3b bc ce 5d b3 3c 62 e6 c1 3c f0 88 02 3d
       -0.0114645865 0.021895315 0.023669425 0.031868875
000110 48 b0 bf bc 78 a4 88 bc c8 5c 0c 3b 73 d0 7e bc
       -0.023399487 -0.016679987 0.0021417607 -0.015552628
000120 d2 a4 23 bd 30 9d 14 3d 2b 1b 1d 3d 5d 05 8c bb
       -0.039952107 0.03628272 0.038355988 -0.0042731003
000130 89 71 42 bc a5 5d 84 bb 85 72 5b 3c 19 b3 f2 bc
       -0.011867889 -0.0040394836 0.013394003 -0.029626416
000140 8f 23 db 3c 24 4b 7e 3c d4 63 3b 3c 4c b6 29 3c
       0.026750354 0.015520845 0.011437375 0.010358404
000150 e9 0d 4b bb f0 1e fe bc 30 41 2b 3d 3c 71 17 3d
       -0.0030983633 -0.031020612 0.041810215 0.036973223
000160 8c 15 b9 bc 9a 6d 34 3d 9a 49 28 3d 1c a6 f2 3c
       -0.022593282 0.044049837 0.041085817 0.029620223
000170 02 a0 dc 3b 86 2b e0 bc 05 eb 62 3d 6d e5 08 3d
       0.0067329416 -0.027364504 0.055399913 0.033421922
000180 69 b6 50 3b 82 da 3c bc 10 e0 57 3d 2d 5b 1b bd
       0.0031847006 -0.011526706 0.052703917 -0.03792875
000190 72 23 a2 ba 65 3a bf bb 19 11 0d 3d 2f 3d 72 bb
       -0.0012370183 -0.0058358186 0.034440134 -0.0036962738
0001a0 34 9e 11 3d d5 e6 28 3c 08 c6 21 bd 10 fa fa bc
       0.035551265 0.010308941 -0.039495498 -0.030636817
0001b0 15 e3 e5 3c 93 e3 42 3d d7 6a 5b 3d f2 54 3d 3d
       0.028062383 0.047580313 0.053568687 0.04622359
0001c0 c6 3c eb 3b c2 93 92 bb a8 01 65 3d de b3 7c bc
       0.0071788756 -0.0044731805 0.055909783 -0.015423743
0001d0 b9 d7 32 3d 2d 16 11 3d 98 34 93 3b 19 ca 3e 3c
       0.04366276 0.03542154 0.0044923536 0.0116448635
0001e0 50 3f 29 3d d1 79 13 3d 83 db de 3c 85 cd cb 3c
       0.041320145 0.036004845 0.02720428 0.024878273
0001f0 a1 41 f7 3b 26 b8 ca 3c 8e 01 5e 3c fe e3 34 3d
       0.0075456654 0.024746012 0.013550175 0.044162743
000200 e4 7b 73 3c 38 54 82 bc 17 7f 8d bc 7c fb 51 3b
       0.014861081 -0.0159093 -0.017272515 0.0032040766
000210 5a ca b1 bc 66 65 52 3d 9d 44 bf 3b bc 80 1e 3d
       -0.021702934 0.051366232 0.0058370368 0.03869699
000220 1e 2a 41 3d c5 b8 fa ba 77 0e 0b 3d ba de 63 bb
       0.047159307 -0.0019128552 0.03394934 -0.0034770207
000230 79 bf 31 bc 5c 4b 26 bc 90 7d 7b bc d2 7c 08 3d
       -0.010848873 -0.010149803 -0.015349761 0.033322163
000240 6a b8 ee bc 12 a7 64 3c 66 e3 15 3d 83 0e a2 bc
       -0.02914067 0.013955848 0.036593817 -0.01978231
000250 7c 05 9a 3c 79 6f 36 3d 8e 6e da bc b1 3f d7 3c
       0.018801443 0.044539902 -0.026664045 0.026275488
000260 89 13 b1 bc d7 85 3e 3d f8 19 72 bc be dd 95 3b
       -0.02161576 0.04651436 -0.014776699 0.004573553
000270 d9 bf 0f 3d 76 fb b8 3b b3 7f 38 3d 24 04 87 3b
       0.03509507 0.005645211 0.04504366 0.0041203666
000280 0f 36 12 bc c4 5e ef bb 27 7c 16 bd 7a 27 d8 bc
       -0.008924021 -0.007304998 -0.036739495 -0.026386011
000290 f2 08 48 bc 43 53 2c 3d a6 b6 8a bc c4 92 ea 3c
       -0.012209164 0.042071592 -0.016932797 0.028634436
0002a0 e9 59 b6 bc 01 5b 64 3c d7 20 d2 3c 14 f8 ed bc
       -0.02225967 0.013937713 0.025650425 -0.029048957
0002b0 2f c7 66 3c fc c9 1e bd ab c5 9e bc d6 95 33 3b
       0.014085575 -0.038766846 -0.019381365 0.0027402542
0002c0 dc 96 d8 bc cd 58 6e bc 8e 7b d2 bc 47 f5 fe 3c
       -0.026439123 -0.014547539 -0.025693681 0.031122817
0002d0 18 b9 07 bd 97 fc 3c bb 64 47 ad bc e7 59 8a bc
       -0.033135504 -0.0028837079 -0.021152206 -0.016888572
0002e0 23 1a 25 3d da 6b 40 3d 3f 8d 8b bc 44 6d b5 3c
       0.04030813 0.046977855 -0.017035125 0.022146828
0002f0 05 16 aa 3c d0 1a 5b 3d 8e 75 34 3b bf 00 83 3d
       0.020762453 0.053492367 0.0027535888 0.06396627
000300 61 de ae b8 31 a7 07 bd 4c 85 b9 3c 03 70 db 3c
       -8.338388e-05 -0.03311843 0.022646569 0.02678681
000310 55 d0 9d 3c aa bf e8 bb 86 13 3e 3c e9 a8 ae 3b
       0.01926438 -0.0071029263 0.011601334 0.0053301943
000320 4b b8 09 3b a9 33 14 bc e3 1d 8e 3c 86 89 d1 3c
       0.0021014388 -0.00904552 0.017348235 0.025578272
000330 54 c9 97 3c 28 de a4 3c 38 5e ce bb 88 b6 14 3d
       0.018528618 0.020125464 -0.006297853 0.036306888
000340 33 e3 69 bc 75 01 df bb da b3 ca 3b 64 94 63 bc
       -0.01427536 -0.0068055936 0.0061859908 -0.01389036
000350 d7 11 e0 3c 78 ff 1c 3d b1 15 e6 bc f1 b0 2e 3d
       0.027352257 0.03832957 -0.028086515 0.042649213
000360 9c 8c b3 bc 4f 57 3c 3c 58 24 0b bd 66 f7 00 3d
       -0.021917634 0.011495425 -0.033970207 0.031485938
000370 8b e4 17 bd 5e 19 16 bc 49 45 79 3c a6 ae 9b 3a
       -0.03708319 -0.009161321 0.015214273 0.0011877611
000380 a3 ec 48 bb f7 27 60 3a 13 c6 ad bb 88 bc bf bc
       -0.0030658625 0.0008550877 -0.0053031533 -0.023405328
000390 a8 3d a0 3c c1 ec 19 3d 8e 70 21 bd 53 2c 54 3c
       0.01956065 0.0375793 -0.03941398 0.012950021
0003a0 f3 a1 17 3c 02 2f 90 bc f0 25 24 bd b5 42 e4 3c
       0.00925492 -0.01760054 -0.040075243 0.02786384
0003b0 a5 ac b2 3c 3e b9 28 bc 15 71 68 bc cc 84 0c 3c
       0.021810839 -0.010298071 -0.014187117 0.008576583
0003c0 b8 7d fc bc b7 e3 09 3d c7 52 0b bb 41 3d 88 3b
       -0.030821666 0.03366443 -0.0021259056 0.0041576927
0003d0 22 56 1a bd 7a 1b c7 3b d3 5c 11 3d a0 42 06 3d
       -0.0376798 0.0060762735 0.035488915 0.032778382
0003e0 92 d4 09 3d f9 5c 6a 3d bf 61 f7 3c 8b 66 0a 3d
       0.03364999 0.057217572 0.030197976 0.0337892
0003f0 d8 87 a8 3c b4 ef 2a bc 8d 15 84 3c 0b 4e 8d 3c
       0.020572588 -0.010433126 0.016123557 0.017249128

6.weight f4 [64, 256]
000000 70 fa 77 3b e7 96 1c bd b2 8d 30 3d c8 65 f2 3c
       0.0037838481 -0.03822985 0.04310388 0.029589549
000010 20 41 e6 3c b2 d2 2b bc 16 5b d6 bc cf 30 0c 3b
       0.028107226 -0.010487245 -0.02616648 0.0021391397
000020 e4 e0 ba 3c b4 d7 36 3d 5e bd 92 3c c2 51 2d 3d
       0.022812314 0.044639304 0.017912563 0.0423143
000030 4b 1c 46 3c 8f d0 04 bd 06 d5 0b bc 34 ca a0 3d
       0.0120917065 -0.03242546 -0.008534675 0.07851067
000040 a9 fb 46 bc 1b 97 86 3c 83 73 df bb 58 4e f0 bc
       -0.012144961 0.016429475 -0.00681919 -0.029334232
000050 05 24 88 3b 87 87 6d bd 8c 80 80 3d 94 46 c6 3b
       0.0041546845 -0.057990577 0.06274518 0.006050894
000060 7e be 1b 3d 3d d8 42 3d 61 34 96 3d 2b df 4c 3d
       0.038023464 0.047569502 0.07334209 0.050017517
000070 92 b9 3e 3d 49 17 02 3d fa d9 30 bd 54 8f 85 3d
       0.046563692 0.031760488 -0.04317663 0.06521478
000080 2d 29 22 3d 07 7a a8 37 a5 e3 1c bd d4 5d 8c bc
       0.03959005 2.0083984e-05 -0.038303036 -0.017134584
000090 49 8a a1 3c b4 11 0f bc 71 b6 ab bb 74 c5 51 3d
       0.01971926 -0.008732248 -0.0052402546 0.051213697
0000a0 4a 83 6b 3d e6 7a db 3c 53 ce 2c bd 00 f5 f7 bc
       0.057498254 0.026792001 -0.042188954 -0.030268192
0000b0 20 d3 00 3d ef e1 17 3d 01 92 cb 3c 81 ee 44 bc
       0.031451344 0.0370807 0.024849894 -0.012019754
0000c0 c2 ce 18 bc 6d 6d 70 3c a2 14 05 3d 41 71 4c 3d
       -0.009326639 0.014674527 0.03249038 0.049912695
0000d0 5d dd c3 3b 8f 4f 37 3d 6b ea 69 3c b9 28 97 bd
       0.0059773163 0.044753607 0.014277081 -0.07380814
0000e0 29 07 3f bd 55 6a 1d 3d 8b 84 cd 3c d6 80 9d bc
       -0.046637688 0.038431484 0.025087615 -0.019226473
0000f0 0e 4b 2e 3d fa 58 55 bd 48 b7 a8 3d 11 75 54 bd
       0.042552046 -0.052086808 0.08238083 -0.051869456
000100 ee fa 14 bd 99 96 4c 3b 44 0c 4c bd 88 49 28 3d
       -0.036372118 0.0031217693 -0.049816385 0.04108575
000110 ce d2 43 bd 80 ec 50 3d 98 68 1e 3c 9a 55 a5 bd
       -0.04780846 0.051006794 0.009668492 -0.08072968
000120 58 bf 90 bb 05 24 19 3d 64 f5 53 bc 85 94 b1 3b
       -0.004417341 0.037387867 -0.012936924 0.0054193162
000130 56 43 89 bc 07 47 01 ba 6e 40 f2 bb 30 cb 83 bd
       -0.016755741 -0.00049315434 -0.0073929345 -0.06435239
000140 cd f2 57 3d 9e 60 14 bc c9 69 b3 bc 57 2d 25 bd
       0.052721787 -0.009056238 -0.021901028 -0.040326443
000150 ac 0a 0b 3d 24 2a 01 3d 44 5a 9b bd 15 12 39 3d
       0.033945724 0.03153433 -0.07585576 0.04518326
000160 86 68 85 3c 06 4a 1d 3d b0 d1 64 3d 4a 1e df bc
       0.016285192 0.038400672 0.055864036 -0.027236123
000170 f5 6e 13 bd a9 c4 2c 3d da 96 8d bc 45 bd 01 3d
       -0.03599449 0.042179737 -0.017283846 0.031674642
000180 6f d6 ab 3d 8a bc d2 3c 94 c2 37 3d 7e 92 10 3d
       0.08390509 0.025724668 0.0448633 0.035295956
000190 3c 1f 18 3d a4 ba 10 3b e2 49 70 3d 9d 1d 71 bc
       0.037139162 0.0022083903 0.05866421 -0.014716533
0001a0 59 7d 0e bd 6e 14 21 bd 50 3a 45 bd 67 9a dc bb
       -0.03478751 -0.039326124 -0.048151314 -0.0067322734
0001b0 7c 6f 2c 3d 2a c2 9d bd 27 be 73 3c 6a 21 46 bc
       0.042098507 -0.077030495 0.014876879 -0.0120929275
0001c0 f8 8d 92 3a 7c 41 12 bd e7 2a 0b 3d 25 a2 95 bd
       0.0011181226 -0.035706982 0.03397646 -0.07306317
0001d0 69 ec c3 bc 18 e2 7e 3c 95 30 ed 3c 96 c3 c1 3d
       -0.02391644 0.015556835 0.02895383 0.09461133
0001e0 c2 d4 79 bd 81 34 69 bd bd bf 33 bd 08 b6 34 3d
       -0.060993917 -0.056934837 -0.043884028 0.04411891
0001f0 19 b4 9b 3d 16 83 02 bd b2 5d 10 bc 9d 9c 46 bd
       0.0760271 -0.031863295 -0.008811401 -0.0484892
000200 14 32 96 3c fe df 52 3c 61 9e 53 3d 28 81 25 bd
       0.018334426 0.012870787 0.051664714 -0.040406376
000210 73 ee 04 3d 6a f5 16 3d fc af 64 3d 95 38 79 3d
       0.032453965 0.03685514 0.055831894 0.060844976
000220 20 20 a8 bc 81 58 c5 bc 7a ba 4e bc c9 4d 1d 3d
       -0.02052313 -0.024090054 -0.012617702 0.03840426
000230 0b e0 85 bd 2c a5 38 3d e0 51 96 bc a4 03 90 bd
       -0.065368734 0.045079395 -0.018349588 -0.070319444
000240 0f 23 b2 3c e6 b6 8c bd 68 3c 67 bc 1b 59 84 3c
       0.021745233 -0.068708226 -0.014113523 0.01615577
000250 fb a3 41 3d 9e 7e 2d bc 81 77 16 3d 6e ed 16 3c
       0.047275525 -0.01058927 0.03673506 0.009211881
000260 da 14 2e 3c 47 8a 0d 3c 3e ea 9d 3d 07 9f 0f 3d
       0.010625089 0.008638925 0.07710694 0.03506377
000270 b9 43 98 bd 52 9a 08 bd e6 1e 10 3c b6 c5 d4 3c
       -0.07434792 -0.033350296 0.008796429 0.025973182
000280 aa 7d ce bc 89 ed fd 3c 2c a1 f8 3c 61 37 e1 3b
       -0.025206406 0.030997055 0.03035029 0.0068730568
000290 00 b9 14 3d 2d 3a be bd cd a2 47 bd e7 85 28 3d
       0.036309242 -0.0928844 -0.048739243 0.041143324
0002a0 85 a8 65 bd d4 4e 25 bc 4b a2 2c 3d 3b 36 28 3d
       -0.056068916 -0.010089595 0.042146962 0.041067343
0002b0 7e 3d 9a 3b 35 a0 40 bd 2c 58 61 3c bb f5 f5 3c
       0.0047070375 -0.047027785 0.013753932 0.0300244
0002c0 14 29 66 bd b3 40 87 3d 97 71 c9 bd 28 04 66 bc
       -0.05619152 0.06604137 -0.09836119 -0.014039077
0002d0 80 2f 8c 3d 39 bc 70 3d ec 13 45 bd 74 c1 f6 3c
       0.068449974 0.058773253 -0.048114702 0.030121543
0002e0 5c 12 86 3c 89 af 23 ba 5f ae ac 3c f5 67 18 bc
       0.016366176 -0.00062441133 0.02107924 -0.009302129
0002f0 30 d1 ec bc 87 7f f4 bc c4 04 73 bd a0 8f fb bb
       -0.028908342 -0.029845966 -0.059330717 -0.0076770335
000300 c2 35 83 3d 3e 57 19 bd a0 55 bd bc e1 9b 01 bd
       0.06406738 -0.037436716 -0.023112118 -0.0316428
000310 7e f7 97 3c f0 c1 20 3d f6 f2 99 3d 21 c0 a5 bb
       0.01855063 0.039247453 0.07517044 -0.005058304
000320 cf 5a 6e bd 6c e4 72 bd 2c 6b 03 bd 80 1c 56 3d
       -0.05819207 -0.05929987 -0.03208463 0.052273273
000330 14 e8 ba bd b6 58 b2 3c 16 9d 2e bc 64 89 d8 bc
       -0.09126297 0.021770816 -0.010657569 -0.0264327
000340 31 05 3a 3b 4e a6 3a 3b 69 66 31 3d 5e 30 39 bd
       0.0028384442 0.0028480473 0.043310557 -0.045212142
000350 aa 7b 59 bc d7 2e 31 3d 70 66 60 3d 40 f3 1d 3d
       -0.013274113 0.04325756 0.054785192 0.03856206
000360 bd 7b b3 bc 6e 97 3c 3c fb 1f e7 3c 41 ab dc bc
       -0.021909589 0.011510713 0.028213492 -0.026937129
000370 42 51 2d 3d c6 c7 15 3d ff a3 cc 3c 2e 31 7f bd
       0.04231382 0.036567472 0.024980543 -0.06230276
000380 f0 cc 91 bc 06 e9 2d bd ff 6e a9 bc 24 79 83 bc
       -0.017797917 -0.042458557 -0.02068281 -0.016048975
000390 f1 d3 89 3a bb 32 78 3d f9 53 69 bc 79 88 56 bd
       0.0010515434 0.060595255 -0.014241212 -0.052376244
0003a0 0f c2 49 bd fb fd 3b bd 93 63 98 3b 87 3d 43 3d
       -0.049257334 -0.04589651 0.004650542 0.0476661
0003b0 d2 97 36 bc f6 9d 37 bd 47 0b 2a bd 58 b9 32 bd
       -0.011144595 -0.044828378 -0.04151466 -0.04363379
0003c0 56 69 33 3d 13 32 f5 3c 45 32 e7 3c 6c 1c de 3c
       0.043801628 0.029931104 0.028222213 0.027113162
0003d0 ba 08 5f 3d ee 91 0a bd 74 83 33 3c f9 dd 34 bd
       0.05445168 -0.033830576 0.010956634 -0.044157002
0003e0 1a 46 cc bc 39 e6 2e bd cf 57 24 bd 35 87 01 3d
       -0.02493577 -0.042700026 -0.040122803 0.031623084
0003f0 8e 9e ff bc 8b 7c 0f bd b3 4c 7d bd 7b df bb 3a
       -0.031203534 -0.035030883 -0.061840724 0.001433357

6.bias f4 [64]
000000 8e 00 82 3d 44 30 a3 bc 22 d9 0c 3d 72 a6 a3 bb
       0.06347762 -0.019920476 0.03438676 -0.004994207
000010 12 6b 25 ba 7c 46 44 bd 03 aa fd ba 54 61 f4 3c
       -0.0006310205 -0.04791878 -0.0019353036 0.029831566
000020 c9 86 94 3d 0b 47 41 bd f4 00 94 bc ff d3 26 bd
       0.07252271 -0.047186892 -0.01806686 -0.04072952
000030 af ba 89 3b 91 a9 8f 3d 29 e8 09 3d 88 46 1d bd
       0.0042031626 0.07014764 0.03366867 -0.038397342
000040 37 af 9a 3d 5d 62 76 bc b1 9e 17 bd be 3a 7e 3d
       0.07552951 -0.0150381 -0.037016574 0.06206774
000050 94 f9 3c bc 32 f2 f7 bc 8d d1 a4 bc ab 77 2e bd
       -0.011534113 -0.030266855 -0.020119453 -0.042594593
000060 40 91 56 bc 43 17 2a 3d f0 1c 40 bd d5 f9 5c 3d
       -0.013096154 0.04152609 -0.046902597 0.053949196
000070 3d fd 2a bb 7e 9f f5 bc 54 63 28 bd 6f 30 57 3d
       -0.0026090883 -0.029983278 -0.04111035 0.052536424
000080 ac 63 14 3d f0 71 a7 bb bf 1e 7b bd e6 a5 8b 3d
       0.036227867 -0.005110018 -0.06130862 0.06818752
000090 06 4b 05 3d 1e f6 22 3d 39 fa ac 3d 3a 77 e7 3c
       0.03254225 0.039785497 0.08446164 0.028255094
0000a0 31 fc 38 bd 70 fb 78 bc 55 e7 49 3c bf 2f 3c bc
       -0.045162383 -0.015196666 0.01232322 -0.011485993
0000b0 b9 6b 00 bd ef 8b cc 3c 69 76 16 3c 57 68 a4 3d
       -0.031352732 0.02496907 0.009183505 0.08027714
0000c0 e0 58 75 3d 9c 27 33 3b 8f 63 8e 3d cc 41 48 3d
       0.05989921 0.0027336841 0.06952583 0.048890874
0000d0 a4 1a d2 3c 9e eb 57 bd c5 d6 1f bd d1 cf 4b 3d
       0.025647469 -0.052714936 -0.03902318 0.049758736
0000e0 92 d7 3c 3d 29 55 af 3c c1 b0 9b bb 85 5a 1c bc
       0.04610402 0.021402912 -0.0047512953 -0.009543066
0000f0 9f a0 fb bb ec bd 6f 3d 1c 2b bf 3c 79 9a 8d 3c
       -0.0076790596 0.058530733 0.023335986 0.017285572

9.weight f4 [12, 64]
000000 f2 32 85 3e e7 35 82 3e 71 d6 6c 3d df 54 83 3e
       0.2601543 0.2543175 0.057821695 0.2565069
000010 76 44 6a 3e e2 5c b4 3d be 3f 4f be a2 28 02 3d
       0.22877678 0.088067785 -0.2023916 0.03177703
000020 7e ac 84 be 54 1c 59 3a 79 7b 79 be 7a 04 31 bd
       -0.2591285 0.0008282114 -0.24363507 -0.04321716
000030 d9 cc d6 bd 8e 3e 75 3e a8 05 b9 3a c9 de d7 3c
       -0.1048829 0.23949644 0.0014116066 0.02635135
000040 a8 36 b1 3d a0 a4 8a be f3 67 93 3d b7 e7 0f 3e
       0.08653003 -0.27078724 0.07197561 0.14053236
000050 b9 38 68 be 84 65 5e 3e 74 84 91 bd 37 55 b7 bd
       -0.22677888 0.21718413 -0.071053416 -0.089518
000060 23 4f bf bd 0e 53 78 bc 03 84 c8 bc 6a 0e c0 bd
       -0.09341266 -0.0151565205 -0.02447701 -0.09377749
000070 3c 52 89 bc fb b6 9b bd 33 5c 0d bd 2a 4f 01 3d
       -0.016762845 -0.0760326 -0.034511756 0.031569637
000080 9e 97 ed 3d 8c a7 56 bd 89 fc 44 be 9c 0f d7 be
       0.11601184 -0.05240588 -0.1923696 -0.42004097
000090 98 e5 bf bc 1d ed aa 3e 70 42 8f be 72 9c 57 3d
       -0.023424909 0.33384028 -0.27980375 0.052639432
0000a0 25 e6 a7 3d f1 35 f1 bc d3 c4 8c be 02 96 ac 3d
       0.081981935 -0.029444667 -0.27493915 0.08427049
0000b0 11 ad 0b bd 65 75 bd bd d5 0f 56 3d ef 03 57 bd
       -0.034100596 -0.09250907 0.052261192 -0.052493986
0000c0 67 48 8e 3e b7 34 f1 3d 97 2a 93 3e 30 ea 5e bc
       0.27789614 0.11777633 0.2874343 -0.013605639
0000d0 b6 e2 24 3e 51 fc a0 3d 63 a6 69 3d 54 5e 4e be
       0.16102108 0.078606255 0.057043444 -0.20153171
0000e0 e4 69 14 be 21 66 87 3d 3e 35 e8 bd ed d2 cb bc
       -0.14493519 0.066112764 -0.1133828 -0.02488085
0000f0 59 cc 49 3d 6c 9e cc 3d 22 d9 d7 bd f4 f2 97 bc
       0.049267147 0.09991154 -0.10539462 -0.018548466
000100 c7 e1 23 be e5 68 20 be 59 ed d1 bd eb 7e 0b bd
       -0.16004096 -0.15665014 -0.102503486 -0.034056585
000110 81 32 ec bd 96 c6 f2 3d 66 f7 3d bc ec 17 8a bd
       -0.1153307 0.118542835 -0.011594629 -0.06742844
000120 11 a2 7d 3e 21 6a e1 3d b2 64 b6 3d 6b 3f a6 bd
       0.24768855 0.110065706 0.08905925 -0.08117565
000130 5c 53 44 be 63 9e 80 3e ed b1 81 bd af 1f 95 bc
       -0.19172424 0.2512084 -0.06332765 -0.018203584
000140 cc 42 66 3e 6f c6 8b bd 90 2b f8 3c 6d fb 08 be
       0.22486418 -0.068249576 0.03029421 -0.13377161
000150 a8 3b ca 3d 72 e2 63 be f7 1c 1f 3b 56 a1 54 bd
       0.0987466 -0.22254351 0.002427874 -0.051911674
000160 b0 da dd bd f7 f0 93 3d 6c 6c 1e bc 33 7a 25 bd
       -0.10832727 0.07223695 -0.0096694045 -0.04039974
000170 e4 30 8f 3d c7 74 b7 bc 00 30 92 3d 07 f8 8a 3e
       0.06991747 -0.022394551 0.071380615 0.27142355
000180 c7 ff 8f 3c 6f 30 7f bd 4d 1d b9 bd a3 45 5f be
       0.017578019 -0.06230205 -0.09038792 -0.21803908
000190 00 cd a5 3d 05 3a 39 3e be 20 15 be 77 ac f3 bd
       0.08095741 0.18088539 -0.14563271 -0.118981294
0001a0 9e 10 ee bd 12 63 cf 3d bf 13 ea bc 95 fa 48 3e
       -0.11624263 0.10126318 -0.028573869 0.1962684
0001b0 b8 6a 6e 3e 8a 31 46 be 66 d1 cf bd 50 c4 2c 3e
       0.23282897 -0.19354835 -0.101473615 0.16871762
0001c0 2f 2e de 3d 5a 14 23 3e f5 2d ca 3e 6a d6 03 3e
       0.108486526 0.15925732 0.39488187 0.12874761
0001d0 6b 5c d9 3d b8 15 7a 3d 4a f0 04 be 07 bd 17 3e
       0.106133305 0.06105587 -0.12982288 0.14818202
0001e0 ac 86 81 bd 2a c9 fb bd c4 d3 6d 3d ed 8f 99 bd
       -0.06324515 -0.122942284 0.058063284 -0.07498155
0001f0 d4 1e 04 be 10 11 b7 3b 48 73 1b bc f2 43 a4 3d
       -0.12902385 0.005586751 -0.009487934 0.08020772
000200 f0 56 71 3b 1f f3 ae bd e3 66 d4 be f7 53 d0 3d
       0.00368255 -0.085424654 -0.41484746 0.10172265
000210 1f 0d 0e 3e 10 a6 ab bd 8d 04 43 bb 9d 70 27 3d
       0.13872193 -0.08381283 -0.002975735 0.04087888
000220 51 42 f7 3d a7 d7 a4 bd db 16 07 3e 79 f6 76 be
       0.12073196 -0.08048945 0.13192312 -0.2411746
000230 59 38 47 3e 7f 20 7e 3e bd 0f 1b 3d cb cd e3 3d
       0.19455089 0.24817084 0.037856806 0.11123236
000240 24 48 d5 be 0e 1f 8c bd 01 fd 8a 3d 54 e1 7c be
       -0.416566 -0.06841861 0.06786538 -0.24695331
000250 4c f8 11 be 73 e8 5e be 93 af 8a bd e9 1a b5 bc
       -0.14254874 -0.2176836 -0.067717694 -0.022107558
000260 64 30 25 bd 27 39 8e bb c7 a6 cc 3d 98 6f 75 3e
       -0.040329352 -0.004340309 0.09992748 0.23968351
000270 4a 22 ed 3d d1 fd f5 bd 52 a3 45 3c 4d 08 8b 3e
       0.11578806 -0.12011302 0.012062864 0.2715477
000280 1b b6 07 be 88 e5 ab be 1b e1 f7 bd bf b3 c3 be
       -0.13253061 -0.33573556 -0.12103482 -0.38223073
000290 58 b4 14 3c 44 3b c0 be c8 0a d1 3d 40 fc 9e be
       0.0090762 -0.37545216 0.102071345 -0.31051826
0002a0 76 4b a2 bd cb fe 2e 3c a4 1d 56 3b 7a ad 15 be
       -0.07924549 0.010680865 0.0032671476 -0.14616957
0002b0 86 dd 59 3e 0f 51 29 3d 6a 80 30 bd c0 f6 8d 3e
       0.2127591 0.04133707 -0.043091215 0.27727318
0002c0 99 c5 28 be be 65 9f 3d f8 95 a8 3e fd d9 8b 3c
       -0.16481628 0.07783078 0.32926917 0.017071718
0002d0 c9 45 bd 3e 03 25 74 be dc 5b ad bd a4 c5 04 3e
       0.36967304 -0.23842244 -0.084647864 0.12966019
0002e0 58 d9 b9 bd 19 5d a3 3b 93 78 a6 3c f4 06 d3 bd
       -0.09074658 0.0049854633 0.020321166 -0.103040606
0002f0 28 5d 9e bb 5f cf 7e 3b 10 23 63 3d fc bb 54 bd
       -0.0048328824 0.0038880927 0.05545336 -0.05193709
000300 89 ab c8 3d 9d 60 4a 3d 80 ac 7c be c8 c5 16 be
       0.09798343 0.049408544 -0.24675179 -0.14723885
000310 58 e6 f4 3d 74 ce 40 3d 1b 7c 61 be 89 33 c4 3b
       0.11957997 0.04707189 -0.22019999 0.005987589
000320 b6 dc dd bd 27 4b 87 bd 3d d0 12 bd 18 1d 0c bd
       -0.10833113 -0.06606131 -0.035843123 -0.034207433
000330 8f ba 88 3e af 95 f9 3d 22 fd 2b bd d8 cc e2 3d
       0.26704833 0.12186753 -0.041989453 0.11074227
000340 91 00 86 be 2c b7 b6 3d b0 ca dd bd ff b5 32 3d
       -0.26172307 0.08921656 -0.10829675 0.043630596
000350 5b 8c 1f 3d 93 29 a5 3c a9 e4 b0 3d 67 07 8b 3d
       0.038952213 0.020161426 0.086373635 0.06788521
000360 08 86 4b be 37 3b f8 3d 5b 4d c1 bd ed c3 c3 3d
       -0.19875348 0.12120669 -0.094385825 0.09558854
000370 ce 56 ef bc e9 8c 6b bb bf 44 61 3d ff 51 ab 3c
       -0.029216196 -0.0035942143 0.054997202 0.020913122
000380 ca 6b a1 bb 8c 1a 83 be 0e 1d 1f be 08 4c a8 bc
       -0.0049261795 -0.2560619 -0.15538427 -0.020544067
000390 6a 08 ee bd 28 17 9e be cf b1 5c 3e e5 33 1c be
       -0.116226986 -0.30877042 0.21552204 -0.15254171
0003a0 34 b0 52 bd eb cf 4b bd 72 68 e1 bd 25 29 7f be
       -0.05143757 -0.049758833 -0.110062495 -0.24918039
0003b0 62 1d 80 ba eb 6b b3 3e 13 34 b2 3d 6b 2d 79 3e
       -0.0009774382 0.35043272 0.087013386 0.24333732
0003c0 44 b6 2f be ba 5b 31 3e 48 06 01 be 89 b4 3c bd
       -0.17159373 0.17320147 -0.12600052 -0.04607061
0003d0 ed 88 bf 3e 54 8d ca bd 71 79 71 3e d1 de ea 3e
       0.37409154 -0.098902375 0.23581482 0.4587312
0003e0 4e 4a 62 bd b0 84 87 bb 2a ef 43 3d cd 54 be bd
       -0.055246644 -0.0041356906 0.047835506 -0.09293518
0003f0 ef 6e 7a be dc f5 de 3d f8 84 31 bc ce 8e b8 3c
       -0.2445638 0.10886738 -0.010834925 0.022529032

9.bias f4 [12]
000000 6b 96 82 3d 2e c2 e4 3d a1 49 36 be be 6d 90 ba
       0.06376346 0.11169849 -0.17801525 -0.0011019034
000010 ee 5a cf bd be ea d6 bc f2 77 05 3e 62 b8 07 bd
       -0.10124765 -0.02623498 0.13034037 -0.033134826
000020 3a 64 e6 3c 83 b2 79 bd 56 04 45 bd 8d 72 85 bd
       0.028123964 -0.060961258 -0.04809984 -0.065159895
