JetsonTests/Model2.params (torch, 64709 bytes, 8 tensors)

fc1.weight f4 [64, 42]
00000000: 212e 643e d498 f33d 989e 903e 6be0 3f3e
00000010: 9e03 e23d 3764 e83e 1ec1 d8bd 9962 f83e
00000020: 698f 8abe 66f6 ab3d 8a72 9fbe 2f77 703e
00000030: 7ec1 ac3d 7808 57be 5601 d9be 5e40 06be
00000040: 029f 19be 5361 623e 6174 81be f01d 8c3e
00000050: 6b72 983d d6cf d33b f381 d8be b549 a03e
00000060: 9b22 793e 5f5c 713e 1e4d 80bd e45b 993a
00000070: 9d10 913e f0a8 0e3e 950f 0c3e 8a6d 4ebd
00000080: 2642 c83d 55c3 213e 7ce9 a63d 2d6b 203d
00000090: 2345 293e 389f 713e 8bc0 a5be 6d0f f6be
000000a0: b7bb c0be 242b 39bf afae 05bf 03c8 153d
000000b0: 467f 6abe 9729 1a3d 5c49 9d3e 01fe 2cbe
000000c0: d51b 0bbd 0205 08bf 0a1a 7ebe 7b7c 33be
000000d0: 25cf d03e 7fb6 293f 25aa 0d3f bbe4 443d
000000e0: 9853 6c3f 0b9b 753c 086e 9b3f 042f 50be
000000f0: 4904 823e 0e29 e93d ded7 e73e 0a18 843d
00000100: 9412 9fbd f2cb 21be e3c4 cebe 9d22 c0be
00000110: e4dd 2cbd d61d 4abe b3cf 473d cc30 bdbe
00000120: 57dd 80be be65 3abe 217f 71be 4ec3 eb3a
00000130: 151c e2bc 3e93 9bbd 2a67 473e 1750 8fbe
00000140: 8b5b 953e 8137 71bd 2914 b03e b25d 3c3c
00000150: c426 47be ec09 8bbe 0e42 9bbd 368c 1abe
00000160: f9db 613e db99 9e3d 53fd d9bd 0961 69bd
00000170: 2c67 9abe a423 61be b4e9 733d 3b33 723e
00000180: e41e d13e b205 fa3d 88b7 793e 1424 5ebe
00000190: 0ae0 293e 2d1c dabe 0215 9c3e eda3 603e
000001a0: 7d21 8c3e fda2 1b3d 7432 c43d 2192 673e
000001b0: bef2 63bd b528 fd3e 9a73 afbc 5053 483d
000001c0: fedb e6bd b65a 3b3e 5ecc 5b3e 8855 083f
000001d0: c7bc 283e 9e1d 013f 73fb 8bbe 4d4a 82be
000001e0: 5134 093e 4c20 513e 4ad5 303d 6f6e a53e
000001f0: 426e 013e 8a14 843e 088d 64be 60ce d9bc
00000200: c29c 20bd 88aa ca3d 3105 973e 98a8 053d
00000210: 6f9e 6a3e 376e 71be b808 fbbe 444b 97be
00000220: a572 94bd 789d 08bc 1e58 8a3e 0b36 093d
00000230: 73bf 8c3e 766e 363e a792 0a3e 8144 ce3d
00000240: ab95 d7be 78f3 223e 9c00 fe3e ed45 73bc
00000250: afc0 f53e 69a1 d33a 5313 3d3f 1d54 6a3e
00000260: c840 0bbe 2304 71be 02ce 903e 8fc3 df3c
00000270: 2e3d 7b3e ebe5 7c3e 094a f73e 92a6 343e
00000280: 9c9f adbe d182 58be 9dd2 94bc 2b00 efbd
00000290: 2764 7dbd 22b3 09bf 4501 c73d 6dbd 6abf
000002a0: 6134 39be d277 3a3d 7337 063d 9d77 a93e
000002b0: 4087 463c 03a1 6e3e 1995 37be 0884 53be
000002c0: 1c9b 1bbf 811b d7bd 9c46 9c3e 7f95 6dbc
000002d0: 3b01 493e 89a9 81be 94a6 99be c018 3c3e
000002e0: f0e1 b1be 7054 fb3b 1f06 073f 3d03 78bd
000002f0: b8ea a13c ac93 0c3d d80a 5fbe 4fd5 2a3f
00000300: 5b52 1e3e 9877 883e 3cf0 213e f597 593b
00000310: 13ee 2b3d 402d a93c cbfe 56bd 9653 953e
00000320: 2771 5a3c 1eea 4c3d 4f67 503e 8bdd 3fbe
00000330: 8b67 ef3d ee48 f8bd 116c 7fbe 0acb ae3c
00000340: c640 d0be 2fe9 54be 6853 713e 05c3 bdbd
00000350: 40b0 323e f1e5 9abe 2be6 89be efda a3be
00000360: 4f34 47be 1e74 13be 32d9 cdbd 6026 cabd
00000370: 4228 01be 75ae 82be 5ae3 313d 0ad8 16bd
00000380: 84fa 0e3e 5c9f 00be 3f34 e83d 94fb 6fbe
00000390: 3893 56bd 9d6d 9fbe 3adc cfbd 1196 143d
000003a0: a160 eb3c e26b 793d ea93 c73d 0738 483f
000003b0: 8797 da3d 4f88 47be f2ac 12bd 1c54 e73c
000003c0: 2bb0 1a3e c671 fb3e 4205 c83e a6b5 903f
000003d0: 2e4b 54bd 5353 ac3c b426 a5bd 5ba7 7d3a
000003e0: c970 b3bd 2012 103e 6b0d e2bb e5c0 353f
000003f0: f68d fabe f4f7 52be 9887 a3bd 9447 fcbd
0.22283222 0.11894384 0.28245997 0.18737952 0.11035846 0.45388958 -0.10583709 0.48512724
-0.27062538 0.08396606 -0.31142074 0.23482965 0.08435343 -0.20999324 -0.42383832 -0.13110492
-0.15002063 0.22107439 -0.25284103 0.2736659 0.074436985 0.006463985 -0.42286643 0.31306234
0.24329607 0.23570393 -0.06264709 0.0011700359 0.28332987 0.13931632 0.13677819 -0.050397433
0.09778242 0.1579717 0.08150002 0.03916471 0.1653028 0.23595893 -0.3237346 -0.48058644
-0.37643215 -0.7233145 -0.5221967 0.0365677 -0.22900113 0.03763732 0.3072003 -0.1689377
-0.03396209 -0.5313264 -0.2481462 -0.17527954 0.4078304 0.6629409 0.55337745 0.048069697
0.92315054 0.014990578 1.2142954 -0.20330435 0.25393894 0.11384784 0.4528188 0.064498976
-0.07767215 -0.15800455 -0.40384588 -0.37526408 -0.0422038 -0.19737944 0.04878206 -0.36951292
-0.2516887 -0.18202874 -0.23583652 0.0017987282 -0.027601281 -0.075964436 0.19472948 -0.2799079
0.29171404 -0.058890823 0.3439038 0.011496948 -0.19448382 -0.27156007 -0.07580958 -0.15092549
0.22056569 0.07744189 -0.10644021 -0.056977306 -0.3015684 -0.21986252 0.05954905 0.23652355
0.4084388 0.122081175 0.24386418 -0.2169345 0.1658937 -0.4259962 0.30484778 0.21937533
0.273693 0.037997235 0.09579936 0.22614338 -0.05565142 0.4944512 -0.021417428 0.048907578
-0.11272429 0.18296322 0.21464679 0.5325551 0.16478263 0.5043582 -0.27340278 -0.25447312
0.13398863 0.20422477 0.04317216 0.32310817 0.12639716 0.2579692 -0.22319424 -0.026587665
-0.039211996 0.098958075 0.29496148 0.032631487 0.22912 -0.235772 -0.4903009 -0.2954961
-0.07248429 -0.008338325 0.27020353 0.033498805 0.27489814 0.17815575 0.13532506 0.1007166
-0.42106375 0.15913188 0.4960984 -0.014848215 0.47998568 0.0016146126 0.7385761 0.22883649
-0.13598931 -0.23536734 0.2828217 0.02731493 0.24535057 0.24697082 0.48298672 0.17641667
-0.33910835 -0.21143652 -0.018166834 -0.11669954 -0.06186309 -0.5378896 0.09717039 -0.9169529
-0.18086387 0.045524426 0.032767724 0.3309907 0.012117207 0.23303609 -0.1792797 -0.20655835
-0.60783553 -0.10503293 0.3052262 -0.014500975 0.19629376 -0.25324658 -0.30009902 0.18368816
-0.3474269 0.007669978 0.52743715 -0.060549963 0.019765243 0.03432052 -0.2178148 0.66731733
0.15461104 0.26653743 0.15814298 0.0033202146 0.041975092 0.02065146 -0.052489083 0.29165334
0.013332642 0.05002796 0.20351909 -0.18736856 0.11689671 -0.12123285 -0.24943568 0.021337051
-0.40674418 -0.20792077 0.23566973 -0.09265713 0.17450047 -0.30253556 -0.26933417 -0.3200297
-0.19453548 -0.14399764 -0.10051192 -0.09870601 -0.12613013 -0.25523725 0.04342971 -0.036827125
0.13962752 -0.12560791 0.1133809 -0.23435813 -0.052386492 -0.31138316 -0.10149427 0.036275927
0.0287326 0.0608939 0.09745009 0.7821049 0.10673433 -0.19485591 -0.035809465 0.028238349
0.15106265 0.4911024 0.3906651 1.1305435 -0.05182951 0.021035826 -0.08064023 0.0009676122
-0.087617464 0.14069414 -0.006898572 0.7099746 -0.48936433 -0.20602399 -0.07984847 -0.1231834

fc1.bias f4 [64]
00000000: 5236 cd3d 1237 11be f449 f6bd b485 3ebe
00000010: 8899 563d e273 44bd aab8 863c fa80 9ebc
00000020: 0170 0c3d 6e91 783d bc36 4cbd c262 7f3d
00000030: d469 e0bc 8c50 163e fdb7 fabc 46f3 a93d
00000040: 33cc 37bd 2001 82bd 0351 b23d 4f3e dabd
00000050: 5224 80bd 80e7 013a 1724 41bd 733b fa3d
00000060: 29de 0f3d faf0 5a3d cd39 0a3e 28d5 44be
00000070: d48e 553d 1e34 ae3c 0fea 823d ae21 363d
00000080: 5d5e 283e 673e 263e 7cef 063e 8559 153e
00000090: af40 dabd 28bc a1bc 3639 043e 2a13 873d
000000a0: 06b3 723c c2ef 973d 47ed c03d 9232 95be
000000b0: 9a9c c8bc 194a ad3b bd11 e1bd 370a fc3d
000000c0: baf2 a23c c9ac 03bd 2635 bf3c 3f67 053c
000000d0: 1a3d 77bd 853e ccbd 6a06 273d d325 68bc
000000e0: ba07 c9bd 807c 42bd 1b36 f2bd aa0c a23d
000000f0: 04a7 3a3c ed0a 5f3e 4547 babd e832 933d
0.100201264 -0.14181164 -0.12025824 -0.18605691 0.052392513 -0.047962077 0.016445477 -0.01934861
0.034286503 0.060685568 -0.049856886 0.062350042 -0.027394213 0.14679164 -0.03060531 0.08298354
-0.044872474 -0.06347871 0.08706858 -0.10656416 -0.062569275 0.00049554557 -0.04715356 0.1221837
0.035123978 0.05345247 0.13498612 -0.19221938 0.052138165 0.021265086 0.063922994 0.044465713
0.16442247 0.16234742 0.13177294 0.1458493 -0.10656869 -0.01974304 0.12912449 0.06595452
0.01481319 0.07418777 0.09420257 -0.29140145 -0.024488736 0.005288374 -0.109897114 0.12306636
0.019891132 -0.032147203 0.023340773 0.008142292 -0.060361005 -0.09972862 0.0407776 -0.014169174
-0.09815927 -0.047482014 -0.11826726 0.07912572 0.011392359 0.21781512 -0.09095625 0.07187444

fc2.weight f4 [128, 64]
00000000: 8b7d e43e 1323 23bf c1cb 70bb 1f32 003d
00000010: cfc1 a13e bcae ff3d c795 b6be faba 903e
00000020: de03 c33e a932 cabe 9d2a 453e 8c0e a43e
00000030: 94db a0be 6232 a23e 150b aa3e 8404 20be
00000040: 0e75 003f ecb6 87be d029 ed3e 3dae 9e3d
00000050: adc0 47bd affb 26be 5ad3 fd3d 27d5 943e
00000060: aa2b b6be 04ec 09be c47d 2bbe 7fc2 483d
00000070: 6c74 abbc f322 8f3e 2590 31be 502c d43e
00000080: e182 aa3e e0be 35be b0a6 a0be 33d4 b2be
00000090: 6cd6 ac3d 6081 f03e 927d f23d 3e13 28be
000000a0: eb1b 083f 2565 793e db47 8fbd e07e d23e
000000b0: 1c43 73be 254e 81be 8f3c dbbe a7f7 2b3e
000000c0: 9444 e5bd 4113 f33e 75f7 c0bd 94ff c33c
000000d0: e4dc a93c d081 91be 04bb c1be c1e7 35be
000000e0: bd7c 1cbe 2a5b eabe 929b ffbd d45c 023f
000000f0: 8c54 83bc 082e 28bd 747a 27be f75c e63e
00000100: 5d5a c8be d2ef 2bbe 21d5 223f fe6f 973c
00000110: 107e 823e 19d7 4d3f 8626 b23e a2a1 033f
00000120: 8286 ffbd 809c 963e c3c4 f8be 0a88 40be
00000130: 4643 b0be a7b7 0b3f bb04 16be 7dc9 ee3e
00000140: 0309 2abe 06af 223e d512 47bd d7d0 ea3e
00000150: 65c7 8d3e da82 0bbe ad33 3b3d 71e4 9dbd
00000160: f7a1 e5bd e396 183e 2833 c43e d635 90be
00000170: 9758 97bc e06f efbe 6300 483e f567 133b
00000180: 7b47 f43d 760f 713d c425 d0be fa00 d23e
00000190: bee7 15bd 69b6 0dbd 8541 b83e 3c1e 7fbe
000001a0: c5e2 ba3d 5f9e 5a3e a354 f73e 89de 69be
000001b0: 80b6 94bc 1da0 843d 0366 453e 182c 973e
000001c0: 1dbe 693e af1e 963d 4208 1fbd c415 a7be
000001d0: baf8 233e 921e 9a3e 5202 df3e 1cbd a5be
000001e0: 538d 683d 0c0b a6bb 5896 14be ebe0 43be
000001f0: 03a2 903d be0b dabe 7a82 86be 5a10 4d3f
00000200: 1511 173f 1fa4 863d d307 71be 50bc 8f3e
00000210: 105e df3e 6e42 6ebe 6137 a7bc 115e 903d
00000220: b3a5 94be 5032 13bf 29a7 993d ffcb 153e
00000230: 1d70 02be 54c1 6abe ac2b 5f3e 9582 c9be
00000240: 78e1 ca3d 4805 cebe 43f1 b23e 6506 9f3d
00000250: 0402 81bd 05fe bbbe fec1 48bc f1b9 753e
00000260: c37d 4ebd 774a be3e db58 383e 7a67 a7bc
00000270: 2043 92be 25c7 1d3d 1604 553e e350 903e
00000280: 0774 b4bd fcf0 62be db8a ed3e 72a1 9ebd
00000290: 2e56 613f f7e9 163e 38a7 75bf 76d2 f63e
000002a0: 682b 143f c4d4 6abe ada3 e2be 954c 0e3e
000002b0: 1f7a d03d c860 1b3f 772d 2abf 0c56 abbe
000002c0: b05e 683e bf22 f73d 247b 12be c09a 013c
000002d0: 876b 4d3d 18a9 6e3e db25 63bd 797d 4e3e
000002e0: 42c1 003e 3989 49be c063 5cbe 49cf 80be
000002f0: 1ae3 42be e82a 863f 7a29 393e a5a4 0d3e
00000300: fe65 5fba 4698 ba3c 9535 893e 8d74 213e
00000310: 4a93 083e 11aa 5a3d e222 ef3d 9e49 04bd
00000320: 41fd 13be 7242 9abe 89b9 ce3d 8f67 0abd
00000330: b14c 4cbe 6eea 55be 3ec9 f2bd c0fe dc3c
00000340: b7be 153d 3629 febd 4321 80be ed5a 073f
00000350: 0351 563e 1245 2d3e f951 5f3e 7f44 933d
00000360: 16de 80bc 626e 7e3c 097d 0d3e 8f42 24be
00000370: 1b87 a33d d72a 633c cbed 7abf 012d bfbe
00000380: 5db9 233e 3246 e43d 2dc2 12bf cb89 cfbd
00000390: 6e88 65be 539a 073f e86d e33e d08b aa3e
000003a0: bc29 3a3e 5312 003f 4f59 593e 5ba6 c33d
000003b0: f666 e0bd 49c2 373b e455 973e 7e3f 1d3e
000003c0: bd5d 01bd f5ba a03d 6b5d f1bb c548 b43e
000003d0: ee1f 653c 3886 22bf 6b0b 51be b86b 423c
000003e0: 4614 29be 7998 e8be cc1e 4bbe 56df 05bf
000003f0: 9636 01bf 54c3 f4be 6c27 9abf b834 cb3d
0.44627032 -0.63725394 -0.003674254 0.0312978 0.31593177 0.124845 -0.35661146 0.28267652
0.38088888 -0.39491776 0.19254537 0.32042348 -0.31417525 0.31679064 0.3321158 -0.15626723
0.5017861 -0.26506746 0.46320963 0.07748077 -0.048767734 -0.16306947 0.12393828 0.29068872
-0.35580188 -0.13468939 -0.16747195 0.04901361 -0.020929538 0.27956352 -0.17340143 0.41440058
0.33302978 -0.17748594 -0.31377172 -0.3492752 0.08439335 0.46973705 0.11840357 -0.1641359
0.531676 0.2435499 -0.06996127 0.41112423 -0.23756069 -0.25254932 -0.4281964 0.1679369
-0.11194721 0.47475627 -0.09422199 0.02392558 0.020735212 -0.28419352 -0.37837994 -0.17764188
-0.15281959 -0.45772678 -0.124808446 0.50922894 -0.016031526 -0.041059524 -0.16355306 0.44992802
-0.39131442 -0.16790703 0.6360646 0.01848602 0.25486803 0.8040634 0.34795016 0.5141851
-0.12476827 0.29416275 -0.48587617 -0.18801895 -0.34426326 0.54577106 -0.14650242 0.46638098
-0.16605 0.15887079 -0.048601944 0.45862457 0.27691188 -0.13624135 0.04570358 -0.07709587
-0.11212533 0.14901309 0.3832028 -0.28166074 -0.01847486 -0.4676504 0.19531398 0.0022492383
0.11927696 0.058852635 -0.40653813 0.4101637 -0.03659796 -0.034597788 0.35987487 -0.24913877
0.09125284 0.21349476 0.4830676 -0.22838797 -0.018153429 0.06475852 0.19277196 0.29525828
0.22826429 0.07330071 -0.038826235 -0.32633793 0.1601285 0.30101448 0.43556458 -0.32370842
0.056775402 -0.005067235 -0.14510477 -0.19128768 0.07062151 -0.42587084 -0.2627142 0.80103076
0.5901044 0.06574272 -0.23538141 0.2807336 0.43626451 -0.23267528 -0.020412149 0.07049192
-0.29032668 -0.57498646 0.075025864 0.146286 -0.1273808 -0.22925311 0.21794003 -0.3935744
0.09906286 -0.40238404 0.34949693 0.077648915 -0.062992126 -0.3671724 -0.012253283 0.23996712
-0.050412904 0.37166187 0.18002646 -0.020435084 -0.28566837 0.038519997 0.2080234 0.28186712
-0.08811193 -0.2216224 0.46395 -0.07745637 0.88022125 0.14737688 -0.9595828 0.48207444
0.5787873 -0.22932726 -0.442655 0.13896401 0.10179543 0.6069455 -0.66475624 -0.33464086
0.2269237 0.12067174 -0.14304787 0.00791043 0.050151374 0.23306692 -0.055456024 0.20165052
0.12573722 -0.19681253 -0.21522427 -0.25158146 -0.19031945 1.0481844 0.18082228 0.13832338
-0.0008521973 0.022777688 0.26798692 0.15767117 0.13337436 0.053384844 0.11676575 -0.03229677
-0.14452077 -0.3012882 0.10093982 -0.033790167 -0.1995113 -0.20890209 -0.1185479 0.026976943
0.036558833 -0.12410204 -0.25025377 0.52873117 0.20929341 0.1692088 0.21808614 0.07190799
-0.015730899 0.015529247 0.13817228 -0.16041015 0.07984754 0.013865194 -0.98019093 -0.37339023
0.15988679 0.11146201 -0.5732754 -0.10133704 -0.22415325 0.52969855 0.4441979 0.33309793
0.18179983 0.5002796 0.21225475 0.09553214 -0.10957138 0.0028039387 0.29557717 0.15356252
-0.031583536 0.07848159 -0.0073658726 0.3521177 0.013984663 -0.6348605 -0.20414512 0.011866502
-0.1651164 -0.45428827 -0.19835967 -0.5229391 -0.50473917 -0.47805274 -1.2043281 0.09922165

fc2.bias f4 [128]
00000000: 6aa4 f2bd df9a 8ebd 80e1 1d3d 760b 88be
00000010: 74d1 8dbd e6c8 4b3c 6e8c 94be 35fc 533d
00000020: 57d8 bebd 4f73 493e 1f5c 88bd 7db5 4fbe
00000030: c413 183d c155 85bd 89b0 f2bc f38c 433e
00000040: 60ad 01be b1bf 703e ef25 0b3d c465 773e
00000050: 696b be3d 14fe 003e 8b43 cabd 1a4c 6e3d
00000060: bc66 3ebe 7204 a2be 42f5 7d3d dece a3be
00000070: 38d1 57be 91f9 9dbd eb8f f13c 7892 33bd
00000080: 1d26 903d 6e63 6bbd 88c6 5b3d b27f 1bbe
00000090: 675a 72bd d1ec c2bd 0f3f ec3d 114f 37bd
000000a0: ad37 993c 5d11 6dbe 2a73 a9be b3ab 373d
000000b0: fd03 3e3d 7160 363e 8230 89bd 87bf 1cbe
000000c0: 0e6d 7dbd 7479 04be 0c42 f5be 1b15 083b
000000d0: 3ca9 98bd 75e3 873e 85df 473d a25b 4eba
000000e0: 3630 713e ffd4 42bc 0a36 ab3e 2e85 de3d
000000f0: 4d86 19be dd7e 6ebd 5507 ea3d 1b54 67be
00000100: 613a c13c e119 b83d 6c5d 403d 6654 693e
00000110: 317a 813a b766 52be 386a 463e 0114 8f3d
00000120: ced3 aebd 1a22 a93e 3cef 103e 7e3e 21be
00000130: 59b4 a33e 7daf 3bbd fcfc f9bd 1107 933e
00000140: a34a 563e 788d 07be 25c8 da3c d496 843e
00000150: ac78 35be 1922 a2be d77f a53d f391 07bf
00000160: 8e88 e63d c1b0 393e 40f1 d3bd e97d 8b3d
00000170: 6b7f a23d 6e45 c4bd 26dc a83d 39d8 dfbd
00000180: 45f9 61be 9fdf 463d 3ead 49bd 93d1 5abe
00000190: 92ca 51be 54e1 153e f251 9b3d 2d82 10bf
000001a0: 860e 7ebd 4247 763e e266 e7bd c452 e5bd
000001b0: a98e ab3d 4817 cb3d aa26 4cbb 9120 4cbc
000001c0: 0ca4 033d 1df2 293e da2e 2fbb c255 c1bd
000001d0: 8d34 183d b773 b3bc ce9f 26be 630b 07bf
000001e0: fe86 a9bd 58b4 2c3e f61c 223e f0a9 60bb
000001f0: 191d 023d aedb 51bd 666d 82bb cd50 6c3e
-0.11847766 -0.06963133 0.03854513 -0.26571244 -0.06924716 0.012438035 -0.2901339 0.051754195
-0.09318607 0.19672893 -0.06658196 -0.20284076 0.037128225 -0.06510497 -0.029625194 0.19096737
-0.12663794 0.23510624 0.033971723 0.24159914 0.092978306 0.12596923 -0.09876164 0.058178045
-0.18593878 -0.31644017 0.062001474 -0.31993765 -0.21075904 -0.07713617 0.02948757 -0.043840855
0.070385195 -0.05746787 0.05365613 -0.1518543 -0.059168246 -0.095178254 0.11535465 -0.044753138
0.018703306 -0.23151155 -0.33095676 0.04484148 0.046390522 0.17810227 -0.06698705 -0.15307437
-0.06187158 -0.12936956 -0.47901952 0.0020764533 -0.07454154 0.26540723 0.04879715 -0.0007871931
0.23553547 -0.011891603 0.33439666 0.10865246 -0.14992638 -0.058226455 0.1142718 -0.22590677
0.023587408 0.08989311 0.046964094 0.22786102 0.0009878335 -0.20546995 0.19376457 0.06986237
-0.08536492 0.3303383 0.1415376 -0.15746495 0.31973532 -0.045821656 -0.12206456 0.2871633
0.20926909 -0.1323756 0.026706764 0.25896323 -0.17721814 -0.3166664 0.08081024 -0.52957076
0.112565145 0.18133833 -0.10348749 0.06811125 0.07934459 -0.09583555 0.08245115 -0.10929913
-0.22067745 0.048553105 -0.049237482 -0.21369009 -0.2048743 0.14636737 0.07583989 -0.5644863
-0.06202557 0.2405062 -0.1129892 -0.11197427 0.0837682 0.0991655 -0.0031150975 -0.012458936
0.03213887 0.16596265 -0.0026730807 -0.09440185 0.03715949 -0.021905763 -0.16271898 -0.5275175
-0.08277701 0.1686567 0.1583136 -0.0034280978 0.03176603 -0.051234894 -0.0039803265 0.23077698

fc3.weight f4 [32, 128]
00000000: d8a5 c0be 2bba f3be 7aff 0ebc 4a77 513c
00000010: 44e7 9fbe 841c 9c3d 5ff7 f9be d867 883e
00000020: b374 133e 40d3 2fbe c5d8 9e3e e572 8d3e
00000030: 6a96 d13e b89f bc3c 7e5d 9ebe 30be bd3e
00000040: c660 ba3d 261d ca3e 1ed8 a2bd 3305 f33d
00000050: 5771 a03e 5923 0b3e b1e1 fbbe 12bf 003c
00000060: c6be c5be 5b12 58bc 9894 71be 9b9f 18be
00000070: 06d2 153e 967c 1a3e c0e3 8e3e 6191 323d
00000080: 7582 27be 1edd edbd 2f25 d23d 9001 edbd
00000090: 4f6c 4ebd 4dde 2b3e c0d5 51bd b014 033e
000000a0: ecfc f7be 0747 3b3c f072 a53e 5619 103f
000000b0: d3e9 2a3d 6b78 9bbc 682d 743d 55ed 543e
000000c0: a42f d63d ffc2 20be d5a0 aa3e 861d b7bc
000000d0: f10e a73e 2610 213f 88db f4bd ebdf b2be
000000e0: 0f6a ac3e ee1c 5e3e 937a b33e 36f8 4abd
000000f0: e0e7 d6be 6b00 453e 3595 abbe 4276 a43d
00000100: 2dcf 16be 6e6a eabd e997 a3be 43cb 763b
00000110: 6b99 91be a7a3 953e 619b a63e 3dc9 8bbd
00000120: 153c 86bd 2b2c d4bd 8cf9 c7be bd42 553e
00000130: cfd0 cebe 8cce d4bd 04b0 3fbe 18ce f6bd
00000140: dffd ab3d cf01 8bbe 7424 c7bc d40f 9dbe
00000150: 9a0a 02bf 406a d23d 0e77 863b 4e68 1d3e
00000160: 7631 5b3e c967 bbbe e98c babe e5c2 4bbe
00000170: 609c 663e 4ef2 96be 6a77 8fbe 62cd 763e
00000180: 9f44 0cbc 5227 9e3e 3f31 b4be abc9 eebe
00000190: 497b 813d 3d84 49be d7af 153d cf7a 483e
000001a0: 4e85 3c3e a01c 5abe 822b bb3e 6dac b2be
000001b0: a4b5 d73c c3ac 90be ea7c fe3e 9819 173f
000001c0: fbd1 9fbe 01e7 7c3e a93a 81be 4d34 083d
000001d0: f68f b0bd 3c71 17bf 57a8 f6be 0948 183f
000001e0: 2dd5 f4bd 7fdc 15be af37 ef3e fe3e b93d
000001f0: 1aa0 7c3c f6ed 62bd 758e 9f3e 18bf d8be
00000200: c074 08bf f6d3 9f3e d11a b13e c07a d6be
00000210: 790a a9be 6dd7 4dbe 1139 613e eb50 bdbd
00000220: 344d c0bd 4ad8 8abd ac25 713e 118b 2dbc
00000230: 1306 a43e 40b4 313d 94bd 0e3e e60d cd3c
00000240: e34b bc3e a8a4 f03e 26d5 57be c764 aa3d
00000250: d8c5 f7be d438 edbe 3302 79be 6fa7 873e
00000260: 4597 8b39 79a3 003d 39af 663d 027b 20bd
00000270: c2f3 27be d906 5fbe bc5b b3be 0908 ee3e
00000280: db22 0bbe 3f27 823e 37cb b1bd e807 b1be
00000290: e689 03be 89b1 62be 0e20 df3e 2305 c9be
000002a0: cb51 bc3e c7e5 94be 3225 78be 60f9 8fbe
000002b0: 9cdc 0f3f f8f0 093d 6a53 5abe d0d1 9dbe
000002c0: 7b27 60be 6b2e e4bd 0dd4 343d 5268 06bf
000002d0: 6a75 743d 2d33 b73d 758a fcbd f9dc 88be
000002e0: d600 5a3c bf9d cebd f442 c93d 15cc 17be
000002f0: 2c6f 24bf 555f d03e fb40 80be 95b1 e83d
00000300: 5a4b c1bc 4ecf babd ca64 0abe f69c e3be
00000310: ace5 ccbe 3453 25be 12f3 0e3d 4e87 d0be
00000320: cc9e a3be 1fda f63d 9743 2ebe 63b3 9abd
00000330: 1d8a 963e bd38 163f 31d7 a8be 74c0 523e
00000340: 5525 c03d bff7 1abd f2eb 2c3e fe42 b1bd
00000350: 4bc8 71be e2f7 8abe a0a6 c3bd a6ec a43d
00000360: e853 a4bd 52bb 883e 01d6 95bd a3fe 18be
00000370: 36d0 b13d e2c7 1cbf 2b5f 803e b552 69bd
00000380: 7d6a 0c3e 060c ecbc cbe7 d23b 0f8a a63e
00000390: cb42 743e 0af4 e8be 6d93 4fbd 4792 753d
000003a0: ea19 62be 6189 8f3d 08e4 88be ef04 173e
000003b0: 912d 83bd 58b4 04bf 812e 1ebd 4a7f 8abe
000003c0: 586c 9f3d 3453 21be 30a7 67bd 968f f5be
000003d0: 7617 7ebe c0bf 1abe 5b1f 893e aeb9 ac3a
000003e0: 4dc4 793e 9bf3 fe3e a9d1 053f f913 7ebe
000003f0: 4951 ef3c d247 9abe bf8c 613d 57f9 b7be
-0.3762653 -0.47602972 -0.008727903 0.012784788 -0.3123113 0.076226264 -0.48821542 0.26641726
0.14399986 -0.17170429 0.31024757 0.2762672 0.4093507 0.023025379 -0.30930704 0.37059164
0.09100489 0.39475363 -0.07951377 0.11866226 0.3133647 0.13587703 -0.49195626 0.007858055
-0.3862211 -0.01318797 -0.2359184 -0.14904635 0.14630899 0.15086588 0.27908134 0.043595675
-0.16358359 -0.116144404 0.102609985 -0.11572564 -0.05039626 0.1678402 -0.05122924 0.1280086
-0.48435152 0.011430508 0.32314253 0.5628866 0.0417269 -0.018978318 0.059613615 0.2079366
0.104583055 -0.15699385 0.3332583 -0.022352945 0.32628587 0.62915266 -0.11955935 -0.3493646
0.33674666 0.21690723 0.35054454 -0.04955312 -0.41973782 0.1923844 -0.33512273 0.080303684
-0.14727469 -0.11446081 -0.31951836 0.0037657775 -0.2843736 0.2922642 0.3254042 -0.068254925
-0.065544285 -0.10359987 -0.39057577 0.2082624 -0.40393683 -0.10390958 -0.18719488 -0.12051028
0.083980314 -0.27149817 -0.024309374 -0.30676138 -0.50797427 0.10274172 0.004103548 0.1537182
0.21405587 -0.3660262 -0.3643563 -0.19898565 0.2252059 -0.2948174 -0.28020793 0.24101785
-0.008561282 0.30889374 -0.35193822 -0.46638235 0.06322343 -0.19679351 0.036544647 0.19578098
0.18410227 -0.21299982 0.3655663 -0.34897175 0.02633173 -0.28256807 0.49704677 0.5902343
-0.3121489 0.24697496 -0.25240067 0.033253003 -0.08621208 -0.59157157 -0.48175308 0.59484917
-0.119547226 -0.14634894 0.4672217 0.09045218 0.015419031 -0.05540272 0.31163374 -0.42333293
-0.53303146 0.312164 0.34590772 -0.41890526 -0.33015803 -0.2010171 0.21994425 -0.092439495
-0.09389725 -0.06779535 0.23549527 -0.010592238 0.32035884 0.04338479 0.13939506 0.025031041
0.36776647 0.47000623 -0.21077403 0.08320003 -0.4839313 -0.4633242 -0.24317245 0.2649493
0.0002662485 0.0314059 0.05631945 -0.03917981 -0.1640158 -0.21779956 -0.35030925 0.46490505
-0.13587515 0.25420567 -0.08681338 -0.34576344 -0.12845573 -0.22138037 0.43579143 -0.39261732
0.36781153 -0.29081556 -0.24232939 -0.28119946 0.56196 0.03367707 -0.21320882 -0.30824137
-0.2189006 -0.11141666 0.04414754 -0.5250293 0.059682287 0.08945308 -0.12331096 -0.2673109
0.013305863 -0.100886814 0.098272234 -0.14823945 -0.64232135 0.40697733 -0.25049576 0.11361996
-0.0235955 -0.091215715 -0.1351501 -0.4445569 -0.40018976 -0.1614502 0.03489978 -0.4072823
-0.3195709 0.12053322 -0.17017971 -0.075537466 0.29402247 0.58680326 -0.32976678 0.20581228
0.093821205 -0.037833925 0.16886881 -0.08655356 -0.23611562 -0.27142245 -0.095532656 0.080529496
-0.08023816 0.26705414 -0.07316209 -0.14940886 0.08682291 -0.61242497 0.25072607 -0.05696364
0.13712497 -0.028814327 0.0064363233 0.32527205 0.23853604 -0.45498687 -0.050677706 0.059953954
-0.22080198 0.07008625 -0.26736474 0.14747976 -0.064051755 -0.5183768 -0.03861857 -0.2705024
0.07784337 -0.15754396 -0.056555927 -0.4796111 -0.24813637 -0.1511221 0.26781735 0.0013177895
0.24391289 0.4979523 0.5227304 -0.24812306 0.029213564 -0.3013292 0.055065867 -0.3593242

fc3.bias f4 [32]
00000000: bd1b 15be b1a4 433e 3e3c 94be 5ae8 29bc
00000010: f26f 6e3e f262 c2bd 7544 563e 6b7d 1abe
00000020: 9a2b 013e c1bb 1bbe b72b 0c3e f6d0 643e
00000030: 6e75 cd3e e062 823e 2c81 d3be 6023 c43d
00000040: b7ce a6bc 5046 35bd 1a14 a13e 66a4 f0bd
00000050: 4015 19be 71a3 333e 3ce6 8ebd eb9e 823d
00000060: 8524 1cbe f237 153e f363 be3e e098 c3bd
00000070: 0b75 803e 2e8b 543e af72 70be 7af3 153d
-0.14561363 0.19105794 -0.2895221 -0.010370338 0.23284891 -0.094915286 0.20924552 -0.15086906
0.12614289 -0.15208341 0.13688551 0.22345337 0.40128654 0.2546606 -0.41309488 0.0957706
-0.020362241 -0.04425651 0.3146065 -0.117501065 -0.14949512 0.17542817 -0.069775075 0.063779674
-0.15248306 0.14572123 0.3718563 -0.09550643 0.25089297 0.20756218 -0.23481248 0.03660915

out.weight f4 [12, 32]
00000000: 7784 8c3f 7493 73bf d295 983f 42d6 633e
00000010: 49c2 c0bf a45d 123e 783e 363f a8e2 c33e
00000020: fb31 623f 595c 443e f122 a0bf cba1 34bf
00000030: 1ff2 12bf e7cf 04bf 58f6 393f 6d17 63bf
00000040: 10e4 c1bf 4daa 48bf 4ab2 e9bf 5d5b 08bf
00000050: 9ca0 223f c593 aa3f 3ffc 3f3f c292 b63e
00000060: 7b27 203f 46c6 303c bfcf cfbe 98a9 97bd
00000070: 3fe8 be3f 323d b7bf 4992 63bf 71d4 f8be
00000080: 3ec9 d6be ba56 453e 27ab 2dbf f951 08bf
00000090: 7fdb 9d3e 48fe 2abe f344 ef3e 759d 313f
000000a0: c533 1b3f 27ff 20bf e482 ed3f c8c9 453f
000000b0: 03d0 5cbe 9711 b0be 6574 bb3e e3d9 b2be
000000c0: 4901 363e 02c7 2f3e 8213 ba3d b595 61bf
000000d0: bb0c e43e ff97 df3e 692a 1abf 8938 753f
000000e0: 707c 97bf 5a9a 353f a14f ba3e 2402 61bf
000000f0: 9460 45bf 37d4 053f 6945 633e 08db 533e
00000100: 65b2 a33f 67f6 ac3e 02a7 583e 2092 1640
00000110: e474 01be 2b8a 923e 694d f53e 42a7 4a3f
00000120: 93e4 3ebc 6b8f 3440 19d9 fabd b5ae 173f
00000130: 19dc 5fbf db19 a3bf 9a04 d33f bf7b cd3f
00000140: d668 6e3f 42fa acbd 2f19 bf3f 7b3c b13f
00000150: 851e f33f 0032 aa3e e237 143e a01c 17c0
00000160: 09d7 0abe 32b9 b83c e7f2 abbf 9211 a73f
00000170: 07ca 64be cac7 71bb fad5 c33e 707e 9a3f
00000180: 8203 c73f 5a16 853e 7fa7 6cbf 48f9 b23f
00000190: fd04 703f cc06 363f 0050 4a3f 3eef 313f
000001a0: 3a0f 6ebf 9ad8 c6be 6cc2 5e3f f1ea 76bf
000001b0: b837 263f 67f5 9e3f a180 56bf d34b fa3f
000001c0: 7bbf e13e dafe 11bf acd0 d2bf a635 213f
000001d0: beb2 92bf 93f9 8b3f 955d c6bf 8012 bb3e
000001e0: 3091 853f d7de 78bf a59c bb3f abb0 a43f
000001f0: bcbd cabf 456b 0b3f 9f9d d0be 49c3 87bf
00000200: 8e41 edbe 06ec 803f fec6 2b3f 9b26 94be
00000210: 4eee 87bf 0281 823f 2abe 0a3f 77fc 76bf
00000220: 9549 e93e dcb0 0dbf 8034 353f 006e c03e
00000230: 029a a83f 156a 263d 30fd bbbf f6d1 f8be
00000240: f3c5 04c0 4b79 fdbe fb95 70bf 1de9 8e3f
00000250: d32a fabd 7a76 083f e565 523f 6d4b abbf
00000260: ccdd 5ebf cd19 7b3f fd09 77bf 688d efbe
00000270: 4f19 453f ea19 aa3f 2ea1 68bf a1de 8abe
00000280: 3662 08bf 84e1 a6be 5316 4b3f f1c8 43bf
00000290: 10f5 05be 87df 47bf 52f9 b7be fd42 ab3f
000002a0: 125f 0f3f 5c85 193f e61e 103f a1df f7be
000002b0: 7d00 58bd c85c 003c 93ea 9ebe 574b 643f
000002c0: 3e79 523f 2b34 013f c9fd 4c3f 4979 8d3f
000002d0: f106 28be acf7 2cbf fa26 2c3f ffdb 16bf
000002e0: 65b9 fbbe a98e ef3e ce56 043e 85b8 17bf
000002f0: bba7 9b3d 3f43 30bf cc8f 073f 1da3 a2be
00000300: 001b 6dbf 3088 9bbf 468b 51be 2659 bcbe
00000310: 1abd da3e a4c7 823f 2b60 cbbf b427 0ebf
00000320: da22 79bf de05 b43f 6ee7 59be 49be bb3e
00000330: 1632 39bd c14e 61bf 4bd2 473e bb6b 44be
00000340: 6aef ba3e d656 61bf a9fb d63e a6c3 873c
00000350: 7322 933f 7642 52bf 1c7b 0e3f af13 96bd
00000360: ba6a 9d3f a0ca 98bf 6b30 d93e 7986 863d
00000370: 29ac 7abf a328 603f b273 1ebf 5d45 b5bd
00000380: 91e1 bdbf 7a46 ed3f f802 26bd da2b 703f
00000390: 3400 e43c 9ac1 0abf 6559 093f 533e bd3d
000003a0: 1e25 90bf cf43 65bd 1c60 01c0 6318 8fbf
000003b0: 1391 19bf af47 a13e 471f 803f 9a6d 1cbe
000003c0: fd61 99be 2277 223f ebec 473d febb 5ebe
000003d0: 157d 33bf 667e 7ebf 6efa c3bd 03e8 863f
000003e0: e111 94bf e2e1 7e3f 53e7 c7bf 180a fe3f
000003f0: e25f a7bf 1f8b 023f 2828 95bf 9ca2 4ebf
1.0977925 -0.9514687 1.1920722 0.22249702 -1.5059291 0.14293534 0.7118907 0.38258862
0.88357514 0.19175853 -1.2510663 -0.70559376 -0.574007 -0.51879734 0.72641516 -0.8870762
-1.5147724 -0.7838486 -1.8257535 -0.5326441 0.6352632 1.3326346 0.7499427 0.35658842
0.6256024 0.01078946 -0.40588185 -0.07405394 1.4914626 -1.431555 -0.8889509 -0.4859958
-0.4195041 0.19271365 -0.6783928 -0.5325008 0.30831525 -0.16698563 0.46732292 0.69380885
0.6062587 -0.6288933 1.855557 0.7726102 -0.21563725 -0.3438842 0.3661224 -0.3493186
0.17773928 0.17165759 0.09085752 -0.8811906 0.44540963 0.4367065 -0.6022096 0.9578939
-1.183485 0.70938647 0.36388877 -0.8789389 -0.7710049 0.5227694 0.22194447 0.20689023
1.2788817 0.3378174 0.21157458 2.3526688 -0.12642246 0.2862104 0.47910622 0.79161465
-0.011651176 2.8212535 -0.12248439 0.59250957 -0.8744522 -1.2742265 1.6485779 1.6053389
0.93128717 -0.084461704 1.492956 1.3846582 1.8993689 0.33241272 0.14474443 -2.3611221
-0.13558592 0.022549246 -1.3433503 1.3052237 -0.22342692 -0.0036892765 0.3824919 1.2069836
1.5547945 0.25993615 -0.9244308 1.3982325 0.9375761 0.7110412 0.7902832 0.6950568
-0.92991984 -0.3883713 0.87015414 -0.9645224 0.6492877 1.2418641 -0.8379002 1.955439
0.440914 -0.570295 -1.6469932 0.62972486 -1.1460798 1.0935539 -1.5497309 0.36537552
1.0434933 -0.97215027 1.4657179 1.2866415 -1.5839152 0.54460555 -0.40745255 -1.0606471
-0.46339077 1.0072029 0.67100513 -0.28935704 -1.06196 1.019562 0.5419642 -0.9647898
0.4556395 -0.5534799 0.70783234 0.37583923 1.3172 0.04062851 -1.4686642 -0.48597687
-2.0745819 -0.49506602 -0.9397885 1.116489 -0.12215199 0.5330578 0.8218673 -1.3382393
-0.87057185 0.98086244 -0.96499616 -0.46787572 0.7699174 1.3289158 -0.9087094 -0.27122977
-0.5327486 -0.3259393 0.7933094 -0.7647849 -0.13081765 -0.7807545 -0.35932404 1.3379818
0.5600444 0.59969115 0.5629715 -0.48412803 -0.05273484 0.007834621 -0.3103834 0.8917746
0.8221625 0.50470227 0.80074745 1.1052638 -0.16408898 -0.6756542 0.67246974 -0.5892944
-0.49164882 0.4678853 0.12923738 -0.5926593 0.076003514 -0.6885261 0.5295379 -0.3176507
-0.92619324 -1.2150936 -0.20463285 -0.36786765 0.42722398 1.0217175 -1.5888723 -0.5552933
-0.97318804 1.406429 -0.2127969 0.36668614 -0.04521378 -0.88010794 0.19513814 -0.19181721
0.36510783 -0.88023126 0.41988876 0.016572785 1.1494888 -0.8213266 0.556566 -0.07327973
1.2298195 -1.1936836 0.42419752 0.065686174 -0.97918946 0.87562007 -0.6189529 -0.088511206
-1.4834462 1.8537133 -0.040530175 0.9381691 0.027832128 -0.5420166 0.5365203 0.09240403
-1.1261327 -0.05597287 -2.021491 -1.1179317 -0.5998699 0.31500003 1.0009545 -0.15276185
-0.29957572 0.6346303 0.048809927 -0.21751401 -0.70112735 -0.9941162 -0.0956925 1.0539554
-1.1567956 0.9956342 -1.561747 1.984683 -1.3076136 0.5099353 -1.165288 -0.8071687

out.bias f4 [12]
00000000: 1362 71be 1b30 e2be 5126 9ebf fa52 8b3e
00000010: 9e4b 143b c154 8fbe a56b 92be eaee bfbe
00000020: 9f5c 9bbd 5aa7 d23d dba1 02be 7d5e aebf
-0.23572569 -0.44177327 -1.2355443 0.27211744 0.002262808 -0.2799435 -0.2859775 -0.37486964
-0.075860254 0.10285826 -0.12757055 -1.3622586
