JetsonTests/model2_2.tflite (tflite, 42576 bytes, 8 tensors)

sequential_3/dense_17/BiasAdd/ReadVariableOp f4 [12]
00000000: c35c 693d 7630 453b 939a bf3b f748 e2bc
00000010: 8d67 b5bb 9d0d 413c 9487 9bba 0a9b 25bc
00000020: a77d 0e3c 79a9 2db9 cf48 d1ba 59e3 bfbc
0.05697323 0.00300887 0.005847284 -0.027622683 -0.005536026 0.011783031 -0.0011865967 -0.010107765
0.00869695 -0.00016561699 -0.0015967133 -0.023423837

sequential_3/dense_16/BiasAdd/ReadVariableOp f4 [50]
00000000: a71e 56ba 1e52 dcbc 2b7e aebc ef92 183a
00000010: 28c2 d43c 7a81 893c 2f25 a93a d5e1 0fbc
00000020: 641f cfbb 28af c0bc 7e80 53bc ef5e b4bb
00000030: da48 b6bc 7b13 c8bb f9f3 0dbd 0ea8 1eba
00000040: b771 be3a 1d8d ccbb cccf 52bc 0221 08bd
00000050: e447 a1bc f067 dc3b 12a4 b0bb 3999 5c3a
00000060: 3796 d0bb a38e a0bc e2c9 4fbc 9e59 46bc
00000070: 0188 39bc 14d1 bd3b 4927 1c3d 3103 bfbc
00000080: f580 8fbc b60d 24bc 781c 5dbc 483b 38bc
00000090: 1a78 ad3c ba52 9d3b 414a 5cbc 0bbc 17bc
000000a0: a1b5 1cbc 772b 26bb 7dcd 01bc f6c6 afba
000000b0: 5653 58bb 8162 adbc ac47 71bc 6001 90bb
000000c0: 5ac0 2abd 4516 99bc
-0.00081680197 -0.026894625 -0.021300396 0.00058202347 0.025971487 0.016785372 0.0012904758 -0.00878187
-0.0063208807 -0.023521021 -0.012909053 -0.005504481 -0.022251535 -0.006105838 -0.0346565 -0.0006052264
0.0014529739 -0.006242408 -0.012866925 -0.033234604 -0.0196876 0.0067262575 -0.0053906525 0.0008415166
-0.0063655633 -0.019599264 -0.01268241 -0.012106327 -0.01132393 0.0057927463 0.038123403 -0.023316951
-0.017517546 -0.010013035 -0.013495557 -0.0112446025 0.021175433 0.0048011215 -0.013445438 -0.0092611415
-0.009564788 -0.0025355497 -0.007922527 -0.0013410735 -0.0033008656 -0.021165134 -0.014726561 -0.004394695
-0.041687347 -0.018687377

sequential_3/dense_15/BiasAdd/ReadVariableOp f4 [100]
00000000: 0856 c33c 1199 533c 1b19 2f3c db87 f6bb
00000010: 30fc 85bc 76da 0bbc d457 a0ba 8ec0 c63c
00000020: fa9a af3c ecde 2ebb 37ed 3ebc c69f 3d3c
00000030: aed9 a2bb abb0 e9bc 03da 22bb f11d 6dbc
00000040: 6fab c5bc 086f c2bc 50e5 bebb dbc3 18bc
00000050: 6905 10bd 71ce 12bd f6e5 803b f29b 013c
00000060: 8311 1c3d 0b68 06bd 1ab6 bfbc f899 88bc
00000070: 8580 043b e1d8 4f3c b556 973d c030 31bc
00000080: d56b c9bc 85b4 28bc 3eb6 14bd d50e 58bc
00000090: ea3d 273d ce4b 913b 48b2 75bb 2e22 713c
000000a0: dc51 8b3c c185 0abc 8ace 9fbc 85be 7f3b
000000b0: d732 823c e400 0a3b 7372 21bc ebfc cbbb
000000c0: ad31 1d3c 0cec 91bc 3496 90bc a2d1 cd3c
000000d0: 2473 13bc 2f59 e33c e3b1 bdbb c242 643c
000000e0: 5040 b43c 476a 84bc e2b5 70bd f14f 86bc
000000f0: 22c3 44bc ca74 913d 4c05 c5bc 5aab 88ba
00000100: a9df 2cbc 6630 7f3b 3c09 cd3b 011f febc
00000110: d484 72bc 6b9d 35bc b5ef 5ebc baf2 7f3c
00000120: ec83 88bc 3968 d6bc 0bbd 0fbc 7779 25bc
00000130: 0000 0000 d385 a2bc f0bb e03d da59 e038
00000140: 1aa0 78bc c4a3 9ebc b77f a5bc 4104 033e
00000150: b84e 50bb 1d6b 9cbc 7a98 f4bc 8c8b 6b3d
00000160: 31dc 103c b5b4 f3bc 2b23 88bc 81a1 cbbc
00000170: 3247 dfbb c93d 5c3b 85ef a4bc 1dc4 a8bc
00000180: ae92 c0bb 8c09 bb3a 7088 cabc c733 e1bb
0.023844734 0.012914912 0.010687138 -0.0075235195 -0.016355604 -0.008535972 -0.0012233206 0.02426174
0.021436203 -0.0026683165 -0.011653236 0.0115737375 -0.004969797 -0.028526625 -0.0024849183 -0.014472471
-0.024129597 -0.023734584 -0.005825676 -0.009324039 -0.03516141 -0.03584141 0.0039336635 0.007910715
0.038102638 -0.032814067 -0.023402262 -0.01667498 0.0020218205 0.012685985 0.07389585 -0.010814846
-0.024587551 -0.010296945 -0.036306612 -0.01318713 0.04083053 0.0044340855 -0.0037490297 0.014717622
0.017006807 -0.008454741 -0.019507665 0.003902347 0.015893383 0.002105766 -0.009853947 -0.0062252185
0.009594363 -0.017812751 -0.017649747 0.025124375 -0.00899962 0.027752487 -0.005789028 0.013931932
0.022003323 -0.016163958 -0.058767207 -0.01639554 -0.012009414 0.07102354 -0.024050377 -0.0010427043
-0.010551372 0.003893876 0.0062572043 -0.031020643 -0.0148021765 -0.011084895 -0.013606955 0.015621835
-0.016664468 -0.026172744 -0.008773099 -0.01009976 0.0 -0.019839203 0.10973346 0.000106978885
-0.01517489 -0.019365199 -0.0202025 0.12794591 -0.0031785201 -0.019094044 -0.029857863 0.05750613
0.00884156 -0.029749254 -0.016618332 -0.024857285 -0.006813907 0.0033606163 -0.020133743 -0.020601327
-0.0058768606 0.0014269813 -0.024723262 -0.0068726274

sequential_3/dense_14/BiasAdd/ReadVariableOp f4 [30]
00000000: 0000 0000 8a37 4dbc 5fc7 71bc cf34 99b9
00000010: 4210 bcbb 54c0 79bc 0000 0000 1aa1 6fbc
00000020: 2f2c b83c 9fa4 eb3b 256f 65bb 638f 07bc
00000030: 1769 32bc 95ec 96bc 0000 0000 8d4a d13b
00000040: 62f5 a6bc 77c0 92bb c14b 85bb f261 1e3c
00000050: 611f d7bc ebd1 2f3c afbf c2bc 9f70 b33c
00000060: 7ddf 8ebc 40fd 2f3b a788 e8bb c549 87bc
00000070: 487f ab3c 162d 07b9
0.0 -0.012525449 -0.014757006 -0.0002922178 -0.005739243 -0.0152436085 0.0 -0.014625812
0.022482006 0.007191255 -0.0035008874 -0.008273932 -0.010889313 -0.018423358 0.0 0.006387061
-0.02038068 -0.00447851 -0.0040678685 0.009666907 -0.02626008 0.010731201 -0.023773042 0.021904288
-0.017440552 0.002685383 -0.0070963684 -0.016514668 0.020934716 -0.00012891399

sequential_3/dense_14/MatMul f4 [30, 42]
00000000: c86c cdbd 88a7 8ebe f8cb 19bd 0ed7 0d3e
00000010: a0a8 383c 489f 54be 20cb 533e 7a00 22be
00000020: f818 48bd 40b1 febb 003c bcbd a83a 023e
00000030: ec3d f43d 0044 fcbb 97fe 5fbe 8c97 7d3e
00000040: 9fdf 06be bbc3 09be 00f0 e5b9 e8bb 993d
00000050: f889 553d 3867 5f3d 9207 81be 9b70 1dbe
00000060: fc70 a03d e4f4 4bbd f46a 713e 7046 963d
00000070: 4ccb 5cbe 9f13 8ebe 2aa7 813e 4282 8cbe
00000080: 518a 04be 50b0 913e cadd 79be a555 7abe
00000090: 329c 343e be64 0fbe e088 5e3e e4b7 86be
000000a0: 1836 533d 302d 50bd 1b4d ef3d 9346 6a3e
000000b0: 689c 0ebe ea08 46be aad9 d3bd c840 95bd
000000c0: 7eb7 09be f110 7e3d 6f7b d93d 89c4 7b3d
000000d0: 3cff 933d 1994 35bd fc63 833e 8536 81be
000000e0: 713f 083d 46bf 88be 17e9 2cbd ff70 43be
000000f0: 8251 613a 1648 a73a 8745 973d 3c5c 0abe
00000100: 9be5 9ebc 49fe 87be 2fb3 5c3e d305 90bd
00000110: ea69 4bbd 8302 483e a027 4ebe b002 10be
00000120: 18b7 92bd 886e 313e 7ab3 a5bd 387b 83be
00000130: 5a13 543d 1c63 803e 027b 2c3e 8b7d 82be
00000140: 99b6 073e 8286 5fbd 286a 853d 69d8 343d
00000150: 2fce 5fbe ff6c 1abe 6e62 023d 1056 11be
00000160: ed99 6b3d 91a2 99bd 6684 7cbe 4160 7abd
00000170: d69b 94be 1a8a 383e 075f 6abd 2371 de3d
00000180: 4880 2f3d 980f 8c3e 8383 d33d 01ad ee3c
00000190: 73ab 98bd b75f 11be 6ace 7e3e 5282 7f3e
000001a0: ddca 023e a853 d33d 462d 673e 91d4 863e
000001b0: 9885 5bbe 1576 4ebe 6152 41be 7985 493e
000001c0: 22f1 88be 83f1 133e f213 8ebe 7e51 7fbe
000001d0: bd27 15be 26de cd3c 6f34 2f3e e5ff 5a3e
000001e0: 524e 81be de03 babd 8f7a 083e e2c3 2dbe
000001f0: 2209 95bd e706 7cbe 1f5a 093e 2b21 8f3e
00000200: f3e6 3cbb e802 5f3e fcfc 48be 39d1 463e
00000210: 195f 053e 3089 763e 0bf3 633e 1b1c 1d3e
00000220: 2855 65be 7038 0cbe fbbe d5bd c9a1 ff3c
00000230: 5ed1 cfbd ed00 513e 6c05 2fbe db7d 843e
00000240: 533e 5cbe eb20 bf3d 87cf 5a3d 95c0 8dbe
00000250: 4b4b 67bc 4f68 913e 21ed ba3d e2ee 23be
00000260: c2d5 fdbd d7c6 ccbd de4d 883e d4a5 853d
00000270: e4e9 49be a305 77be 5a4d 583b cd0d 3cbe
00000280: 3040 5cbe 4779 37be a67f 533d ba64 fd3c
00000290: 661a 023e d212 f8bd d12c eebd 80e2 48be
000002a0: 3472 8dbe 3b69 81bd 9e8e 53be d620 143e
000002b0: 31dd 4d3e dab1 483e 8177 7ebd b35d 3dbd
000002c0: fb46 bebb 28ec babd 41f5 d43d 3cd6 85be
000002d0: 85ff 093e f529 063d 86eb 4c3e ae69 573e
000002e0: 6776 22be 68ec b43d 90bd 823e e1ad 753e
000002f0: f2be d63c 7d10 e53d c9f1 16bd 0674 853e
00000300: 2086 6abe a079 223e b99e 6f3e a649 223c
00000310: 7e5f 603e 0956 8bbc c82f 34be 7fb6 80be
00000320: 51fe 033e 858b 19be 619d 0abe b45d 57be
00000330: 5db2 1ebd 2c7f 8bbd dd9e 0cbe 26ff 323d
00000340: eb56 8c3e 69df f8bd 6dc3 92be bef9 f9bc
00000350: f890 293e b5ef d63d ba0e cebd b3c1 2fbe
00000360: cd83 58be 45af 143c b2d7 b9bc cfb7 803e
00000370: 72c8 8cbd 3823 85bd bd4b 0abe f85d 4a3e
00000380: a544 0c3e c157 603e 2e74 cc3c 8024 543e
00000390: 60d0 333e 9bc6 873e 7f2f 47be 61ae 7f3e
000003a0: 92ea 61be b41b e63d d375 7a3e e38f c93d
000003b0: ba78 793e 0669 64be 1fc2 39be 42c4 aabd
000003c0: e09c 7cbe f2f8 67be 3801 50be c9c4 9dbd
000003d0: 1e61 8fbd 711f e83d fdcb 9c3d db73 0d3e
000003e0: 8b18 47be fe35 67be 08d9 783d e4e8 82bc
000003f0: 1630 1f3e 868b 8e3e 2c1c 52be 0fa7 93be
-0.10030514 -0.2786219 -0.037548035 0.13851568 0.011270672 -0.20763886 0.20682955 -0.15820494
-0.048851937 -0.0077725947 -0.091911316 0.12717688 0.11925873 -0.007698536 -0.21874462 0.24764842
-0.13171242 -0.13453571 -0.00043857098 0.075065434 0.05213353 0.054541796 -0.25201088 -0.15374987
0.0783405 -0.049794093 0.23575956 0.07337654 -0.21561927 -0.27749345 0.2532285 -0.2744313
-0.12943389 0.28454828 -0.24401012 -0.24446733 0.17637709 -0.14003274 0.21731901 -0.26312172
0.05156526 -0.050824344 0.116846286 0.22878484 -0.13926852 -0.19339338 -0.103442505 -0.07287747
-0.13448903 0.062027875 0.10619246 0.061466727 0.072264165 -0.04433069 0.2566222 -0.25236908
0.033263627 -0.2670843 -0.04221448 -0.19086073 0.00085952145 0.0012762572 0.07386308 -0.13511747
-0.019396594 -0.26561192 0.21552728 -0.07032361 -0.049661554 0.19532208 -0.20132303 -0.14063525
-0.071638286 0.1732732 -0.08090873 -0.25679946 0.051776268 0.25075614 0.16843799 -0.25486407
0.13253249 -0.054571636 0.06514388 0.044151697 -0.21855997 -0.15080641 0.03183215 -0.14192986
0.057519842 -0.0750171 -0.24659881 -0.06112695 -0.29025143 0.18021432 -0.05721953 0.10861423
0.042846948 0.27355647 0.10327818 0.029135229 -0.07454576 -0.14196669 0.24883428 0.24952057
0.12772699 0.103186905 0.22575864 0.2633405 -0.2143768 -0.20162232 -0.18879081 0.19679822
-0.2674647 0.14447598 -0.27749592 -0.2493343 -0.1456594 0.025130343 0.17109846 0.21386679
-0.25255066 -0.09082769 0.13328002 -0.16969255 -0.072771326 -0.24612008 0.13413285 0.27954993
-0.002882418 0.21778452 -0.19627756 0.1941575 0.13024558 0.2407577 0.22260682 0.15342753
-0.22395766 -0.13693404 -0.10436817 0.031205075 -0.101473555 0.2041051 -0.17091912 0.2587727
-0.2150815 0.093324505 0.05342057 -0.2768599 -0.014117072 0.28399894 0.0912726 -0.16009095
-0.12394287 -0.09998863 0.26621908 0.0652577 -0.19718128 -0.24123244 0.003300509 -0.1836464
-0.2150886 -0.17917357 0.051635407 0.03093182 0.12705383 -0.12112965 -0.11629642 -0.19617653
-0.27626193 -0.06318899 -0.20659873 0.14465651 0.20103909 0.19599095 -0.062125687 -0.046231937
-0.0058068014 -0.091270745 0.10398341 -0.2614001 0.13476379 0.032754857 0.2001172 0.21036407
-0.1586548 0.088341534 0.2553525 0.23992111 0.026214097 0.111847855 -0.036851678 0.2606508
-0.22902727 0.15866709 0.23400392 0.0099052545 0.21911427 -0.017008798 -0.17596352 -0.25139233
0.12889983 -0.14994629 -0.13536598 -0.21031839 -0.03874432 -0.068113655 -0.13732477 0.04370036
0.27410063 -0.12151987 -0.28664723 -0.030514594 0.16559207 0.10494939 -0.100614026 -0.17163734
-0.21144028 0.009074991 -0.02268586 0.25140235 -0.068741694 -0.06500858 -0.13505454 0.19762409
0.13698061 0.21908475 0.024957743 0.20717049 0.17559958 0.2651871 -0.19451712 0.24968864
-0.22062138 0.11235753 0.24459009 0.09841897 0.2436246 -0.22305688 -0.18140458 -0.083382145
-0.24669218 -0.22653559 -0.20312965 -0.077035494 -0.070009455 0.11334122 0.07656095 0.13813727
-0.19442956 -0.2257919 0.060753852 -0.015980192 0.15545687 0.27840823 -0.20518559 -0.28838393

sequential_3/dense_15/MatMul f4 [100, 30]
00000000: f5ac 273e 5093 0d3e 5ffb 793d e131 4e3e
00000010: 20c7 42be e1db 2cbe 7890 94bc 36f0 1d3e
00000020: faf2 a33e 1ff4 51bd 3941 963c ea03 63be
00000030: 9c70 523e 8f91 843d 3242 af3d de74 5c3c
00000040: 5bd1 f43b 26a7 79bc 2454 89bd fe08 1dbe
00000050: cba6 cf3d da02 45be b4cc 063d 580d 7cbc
00000060: 0875 debd 9d51 e23c 42f1 9dbc 799e d43d
00000070: 87d9 c33d 46cb c73d 7cb8 5b3d 563a 40be
00000080: 38d3 95bd 25e3 b73d 2f67 56be 9690 f33d
00000090: de5d 933d 5c7a c83d 2d5e 103d e10e 95bc
000000a0: 603d dabc 3a8f 5cbe fd1a 6a3d 1b1b 803d
000000b0: 18b2 c9bd 6bf0 25be 2484 383e 80fa 3a3e
000000c0: 6c3f febd 620f 0ebe 956e 063e 005c 063e
000000d0: 7bb3 f3bd f673 27be 4295 1a3b 062e 043e
000000e0: acaa 53bb 077d a73d 45d3 5dbb 49bc 683c
000000f0: c80f 46bd 9abb 85bd a67d 89bd 487b fdbd
00000100: 1da0 fbbd 0488 2e3d b098 a33c e8e6 46bd
00000110: d424 6dbd 38a2 063e c43b 203e 68bb 13bd
00000120: 8a2f 193e 5249 45be 573d 0f3e bcef 96bd
00000130: 4c5b 84bd d2dc 4e3e f7b9 d4bd 19d0 dc3d
00000140: 1f95 0b3d 06dd 52bd 7544 1e3e bec8 dfbc
00000150: 8e41 60bd d08f 1cbd 822c 17be 5be0 503e
00000160: cb3b 34bd 271e 113e a924 53be 348d 0d3e
00000170: 6129 ccbc bb17 4abe dd46 32bd 3a46 1abd
00000180: afa6 1e3e 8f7e 1ebe 2f70 163c f99d 5abe
00000190: 0c9e 49be 2c23 2a3d 82ad 203e 9975 d3bd
000001a0: df64 333e 0548 6bbd 2c43 1c3e a802 42bd
000001b0: 7dc4 1e3e 1721 a63d a9e0 843d f788 2abe
000001c0: 0594 8b3d 4f7b 1f3e 764a 71bc ce5c 64bd
000001d0: bee8 5d3c 37bf 223e 2ad0 4ebe 36a9 ab3d
000001e0: d5c0 20be cb42 76bd bf38 5a3e 6522 69be
000001f0: b9cc c03c 7a87 26be 381b cb3c bbd3 d9bd
00000200: 461a ce3d 8028 84bd 76fc 2d3e dd25 093e
00000210: eda1 bebd c484 e6bc d0c6 8cbc 2658 86bd
00000220: c501 29be dcbe 10be db0d 473e 533f 2abe
00000230: dd82 dc3d c721 5abd a46c 01be 343c 5fbd
00000240: 413e 4b3e ee0c 62be 16da b93b 8a28 5e3d
00000250: 7019 0abe 805a 5bbd 5f95 2e3e 7e31 153e
00000260: 5c3e 37bd 8c5a 0e3e c670 20be 6a36 e0bd
00000270: 16b7 c7bd d2f8 3f3e 86ef a5bd f437 d3bd
00000280: b0b6 83bd 760c 41be c562 3d3e 18e6 57bc
00000290: c9cb 003e c0c5 72be 33eb b93d d8ce 243e
000002a0: 5ecb b5bd c3be ee3d 9d4a 413e 5d66 153e
000002b0: cecc 243e 4592 0fbe 2824 923d ebcd f9bd
000002c0: 1037 1a3e 59b1 bbbc 2d55 e83d ebff 673d
000002d0: 447f 31bd a1e5 1b3b ad4f 113e 766b eebd
000002e0: 2585 223e 4cf5 29be b006 dcbc 1288 cf3d
000002f0: 4f29 963d 3455 cfbd 0f96 113e d783 d43d
00000300: 22bc 973c 87c3 923d 33e2 553e a804 c03d
00000310: df94 8bbd f48b 323e 1399 b0bd b693 3cbe
00000320: e6c5 32be aa75 0fbe 6e9d 943c cdf6 253d
00000330: 1e5b 263d bea6 643d 5610 233e a874 7dbd
00000340: 9aa9 0b3e 6afa 1dbe 7e8e 963d 34e0 283e
00000350: 7bb0 59bd 20c5 cbbc 4791 273e 0ef4 6b3d
00000360: 8706 333e 0b48 1d3e 7a92 81be 204a 8ebc
00000370: 2910 5b3e 1a99 f23d c90f d63d 341f 08be
00000380: 1033 0e3c b78a b2bd f998 a3bb 8eb8 72bd
00000390: 0072 2b3e 69fd 043e d37d 2dbe 8d4b b8bd
000003a0: b845 983d 6b1a 743d 1c15 a2bc a387 4abe
000003b0: bc25 99bd 5af5 293e cfd8 40bd b361 51bc
000003c0: 5ecb b0bd 0488 a9bd 6926 2fbd 4dc5 92bd
000003d0: f0f9 29be 71b4 1bbd d664 bdbd 558e 13be
000003e0: 60e4 fb3d 4492 e6bc 50ed 01be 84d8 46be
000003f0: 720c 1bbe ed15 3abe 6c46 133d d00c ca3d
0.16374572 0.13825727 0.06103074 0.20136215 -0.19021273 -0.16880752 -0.018135294 0.15423664
0.32021314 -0.051258203 0.018341647 -0.22169462 0.2055077 0.064730756 0.08557548 0.013455598
0.007471246 -0.015237605 -0.06705502 -0.15335461 0.10139235 -0.19239369 0.032910064 -0.015384041
-0.10862166 0.027626807 -0.01928008 0.10381789 0.095629744 0.09755568 0.053642735 -0.18772253
-0.073156774 0.08978871 -0.20937799 0.11892812 0.07195638 0.09788963 0.035246063 -0.018195571
-0.026640594 -0.21539012 0.057154644 0.0625517 -0.09848422 -0.16204993 0.18019158 0.1825962
-0.124144405 -0.13873056 0.13128121 0.13121033 -0.118994676 -0.1635283 0.00235875 0.12908182
-0.0032297773 0.08178144 -0.003384785 0.014205047 -0.048354894 -0.06529923 -0.06713419 -0.1237703
-0.122863986 0.042610183 0.019970268 -0.048560053 -0.05789645 0.13147819 0.15647799 -0.036067396
0.14959541 -0.1926625 0.13988243 -0.073699445 -0.06462726 0.20201424 -0.103870325 0.10781879
0.03407776 -0.051480316 0.15455802 -0.027317401 -0.054750018 -0.038223088 -0.14763072 0.20398085
-0.044002336 0.14171658 -0.20619453 0.13823396 -0.024922075 -0.19735615 -0.04352461 -0.03766463
0.15493272 -0.15477966 0.00918202 -0.21349324 -0.19689196 0.04153745 0.15691188 -0.10325164
0.17518948 -0.05744173 0.15259999 -0.047365814 0.15504642 0.0811178 0.06488163 -0.1665381
0.06815342 0.15574382 -0.0147272255 -0.055752568 0.01354426 0.15893255 -0.20196596 0.08381884
-0.1569856 -0.060122292 0.2131071 -0.22767027 0.02353512 -0.16262618 0.024793252 -0.106360875
0.10063605 -0.06453037 0.16990837 0.1339335 -0.09308229 -0.02813948 -0.017184645 -0.06559782
-0.16504581 -0.14135307 0.19438879 -0.16625719 0.10767148 -0.05325487 -0.126391 -0.054500774
0.19847967 -0.22075245 0.00567175 0.05423788 -0.13486266 -0.053553104 0.17049168 0.14569661
-0.044737205 0.13901728 -0.1566802 -0.10947879 -0.09751718 0.18747261 -0.08102326 -0.103134066
-0.06431329 -0.1885241 0.18494709 -0.013177417 0.12577738 -0.23708248 0.09078064 0.1609453
-0.0887668 0.11657479 0.18876119 0.1458983 0.16093752 -0.14020641 0.071358025 -0.12197479
0.15060067 -0.022911714 0.11344371 0.056640547 -0.04333426 0.0023787993 0.1419055 -0.1164159
0.15871103 -0.1659748 -0.026858658 0.10133375 0.07332098 -0.10123673 0.14217399 0.10376709
0.018522326 0.071662 0.2088707 0.09375888 -0.06815504 0.174362 -0.086229466 -0.18415722
-0.17458305 -0.14009729 0.018141475 0.04051857 0.04061424 0.05582308 0.159242 -0.06187883
0.13638917 -0.15427557 0.07351397 0.16491777 -0.05314682 -0.02487427 0.16364013 0.057605796
0.17482959 0.15359513 -0.25307065 -0.01736933 0.21392883 0.11845608 0.104522295 -0.13293153
0.008679166 -0.08717864 -0.004992601 -0.059258036 0.16742706 0.12987293 -0.1694253 -0.08998785
0.07435173 0.059595507 -0.019785456 -0.19778304 -0.074779004 0.165975 -0.047081765 -0.012779641
-0.08632539 -0.08277896 -0.04276124 -0.071665384 -0.1659925 -0.03801388 -0.092477486 -0.14409764
0.122994184 -0.028145917 -0.12688184 -0.19418532 -0.15141466 -0.18172427 0.03595583 0.09865725

sequential_3/dense_16/MatMul f4 [50, 100]
00000000: a56e 853d 1116 28be 5069 5fbe d6da 1c3e
00000010: 344b 4dbe 5e9d d1bd 2aef 333e 177d 023e
00000020: 4bc2 87bd fed1 d23c 28e4 22be 5250 313e
00000030: dca0 f7bc a5dd 1ebe 1ef9 48bd 08f6 b9bd
00000040: 03c9 103e 4a19 56be 58a6 23be cff6 af3d
00000050: 2c2d 3dbe e7da aa3d bba9 863c 8215 92bc
00000060: c78f acbd f086 62bb 4637 233d 37bd 8f3d
00000070: f434 313e bd18 3a3d 2963 073e cd30 e93d
00000080: a2e5 933d eafc 423d 21e6 c7bd 69f1 17be
00000090: 91b5 78bd 94f9 873d 43e2 983d f211 c9bd
000000a0: 0206 8d3d 84d8 01bb 740d ae3c 8fbd 4ebd
000000b0: a204 3e3a f97e 563e db2a 96bc 81bf 4fbd
000000c0: 2647 383e 98f0 523e d002 4c3c bec0 4d3e
000000d0: b0be c1bd f5b6 f9bc 2c81 603d ac23 d6bc
000000e0: 1086 fa3c ef72 7cbe 19f6 2dbe 13f7 f13c
000000f0: 9278 463e 391f 073e d3a1 2ebe b838 f63d
00000100: a215 c1bc 65ae 44be c789 063e f23b 073e
00000110: 1fc6 e9bd da2e 013e 6547 21be b884 23bc
00000120: 0209 ac3d 3de6 083e 54e1 8cbd d6ee 413d
00000130: b247 9e3d af65 f0bc eab0 183b 571a 20be
00000140: 7c93 7abd b461 0ebd c19a 16be ba0a 92be
00000150: 0728 133e dd39 2fbd 0e59 273e 9641 af3e
00000160: 2e10 fbbd 5768 63be 3f47 913d 2ec9 0ebe
00000170: e662 513b 3fbf ad3c e037 0d3e aff5 8dbd
00000180: 3894 003b 2d24 01be 3a4d ff3c f564 30be
00000190: 3434 0f3e d1a3 be3d f46f 14be f1a1 45bd
000001a0: 87c8 a2bd 7146 7dbd 9a7c b73d 224e 01bd
000001b0: c5a1 2d3e 8cf8 0b3e b2db 9f3d 9efc 8dbe
000001c0: 50b7 9dbd 7b84 0dbe 98d8 c8bd 7fbe 7ebd
000001d0: 20f6 2e3e 7357 8cbd 8541 2f3e a18f f3bd
000001e0: 18bb 94bc 4247 7d3d b08a 9abd 114b fdbd
000001f0: 39f7 f53c 0277 0d3e 65e6 243e b9f5 4c3e
00000200: 60a4 8f3e 27b3 163c 02fe 493d 5bec 3e3e
00000210: 8346 28be 25f7 fcbb 135a 96bd 2427 8abd
00000220: 53f6 253e 2473 253e 3a6c 663d 5b51 59bd
00000230: 8749 37bd a87b c03c f105 d7bd 1a8b 133e
00000240: 93dc 0cbe 7355 52be e801 243d 9bca c23d
00000250: c564 4cbe 6077 edbd cb7d ba3d 6bd6 733c
00000260: def6 9d3b cb1e 1cbd 120e 99bd 7b95 723d
00000270: a970 d93c 8d41 d2bc 4099 a4bd d841 803d
00000280: e4bf 26be 58d0 71bd 8999 aabb 593c 263e
00000290: 0858 a2bc 822b c1bc c95b c2bd 9ab6 4ebe
000002a0: 30aa 4bbd d90b 56be 5c94 cfbd 649a cbbc
000002b0: 8c3a 4f3d 0e2f de3d a4b9 353d 7dd5 bebd
000002c0: 004f cd3c 59e1 eebd 64fe 21be 69d2 acbc
000002d0: 3ab6 9dbc 8d03 603e 7180 88bd 336e 7b3e
000002e0: 16f1 4ebd 3bce d5bd 6af9 96bd 952a 093e
000002f0: ff76 9ebd b6ae 0f3e 2fb6 303e f8f8 92bd
00000300: 295d 68bd 6f68 37be 4fbd 48be 79d9 54be
00000310: d403 e7bd e465 fc3c b576 113e 62fc febd
00000320: 7471 58bd 2081 58be 1128 ee3d 543d 023e
00000330: 36b4 463e 9c74 3cbe 190e 27be 68c0 8abd
00000340: 6cb4 163e 97fe 0e3e d4ee 003e 840d bc3d
00000350: f937 f8bb fc9b eb3d 0db7 1d3e 736d d8bd
00000360: fc7c 0cbe 3e16 b6bd 5372 483d 745c 1cbe
00000370: fcbe 33be 9eba 24bd 99a9 993d 0fae ad3d
00000380: 1150 46bd 7099 553e acf2 0dbd a19a d83d
00000390: 1bf0 1c3e fa0f bbbd f183 a8bc cb00 1cbe
000003a0: 0e21 53be 5b3c 8bbd 6a69 42be 57d9 0c3e
000003b0: 8673 26be e3af 473d 68f7 ca3d 0077 93be
000003c0: 0143 293e c2f0 d2bd e12b c1bd 736e 633e
000003d0: 1cab 503c 87d7 83bd f054 48be bd2f 173e
000003e0: 8c92 2b3e b5da 303c e4ab 483d 3d9a d2bb
000003f0: 4603 e83d 4882 1d3e 87be b03d 87d8 c63d
0.065152444 -0.16414668 -0.21817517 0.15317854 -0.20048219 -0.102350935 0.17571703 0.1274303
-0.06628855 0.025734898 -0.15907347 0.17315796 -0.03022807 -0.15514238 -0.0490657 -0.0908013
0.1413918 -0.20908085 -0.15981424 0.08591997 -0.18474263 0.083425336 0.016438356 -0.017832521
-0.08425861 -0.0034565292 0.039847635 0.07018512 0.17305356 0.04543375 0.1322142 0.11386261
0.07221533 0.04760448 -0.097606905 -0.14838184 -0.06072003 0.066394 0.07465031 -0.09817876
0.068859115 -0.0019812891 0.02124665 -0.050473746 0.0007248615 0.20946874 -0.018330982 -0.05071974
0.17995891 0.20599592 0.012451842 0.20093057 -0.09460199 -0.030482749 0.054810688 -0.026140057
0.030581504 -0.24653219 -0.1698841 0.02953676 0.19381931 0.13195504 -0.17053919 0.12022537
-0.023569886 -0.19207151 0.13138495 0.13206461 -0.11414742 0.12615529 -0.15749891 -0.009980373
0.084001556 0.13369079 -0.068789154 0.047346912 0.077285185 -0.029345362 0.0023298808 -0.15635048
-0.06117581 -0.034761146 -0.14707471 -0.2852381 0.14370738 -0.042779792 0.16342565 0.34229726
-0.122589454 -0.22207771 0.07093667 -0.13943931 0.0031949817 0.021209357 0.13790846 -0.06931626
0.0019619595 -0.12611456 0.031164754 -0.17226012 0.13984758 0.09308589 -0.14495832 -0.048250142
-0.07948404 -0.061834756 0.08959313 -0.031568654 0.16956241 0.13669032 0.078055754 -0.27731794
-0.0770098 -0.13820069 -0.09806937 -0.06219339 0.17086077 -0.06852617 0.17114837 -0.118926294
-0.01815562 0.061835535 -0.07545984 -0.123678334 0.030025112 0.13814929 0.16103514 0.20015611
0.28055096 0.009197987 0.049314506 0.1864485 -0.16433148 -0.0077198916 -0.07341399 -0.06745747
0.16207246 0.16157204 0.056255557 -0.053056102 -0.044747856 0.023496464 -0.1049918 0.14408532
-0.13756017 -0.20540409 0.04004088 0.095113 -0.19960316 -0.115950346 0.09106024 0.014882664
0.0048206886 -0.038115304 -0.07473387 0.059224587 0.026542978 -0.025666023 -0.080370426 0.06262559
-0.16284138 -0.059036583 -0.005206291 0.16233958 -0.019817367 -0.023580316 -0.09490163 -0.20186844
-0.04972285 -0.20902957 -0.10135719 -0.024853893 0.050592944 0.10848819 0.044366494 -0.093180634
0.025062084 -0.116640754 -0.15819699 -0.021096425 -0.019251931 0.21876355 -0.06665123 0.24553756
-0.050522886 -0.10439726 -0.07371791 0.1339515 -0.077375405 0.1403149 0.17256998 -0.07176393
-0.05672947 -0.17910932 -0.19603465 -0.20786084 -0.11280027 0.030810304 0.1420544 -0.12450482
-0.052842572 -0.21143007 0.11628736 0.12718707 0.19404683 -0.18403858 -0.16313972 -0.0677498
0.14717263 0.13964306 0.12591106 0.091822654 -0.007575032 0.11504361 0.1540186 -0.10567751
-0.13719553 -0.08890961 0.048937153 -0.15269643 -0.17553324 -0.040217035 0.07503051 0.08480465
-0.0484162 0.20859313 -0.034655258 0.10576368 0.15325968 -0.09133907 -0.020570727 -0.15234677
-0.20618078 -0.06798621 -0.18985525 0.13754784 -0.16255006 0.048751723 0.0991047 -0.28801727
0.16529466 -0.10299827 -0.09432197 0.22210102 0.012736108 -0.06437593 -0.19563651 0.14764304
0.16755122 0.010794331 0.048992053 -0.006427078 0.11328749 0.1538173 0.0863009 0.09709268

sequential_3/dense_17/MatMul f4 [12, 50]
00000000: 2a3e 85bb e3bb e1bc e947 4abd b2c1 91bc
00000010: 7fe6 96be 81ee 253e f777 673e a6cb bb3b
00000020: c58a 113e 7b58 dabd 8850 b13d 415f 41be
00000030: ff2d dabd 7096 383e 2b04 80be 506e 85be
00000040: 7658 313e a0a8 9c3e 13d6 033e 2d77 90be
00000050: 9ef0 74be 1828 fbbb c22e 7abe 7a37 a0bd
00000060: f0f2 cdbd 9dd0 8abe 048b 7b3e 3f2f 1bbe
00000070: a4c9 07be 93fc ac3c 7c2e 8f3e d1c6 c3bd
00000080: e8b8 a43e 79c6 42be e720 5f3e da0a 193c
00000090: 877d aa3e 3884 383e 987e 7cbe 8dda 4e3e
000000a0: 9f28 aabc 8816 8dbe 7227 023c 72e8 833d
000000b0: 228c c03b 403a b7bd ba7d 943d 1c30 16be
000000c0: 82ec 5d3d d9d5 3ebe 8ca2 75be f8b4 983e
000000d0: 5c9c d33c ba64 6f3d d6c7 1f3e 7151 1a3e
000000e0: 737c 053e a32c 1ebd 1c2d d63d 58b5 883e
000000f0: 244e 2a3e e36e a33d 2d2b d9bd 20c6 853e
00000100: c3cf 1bbe 43be 11be 2f80 80be 20c8 72be
00000110: 51e7 43bd d9ca 693e 9c08 93bd 91f7 e23d
00000120: 449c a3bd 414b 13be d597 afbe fb45 00be
00000130: 3061 703e 8da5 933e cd24 853e 3e67 413e
00000140: c65d d43d d356 5cbe b34f ec3d a9c7 16be
00000150: 3bed 28be 0e5a 92be c68e 003e 34e3 8bbd
00000160: ee20 113d 0f07 f1bc 901e 49bd 0cb5 7f3e
00000170: 6770 8dbe d8f5 823e b700 25be a4c2 93bd
00000180: 2704 30bc 9e85 6a3e b258 5d3e e2d8 0f3e
00000190: 98ba 8a3c 3314 ba3e 8d62 6ebe 16db 26bd
000001a0: 67f4 a2bd 67b5 343d 1632 92be 50ad 933d
000001b0: 007f 0f3d b11e 43be 85dc 95be b030 fc3d
000001c0: 9177 293e 1e7b 68be 4cfa 97bd c0e0 d6bd
000001d0: 90b4 373d f9e2 6cbe 00d9 e63d 8b1b 9c3e
000001e0: ee0c a6bd e0f3 773d 5708 503d ba80 2c3e
000001f0: b7b6 093e e845 523d 6f68 24be cf58 bebd
00000200: dc6c 91bc 55b3 983d 5792 37be e888 60bd
00000210: 08e1 c33d ea3c 283e fab1 913e 5f08 323e
00000220: f6ef 2cbe daf4 883e b061 003d daf7 91be
00000230: 367c 9bbe 9f9f 913d f92f 893e 04b6 7bbe
00000240: ec70 60bd 5b0e 5fbe f8ef 7cbe 7a15 8c3d
00000250: f734 36be 4c49 913e a700 bebd b84f 5d3d
00000260: bd2b 86bb 3602 e6bd f83e 88be d570 35bd
00000270: 5920 543e 565f 7b3c b970 783e b079 8ebe
00000280: 6f1b cf3d d778 11be 6733 943d 6cf4 23bd
00000290: fe70 2cbe ac24 9bbe 1f5f ef3d c00e 3fbe
000002a0: b0e0 c53d 68d0 8d3e f22b 653e c51b 7dbd
000002b0: 05f6 98be 8ff8 0ebe 6359 17be 04a4 6cbe
000002c0: 2849 b23e a2da bd3a af88 653e 700b 90be
000002d0: 96c4 ec3d c208 8c3e 7418 65be d3ea 6b3e
000002e0: 2c06 883e f939 babd a787 633e 83e0 8cbe
000002f0: afdf adbd f5f7 283d 80f4 7c3e a4ed 67be
00000300: 466f c7bc facc 86be 5462 67be 04f6 9abe
00000310: e650 263e 400f f73c 055a 9b3e fd00 f93d
00000320: ca08 86be 3a86 a8be e49a 493e 634e e63d
00000330: ec52 19bd d17e 01be 16f8 453d bde0 413e
00000340: 12f2 8cbe 6d65 943e a1fa 9b3e 5392 92bd
00000350: a078 493d c04c 39bd 779e 073e 205d 99be
00000360: 71ec 85be 36d0 8cbe 736f 86bd 9b1c 553c
00000370: d2f4 103e e260 423c 96ec 473d 679c 543e
00000380: b424 ff3c a92f 973e dd2c 9b3e 9f7b 8b3e
00000390: 9cc2 9b3e b0d9 573e 9118 9dbe e11f 94be
000003a0: b51d e53d 85a7 c4bc b119 8a3e de93 423e
000003b0: 5367 4f3e c939 103e 151a ab3c ea4a 803e
000003c0: 6cb3 f83d ce74 05be d77e 86be 8e57 15be
000003d0: 5e1c 74be fc6a 6bbe 6e10 163e 314a 6cbe
000003e0: 7f7f a5be 2a27 eb3b df9b cd3d 4bc9 243e
000003f0: 454a f2bd 779a 4fbe 9d99 9c3e 6d6b 103d
-0.0040662484 -0.027555412 -0.049384985 -0.017792556 -0.2947273 0.16204263 0.22604357 0.005731064
0.14213093 -0.106614076 0.08657938 -0.18883993 -0.10653304 0.18026137 -0.2500318 -0.26060724
0.17318901 0.305974 0.12874632 -0.28215924 -0.23919913 -0.0076646917 -0.24431899 -0.07823081
-0.10056102 -0.27112284 0.24564749 -0.15154742 -0.13260514 0.02111653 0.27965152 -0.095594056
0.32172322 -0.19021024 0.21789895 0.009340966 0.33298895 0.18019187 -0.24657667 0.20200558
-0.020771323 -0.27556252 0.007943975 0.0644082 0.00587608 -0.08946657 0.07250543 -0.1466679
0.05418063 -0.18636264 -0.23987788 0.29825568 0.025831394 0.05844567 0.15603575 0.1507013
0.13035755 -0.038616788 0.10457823 0.26700854 0.16631371 0.07980134 -0.10603938 0.2612772
-0.15215974 -0.14232735 -0.25097796 -0.23709154 -0.047828022 0.22831286 -0.071793765 0.11082376
-0.0798879 -0.14384176 -0.34295526 -0.12526695 0.23474574 0.28837243 0.2600464 0.1888704
0.10369448 -0.21517496 0.11538639 -0.14724602 -0.16496746 -0.2858433 0.12554464 -0.06830445
0.035431795 -0.029422311 -0.049101412 0.24971408 -0.2762482 0.2557819 -0.16113554 -0.07214859
-0.0107431775 0.22902533 0.21615866 0.14047578 0.016934678 0.36343536 -0.23279782 -0.04073628
-0.07956772 0.04411831 -0.28553838 0.07210791 0.035033226 -0.19054677 -0.29269806 0.12313974
0.16549517 -0.22703215 -0.07420787 -0.104920864 0.044849932 -0.23133458 0.11271858 0.30489764
-0.08107935 0.06053531 0.050789203 0.1684598 0.13448606 0.0513362 -0.16055463 -0.09294283
-0.017752104 0.0745608 -0.17926918 -0.054818064 0.09564406 0.16429487 0.28456098 0.17386006
-0.16888413 0.26749307 0.031343162 -0.28509408 -0.30368203 0.071105234 0.26794413 -0.24581152
-0.05479519 -0.2178282 -0.24700916 0.06840034 -0.17793642 0.28376234 -0.09277468 0.054031104
-0.0040945695 -0.112308905 -0.2661054 -0.044297058 0.20715465 0.015342554 0.2426175 -0.27827215
0.101126544 -0.14206253 0.07236367 -0.04002802 -0.16839978 -0.30301416 0.11688065 -0.1865797
0.09661996 0.27698064 0.22380045 -0.06179406 -0.29875198 -0.13962005 -0.14780192 -0.23109442
0.3482144 0.0014484713 0.22415422 -0.28133726 0.11560933 0.27350432 -0.2237261 0.23038797
0.2656721 -0.09093089 0.22219716 -0.2751504 -0.0848993 0.041252095 0.24702644 -0.22649246
-0.024345051 -0.2632826 -0.22596103 -0.3026582 0.16241798 0.030158639 0.30342117 0.121583916
-0.2617858 -0.32914907 0.19687992 0.1124542 -0.037432596 -0.12646033 0.048332296 0.18933387
-0.27528435 0.28983632 0.30464652 -0.071568154 0.049187303 -0.04523921 0.13244043 -0.2995386
-0.26156953 -0.27502602 -0.06564226 0.013007308 0.14155892 0.011863919 0.04880961 0.20762788
0.031145431 0.2952855 0.30307665 0.27242753 0.30421913 0.21079135 -0.30682805 -0.28930572
0.11187307 -0.02400566 0.26972726 0.1900172 0.20254259 0.14084543 0.02088646 0.25057155
0.12143597 -0.13032839 -0.26268646 -0.1458418 -0.23838946 -0.2299003 0.14654705 -0.23075177
-0.32323834 0.0071762996 0.10039496 0.16092412 -0.11830572 -0.20273767 0.30585948 0.0352587
