JetsonTests/Model3_NC.params (torch, 65123 bytes, 8 tensors)

fc1.weight f4 [64, 42]
0	0x3e16974a	0.1470615
1	0xbe808d55	-0.25107828
2	0x3d80a5d9	0.06281633
3	0x3e0c35f6	0.1369246
4	0xbe316675	-0.1732424
5	0x3ee34c3e	0.44394106
6	0xbefc7c77	-0.4931371
7	0x3eab777b	0.33489594
8	0xbec8f11f	-0.3924646
9	0x3dd60fd3	0.10452237
10	0x3ee14dbe	0.44004625
11	0x3e1cec78	0.1532458
12	0x3ee5d439	0.44888476
13	0x3db108a2	0.08644225
14	0x3e02f5a2	0.12789014
15	0xbd843fd6	-0.06457488
16	0x3bbbb53e	0.005728393
17	0x3e0da495	0.13832314
18	0xbcd61f57	-0.02613799
19	0xbf161c35	-0.5863679
20	0xbd7c534e	-0.061602883
21	0xbe1b657e	-0.15175435
22	0xbd7fa5e2	-0.062414058
23	0x3e1345c6	0.14382085
24	0xbdcaff03	-0.09911921
25	0x3dc94436	0.09827463
26	0xbe64ffe3	-0.22363238
27	0xbef07bbb	-0.469694
28	0xbed173b1	-0.40908578
29	0x3e0e5677	0.13900171
30	0xbee52742	-0.44756514
31	0x3f1a5cda	0.6029793
32	0xbdb7c865	-0.08973769
33	0x3f20d449	0.6282392
34	0xbe901517	-0.2814109
35	0xbee43044	-0.44568074
36	0xbe114805	-0.1418763
37	0x3dab7117	0.083711796
38	0xbd4fde06	-0.050748847
39	0x3f0d7629	0.55258423
40	0xbdc23ae4	-0.09483889
41	0x3ec39add	0.3820409
42	0x3e21cfda	0.15801945
43	0xbe233863	-0.15939479
44	0x3e2160bd	0.15759559
45	0xbe3721b7	-0.17883955
46	0x3d9eb118	0.07748622
47	0xbdcfb720	-0.1014235
48	0x3e5f395d	0.21799226
49	0xbed5fc35	-0.4179398
50	0x3d9a1698	0.07523841
51	0xbf2c9bd1	-0.67425257
52	0xbe24e41a	-0.16102639
53	0xbe9e8ad4	-0.30965292
54	0xbe84bf66	-0.25927275
55	0xbe217baa	-0.1576983
56	0xbdb5760a	-0.08860405
57	0xbc0f883a	-0.008760506
58	0xbdce736c	-0.10080609
59	0x3e857844	0.26068318
60	0x3cec0d23	0.028814858
61	0xbcc0fce4	-0.023558088
62	0xbe5a6d8b	-0.2133085
63	0x3dd0c81e	0.10194419
64	0x3d2f42ff	0.0427885
65	0x3e3a64d7	0.1820253
66	0x3dd4092a	0.103533104
67	0xbb0654b0	-0.0020497255
68	0xbe3da6b8	-0.1852063
69	0x3e2d4ce1	0.16923858
70	0xbcce0fcb	-0.025154015
71	0x3e58a447	0.21156417
72	0x3d17e711	0.037085596
73	0x3eff193e	0.49823946
74	0x3e168f2e	0.14703056
75	0x3d3054ad	0.043049503
76	0xbd6e4ce1	-0.058178786
77	0x3ea0d2a2	0.314107
78	0xbdffcc5a	-0.12490149
79	0x3edb1a98	0.42793727
80	0xbe718cc9	-0.23588862
81	0x3efbac5c	0.49154937
82	0xbe5fac97	-0.21843182
83	0xbd96c620	-0.07362008
84	0x3e8a2e0c	0.26988256
85	0x3c58b88b	0.013227592
86	0x3d1c91a3	0.038224827
87	0x3e22e051	0.15905882
88	0xbe0cb7c9	-0.13741983
89	0x3e5755a6	0.21028766
90	0xbe9d1245	-0.30678
91	0x3d83b5aa	0.06431134
92	0xbeb116af	-0.3458762
93	0xbba120f1	-0.004917257
94	0xbc848488	-0.016176477
95	0xbf138d8a	-0.57637846
96	0x3e208692	0.15676335
97	0x3dc98cc5	0.09841303
98	0x3d873b4b	0.06603106
99	0x3ecf5bb7	0.4049966
100	0x3ce3c825	0.027805397
101	0x3dd69b98	0.10478896
102	0xbeb079b9	-0.34467867
103	0xbee17bb3	-0.44039688
104	0x3e94990c	0.29023015
105	0xbd38efce	-0.04515057
106	0x3dfcb9d7	0.12340134
107	0xbe0f189f	-0.13974236
108	0xbcb6a43a	-0.022295106
109	0xbedd53b9	-0.43227938
110	0x3da5f2c2	0.08102943
111	0xbdacabc9	-0.08431203
112	0x3dbf7db5	0.093501486
113	0x3eea25d3	0.45731983
114	0x3e4af49c	0.19819874
115	0xbd84174d	-0.06449757
116	0x3e32692a	0.1742293
117	0xbed5c3ae	-0.41750854
118	0xbd456475	-0.048191506
119	0x3e95bfa1	0.29247764
120	0xbca6c486	-0.020357382
121	0x3f280699	0.6563507
122	0xbe0c307e	-0.13690373
123	0xbd01c0bd	-0.03167795
124	0xbd079fb4	-0.03311129
125	0xbf144a37	-0.5792574
126	0x3e033995	0.12814935
127	0xbe8a636e	-0.27028984
128	0xba0638ff	-0.00051201874
129	0xbe0ecc4c	-0.1394512
130	0xbec0318a	-0.37537795
131	0xbdb39d0a	-0.08770187
132	0xbdda3451	-0.1065451
133	0x3f0e45a1	0.55574995
134	0x3dc08d9f	0.09402012
135	0x3eba635f	0.3640394
136	0xbe61b5a1	-0.22041942
137	0xbe3cfeaf	-0.18456529
138	0xbe828e86	-0.25499362
139	0x3db36032	0.08758582
140	0xbddc7e11	-0.10766233
141	0xbd3d1b91	-0.046168867
142	0xbec3623a	-0.38160878
143	0x3e5c3f04	0.21508414
144	0x3dcd32bb	0.10019442
145	0x3b02c0d8	0.001995137
146	0x3db1b9c6	0.086780116
147	0x3e4f0e6f	0.2022035
148	0x3d518759	0.05115447
149	0xbb730247	-0.0037080215
150	0xbc3404a9	-0.010987439
151	0x3ca6c1ce	0.020356085
152	0x3e5e33c2	0.21699432
153	0xbdfd8c46	-0.12380271
154	0x3e1f3023	0.15545706
155	0x3e1ef670	0.15523696
156	0x3d8f355a	0.06992598
157	0x3d8b3a89	0.06798274
158	0xbe15e55f	-0.1463828
159	0xbc5c7b82	-0.013457181
160	0x3dfd0ece	0.123563394
161	0xbe4c444d	-0.1994793
162	0xbdcfb4f8	-0.10141939
163	0xbcc401a6	-0.023926567
164	0xbe2dd851	-0.1697705
165	0xbe2e260e	-0.17006704
166	0xbe512687	-0.20424853
167	0xbef48c8a	-0.47763473
168	0x3ef2a6b0	0.47392797
169	0xbd7fc146	-0.06244018
170	0x3db5c386	0.08875184
171	0x3aef4b6e	0.0018256733
172	0x3e5afd7b	0.21385758
173	0x3e7d3439	0.24726953
174	0x3e04b891	0.12961031
175	0x3f0cd555	0.5501302
176	0x3e316361	0.17323066
177	0x3c05650b	0.008141766
178	0xbdfef9e7	-0.12450009
179	0xbee86c96	-0.45395344
180	0x3dbe7d19	0.09301204
181	0x3be984ef	0.0071264426
182	0x3d8a5f35	0.067564406
183	0x3e8450e9	0.2584298
184	0xbde28a3d	-0.11061523
185	0x3ead7dd2	0.33885056
186	0xbe8028fd	-0.25031272
187	0xbd42b804	-0.047538772
188	0xbd435a1a	-0.04769335
189	0x3d6f3cbb	0.058407526
190	0xbe480974	-0.19534856
191	0xbc87355e	-0.01650494
192	0xbcd841c1	-0.026398541
193	0xbe406153	-0.18787126
194	0xbcbc480d	-0.022983575
195	0x3df186ee	0.11793314
196	0x3dc9a89f	0.09846615
197	0xbbb9aa92	-0.0056660855
198	0x3d58a01c	0.052887067
199	0xbda5e2b8	-0.08099884
200	0x3d357cef	0.0443086
201	0xbe8dc562	-0.27689654
202	0xbd2be9e7	-0.041971114
203	0x3ed84d67	0.42246553
204	0xbd58a707	-0.052893665
205	0x3e32de6f	0.17467664
206	0xbe8db4db	-0.27677044
207	0xbe9ae2a8	-0.3025105
208	0xbe7481d6	-0.23877653
209	0xbf42089d	-0.7579439
210	0xbc3a0b63	-0.011355254
211	0xbcc48788	-0.023990408
212	0x3d7476ab	0.059683483
213	0xbe8cedb5	-0.27525106
214	0x3db5fe12	0.08886351
215	0xbc03f76c	-0.008054595
216	0x3e790f71	0.24322297
217	0xbdaf12da	-0.085485175
218	0x3e5c1006	0.21490487
219	0x3dc57374	0.096411616
220	0xbe9d00ed	-0.3066477
221	0xbe3c1af8	-0.18369663
222	0x3d1e14e3	0.038594138
223	0xbdbfec72	-0.0937127
224	0x3cc98419	0.024599122
225	0x3e5249de	0.2053599
226	0x3e5a8819	0.2134098
227	0xbd739d0d	-0.059475947
228	0xbea1602a	-0.3151868
229	0x3d4a121f	0.049333688
230	0xbcddf910	-0.027096301
231	0x3de59d34	0.11211625
232	0x3e17a316	0.14808306
233	0xbe306b5c	-0.17228454
234	0x3e2fa3f0	0.17152381
235	0xbe6f1931	-0.23349454
236	0xbbfc9989	-0.0077087325
237	0x3e495a9d	0.19663472
238	0x3e71f4a2	0.23628476
239	0x3d47914d	0.048722554
240	0x3e7cd65c	0.24691147
241	0xbdff843f	-0.12476396
242	0x3d2c4ee7	0.042067435
243	0xbf076d33	-0.52901
244	0xba54ee5c	-0.00081226765
245	0x3ee1ffa1	0.44140342
246	0xbdc2cb04	-0.095113784
247	0x3c81346a	0.015772063
248	0xbce2c860	-0.027683437
249	0x3d5cbbcf	0.053890046
250	0x3cb667e5	0.022266338
251	0xbdcd2a95	-0.100178875
252	0xbf0f3b6f	-0.55950063
253	0x3d98a68a	0.0745364
254	0xbee76973	-0.4519764
255	0x3e4c901a	0.19976845

fc1.bias f4 [64]
0	0xbd454c13	-0.048168253
1	0xbc5f6c08	-0.0136365965
2	0x3d5b6da8	0.053571373
3	0x3c26df8f	0.010185136
4	0x3dca199d	0.098681666
5	0xbe873a99	-0.26411894
6	0x3e8c2853	0.27374515
7	0x3d6903aa	0.05688826
8	0xbb6b28e6	-0.0035882532
9	0x3dc88f1b	0.0979292
10	0x3d026673	0.031835984
11	0xbd9a311d	-0.07528899
12	0xbdb88d7f	-0.09011363
13	0xbeb49ef0	-0.3527751
14	0xbd524191	-0.05133206
15	0x3d6557ac	0.055991814
16	0x3d0a827d	0.03381585
17	0xbe4ff396	-0.20307764
18	0x3de72727	0.112867646
19	0xbda31900	-0.07963753
20	0xbe1a226c	-0.15052193
21	0xbe4aa38b	-0.19788949
22	0xbbd33532	-0.0064455504
23	0xbe1ace5b	-0.15117781
24	0xbde3df64	-0.11126593
25	0xbd8375fb	-0.06418987
26	0x3d8dfe79	0.069333024
27	0x3e3b3d70	0.18285155
28	0xbcbccd18	-0.023047015
29	0x3e0d24cc	0.13783568
30	0xbeb072ff	-0.34462735
31	0xbdea2cfa	-0.1143436
32	0xbe1fa64e	-0.15590784
33	0x3c52b1aa	0.012859741
34	0xbd1fdf3e	-0.03903126
35	0x3cac6be0	0.021047533
36	0xbe63e810	-0.22256494
37	0xbdc11d57	-0.09429424
38	0x3e5594ec	0.2085759
39	0x3d804df0	0.062648654
40	0x3e1d15a1	0.15340282
41	0xbe23d992	-0.16000965
42	0xbe1323b3	-0.14369087
43	0xbe3f49e4	-0.18680531
44	0xbe72950d	-0.23689671
45	0xbdc73cd8	-0.09728402
46	0xbd7a7ca7	-0.061154034
47	0xbe143c73	-0.14476185
48	0xbd4399d0	-0.04775411
49	0x3cf93548	0.030420914
50	0xbde16dda	-0.11007281
51	0x3dc33cdd	0.09533093
52	0x3d8ebb62	0.06969334
53	0xbe0639a8	-0.13107932
54	0xbe397007	-0.18109141
55	0xbe05f29d	-0.13080831
56	0x3dc082d4	0.093999535
57	0x3e232f79	0.15936078
58	0x3d25d6f7	0.04048821
59	0xbe50702e	-0.20355293
60	0x3c94bb7b	0.018155804
61	0x3cf8a11d	0.030350262
62	0xbe87a226	-0.26490897
63	0xbe4f34e9	-0.20235027

fc2.weight f4 [128, 64]
0	0xbd355d8b	-0.044278663
1	0xbf28e5eb	-0.65975827
2	0x3e106335	0.14100344
3	0xbefbae25	-0.491563
4	0xbd19aef9	-0.037520383
5	0x3dc16fd3	0.09445157
6	0xbe893dae	-0.2680487
7	0x3e416a91	0.18888308
8	0x3d964f96	0.073393986
9	0xbe7910cc	-0.24322814
10	0xbe723f5f	-0.23656987
11	0xbe2b1bcf	-0.16709827
12	0x3e09fa25	0.13474329
13	0x3dea7c18	0.1144945
14	0xbeb8f3cd	-0.36123505
15	0xbe9b6931	-0.30353692
16	0xbe96222c	-0.29322946
17	0x3e006d80	0.12541771
18	0xbc80c739	-0.015719997
19	0x3e80e6c6	0.25176066
20	0x3e1accb7	0.15117155
21	0x3de85291	0.11343873
22	0xbe5c0acd	-0.21488495
23	0xbdfd93f9	-0.12381739
24	0xbe900efd	-0.28136435
25	0xba884739	-0.0010397203
26	0x3d53c0eb	0.051697653
27	0xbeb7d006	-0.35900897
28	0x3e1210b7	0.14264189
29	0xbf02e9fb	-0.51138276
30	0x3e9127c9	0.28350666
31	0x3e43d182	0.1912289
32	0xbb3e8108	-0.0029068608
33	0x3e4f033e	0.2021608
34	0x3e0fbb49	0.14036287
35	0xbc9f777a	-0.01946615
36	0x3ee610e4	0.44934762
37	0xbe26b45e	-0.16279742
38	0xbebbf074	-0.3670689
39	0x3e2d6361	0.16932441
40	0x3ea4aeb9	0.32164553
41	0xbf093127	-0.53590626
42	0x3d37b846	0.04485347
43	0x3e07a666	0.1324707
44	0x3e1c9e72	0.15294817
45	0x3cc53e4d	0.024077559
46	0x3e55df08	0.20885861
47	0x3e341035	0.17584307
48	0xbecee3c5	-0.4040815
49	0xbe6a4e90	-0.22881532
50	0xbefcab51	-0.49349454
51	0x3e0d092a	0.13773027
52	0xbf006754	-0.50157666
53	0xbe03b7b3	-0.12863044
54	0x3d102e18	0.03520021
55	0xbf52059a	-0.820398
56	0xbec64f5c	-0.3873242
57	0xbe340ad7	-0.1758226
58	0x3e9a5956	0.30146283
59	0x3e781c1f	0.24229477
60	0x3e380114	0.17969161
61	0xbdef06e5	-0.11671237
62	0x3d5ec865	0.05439033
63	0x3e22acce	0.15886232
64	0x3e6debed	0.2323453
65	0x3e28d89e	0.16488883
66	0x3e5d2eac	0.21599835
67	0x3de2d8f2	0.11076535
68	0x3e49db91	0.19712664
69	0x3ddd39d7	0.10802048
70	0x3e57177a	0.2100505
71	0x3e6494fb	0.22322457
72	0x3e583ba5	0.21116503
73	0x3e30ca67	0.1726471
74	0x3e735395	0.23762353
75	0xbc55af12	-0.013042228
76	0x3e0abda7	0.13548909
77	0x3c34a967	0.011026717
78	0xbd844da7	-0.064601235
79	0xbe3574e8	-0.17720377
80	0xbcb9a6c1	-0.022662522
81	0x3e43e565	0.19130476
82	0xbe5f497e	-0.21805379
83	0xbee27e3d	-0.44236937
84	0x3d1f5760	0.038901687
85	0xbd684401	-0.05670548
86	0xbdf99705	-0.12187008
87	0xbe0cae38	-0.13738334
88	0xbd751280	-0.059832096
89	0x3d99b08e	0.07504378
90	0x3e1f52b8	0.15558898
91	0xbed626bd	-0.4182643
92	0x3e25d2d3	0.16193704
93	0x3e01c74c	0.12673682
94	0xbc9f5e8e	-0.019454267
95	0xbd8aa2e9	-0.06769354
96	0x3eb4be10	0.35301256
97	0x3ddfcf77	0.10928243
98	0xbe44945e	-0.19197223
99	0x3e5a85e7	0.21340142
100	0xbd54dfad	-0.051971126
101	0x3c99b3c8	0.018762484
102	0x3e22b940	0.1589098
103	0xbebc9f97	-0.36840507
104	0x3f079a75	0.5297006
105	0x3eafc71d	0.343316
106	0xbdada91e	-0.08479522
107	0x3e9f947d	0.31167975
108	0xbc8cd160	-0.017189682
109	0x3d5654c4	0.052326933
110	0xbeb2abcc	-0.34896696
111	0x3e39c794	0.1814254
112	0xbe0a16e9	-0.13485302
113	0xbcd97da9	-0.026549177
114	0x3dcad383	0.09903624
115	0x3e68447c	0.22682375
116	0x3e894fab	0.26818594
117	0xbba91fee	-0.005161277
118	0x3d315a01	0.043298725
119	0xbdea56d0	-0.114423394
120	0xbc976b48	-0.018483773
121	0x3da9f024	0.08297756
122	0x3ea12d8b	0.3148006
123	0x3dedc1ac	0.116092056
124	0xbe32dd7f	-0.17467307
125	0xbf24bd29	-0.64351135
126	0x3e57ddac	0.21080655
127	0xbe13f0f6	-0.14447388
128	0x3e8b5356	0.27212018
129	0x3e00efa1	0.12591411
130	0xbcbfb290	-0.023400575
131	0x3ea1ef0c	0.3162769
132	0xbed74118	-0.4204185
133	0xbe40009f	-0.18750237
134	0x3e81fc90	0.25388002
135	0x3d7a635e	0.06112992
136	0x3e805cf0	0.25070906
137	0xbe6f2294	-0.23353034
138	0xbf0b543b	-0.544254
139	0xbdabe146	-0.08392577
140	0x3f4db6b0	0.80356884
141	0xbe506583	-0.20351224
142	0xbec1cd40	-0.37851906
143	0x3d748d20	0.0597049
144	0xbe940217	-0.28907844
145	0xbe7d698e	-0.24747297
146	0x3eb16ee0	0.34654903
147	0xbe57435f	-0.21021794
148	0xbdae7339	-0.08518071
149	0xbe9c82d7	-0.30568573
150	0xbd9a0d6b	-0.075220905
151	0xbaf3cc4a	-0.0018600312
152	0xbd7a4fb0	-0.061111152
153	0xbe75a794	-0.23989707
154	0x3d545be4	0.051845446
155	0xbf2825b9	-0.6568256
156	0x3d8af636	0.06785242
157	0xbcb6a522	-0.022295538
158	0x3e15fabe	0.14646432
159	0xbf010187	-0.50392956
160	0x3f11aeb9	0.5690723
161	0xbef14306	-0.47121447
162	0x3e5f1376	0.21784768
163	0x3e0ad68a	0.13558403
164	0x3e5f5dfe	0.21813199
165	0xbe2c7b13	-0.16843824
166	0x3e38a258	0.18030679
167	0xbe274c71	-0.16337754
168	0x3f4face0	0.8112316
169	0xbd46c50d	-0.048527766
170	0x3e9e769a	0.3094986
171	0x3d95912c	0.0730308
172	0x3dc22f12	0.09481634
173	0xbdb67da5	-0.089106835
174	0x3dfa56c3	0.1222358
175	0xbc5e213c	-0.013557728
176	0xbdcec2ac	-0.100957245
177	0x3e8d7ca5	0.2763416
178	0xbf2596bd	-0.64683133
179	0x3da0a481	0.07843877
180	0x3daa518f	0.08316337
181	0x3e0709c3	0.13187318
182	0xbe13ad3f	-0.14421557
183	0xbea0067e	-0.31254953
184	0xbde70c68	-0.11281663
185	0x3eee14aa	0.4650014
186	0xbe4837a1	-0.1955247
187	0x3e90b3c3	0.28262147
188	0x3e8c0afc	0.2735213
189	0xbf937cd9	-1.1522475
190	0xba349a33	-0.00068894326
191	0xbe1a7360	-0.15083075
192	0xbd65ffb4	-0.05615206
193	0x3e64257c	0.22279924
194	0xbe764f61	-0.24053718
195	0x3e38a9fb	0.18033592
196	0xbdda2991	-0.106524594
197	0xbdd3d59c	-0.10343477
198	0xbe175b0a	-0.14780822
199	0x3d800241	0.0625043
200	0x3dc9d2ca	0.09854658
201	0xbe724d0e	-0.23662207
202	0xbd7e86b5	-0.062140185
203	0xbea6d87b	-0.32587036
204	0x3d5ca454	0.053867653
205	0xbe838139	-0.25684527
206	0x3de294cd	0.11063538
207	0x3e44d107	0.19220363
208	0xbd803ea8	-0.06261951
209	0x3d987aeb	0.0744532
210	0x3e0fd58a	0.14046302
211	0xbe0efa75	-0.1396273
212	0xbe255cef	-0.16148733
213	0xbee222f2	-0.44167286
214	0xbb3ab03b	-0.002848639
215	0xbdd4deb4	-0.1039404
216	0xbef32852	-0.474917
217	0xbe021d3f	-0.12706469
218	0x3e39231f	0.18079804
219	0xbd55b1c4	-0.052171484
220	0xbce795ac	-0.028269611
221	0xbe25e3d7	-0.16200195
222	0x3ea88393	0.32912883
223	0xbea2cf4d	-0.31798783
224	0x3eed1ee9	0.46312645
225	0xbda057ab	-0.07829221
226	0xbe47853d	-0.1948442
227	0xbda2c1b3	-0.079471014
228	0x3e492943	0.19644646
229	0x3d37bb20	0.04485619
230	0xbe8aa0fa	-0.2707594
231	0x3dd435b9	0.10361809
232	0xbde43300	-0.1114254
233	0xbe3ec2b3	-0.1862896
234	0x3e4a4333	0.19752197
235	0x3dc883fd	0.097908
236	0xbd53f21b	-0.05174456
237	0xbde62582	-0.11237623
238	0x3e112df7	0.1417769
239	0xbe579ffd	-0.21057124
240	0xbdae96d1	-0.0852486
241	0xbbc18d5f	-0.0059067453
242	0x3d744b52	0.059642144
243	0xbe4a4fec	-0.1975705
244	0xbc331d4f	-0.010932281
245	0x3dec00a6	0.11523561
246	0xbdb152ee	-0.08658396
247	0xbd51c3c6	-0.051212095
248	0xbe8fcd11	-0.2808614
249	0xbd6aae7b	-0.057295304
250	0xbdcd1853	-0.10014405
251	0x3de9ecbd	0.11422107
252	0xbd98943a	-0.07450147
253	0xbdd37e0f	-0.10326778
254	0xbecf5beb	-0.40499815
255	0xbe56c224	-0.20972496

fc2.bias f4 [128]
0	0x3d491cf8	0.049099892
1	0xbe302a1d	-0.17203565
2	0x3ebd8bcb	0.37020716
3	0xbe783622	-0.242394
4	0xbe5e4f09	-0.21709837
5	0xbd8f1dbb	-0.069880925
6	0xbbca6873	-0.006177002
7	0xbc8432c6	-0.016137492
8	0x3dd25e5a	0.102719024
9	0xbcac7fb1	-0.021056982
10	0x3e8cef0d	0.2752613
11	0xbdaa2fb7	-0.08309882
12	0xbdf9d4c2	-0.121987835
13	0x3c7aff5d	0.015319672
14	0xbcc13422	-0.02358443
15	0xbdaf9aac	-0.08574423
16	0xbe1a4f0a	-0.15069214
17	0xbd8fcd3d	-0.07021568
18	0xbebe7669	-0.37199715
19	0x3e44150a	0.19148651
20	0xbe64e6f4	-0.22353727
21	0xbd5453eb	-0.051837843
22	0xbc424033	-0.011856127
23	0xbe30830c	-0.1723749
24	0x3d5a768e	0.05333572
25	0x3eaaf887	0.33392736
26	0xbe18f2f6	-0.14936432
27	0xbe31a700	-0.17348862
28	0xbdfb3250	-0.12265456
29	0xbe13ad60	-0.14421606
30	0x3dbfaade	0.09358762
31	0xbd6b4219	-0.057436083
32	0x3c97e4d2	0.018541727
33	0x3d348ac9	0.04407767
34	0x3e1e1fa9	0.15441765
35	0xbe99ad22	-0.30014902
36	0xbd9b55a0	-0.07584691
37	0x3dc2c64d	0.09510479
38	0xbe2be046	-0.16784772
39	0xbe3681cb	-0.1782295
40	0xbcb74f8f	-0.022376804
41	0xbec58967	-0.38581392
42	0xbe2306a8	-0.15920508
43	0xbe6a098c	-0.22855204
44	0x3e2d9950	0.16953015
45	0xbe2f8fda	-0.17144719
46	0xbda97214	-0.08273712
47	0xbcf48cff	-0.029852388
48	0xbe680561	-0.22658302
49	0x3e6dec29	0.23234619
50	0xbc2feeab	-0.010738055
51	0x3bf724ad	0.007542214
52	0x37f8a7e3	2.9642082e-05
53	0xbda10d72	-0.078638926
54	0xbca3c2e6	-0.019990396
55	0xbd642488	-0.0556989
56	0xbc3ce413	-0.0115289865
57	0xbd4c69ed	-0.049905706
58	0xbe0d9c01	-0.13829042
59	0xbd4fb2e4	-0.050707713
60	0x3e89768c	0.26848257
61	0xbe2945a4	-0.16530472
62	0xbd4ba1bd	-0.049714793
63	0xbdc5d196	-0.09659116
64	0xbeabd029	-0.3355725
65	0xbe10b91d	-0.14133115
66	0xbcc921c6	-0.024552237
67	0xbd222bb4	-0.03959246
68	0xbe0c4f71	-0.1370218
69	0xbe80ac9d	-0.25131693
70	0xbeb87a3e	-0.36030763
71	0xbe10dea7	-0.14147435
72	0xbdb87be1	-0.09008003
73	0xbe111df6	-0.14171585
74	0xbc39db45	-0.011343782
75	0xbd1d7e64	-0.038450614
76	0xbdd89fc5	-0.105773486
77	0xbddcacfe	-0.10775183
78	0xbe3e3452	-0.18574646
79	0x3d28ac0e	0.04117971
80	0xbdfd8ad9	-0.12379999
81	0xbb67b5a4	-0.003535607
82	0xbe2f771a	-0.17135277
83	0xbcc88860	-0.024479091
84	0xbd0ecbe7	-0.034862425
85	0xbe1ea0aa	-0.15490976
86	0x3cca9352	0.02472845
87	0x3e8878b1	0.2665458
88	0xbe3a7220	-0.18207598
89	0xbdd8dc4e	-0.10588895
90	0xbea2bbbb	-0.31783852
91	0xbdd586ff	-0.10426139
92	0xbe2d010c	-0.1689493
93	0x3e0d79a4	0.13815933
94	0xbd5174c9	-0.051136766
95	0x3cf3a8e3	0.029743617
96	0x3d04794d	0.032342244
97	0xbd93dc45	-0.072197475
98	0xbe15cb21	-0.14628269
99	0xbe5fc203	-0.21851353
100	0xbde64f48	-0.112455904
101	0x3c7ba233	0.0153584955
102	0xbe962dc1	-0.29331782
103	0xbd9fdce5	-0.07805804
104	0xbe4530b0	-0.19256854
105	0xbd7a7962	-0.061150916
106	0xbd5b124c	-0.053484246
107	0xbd9231ce	-0.07138406
108	0x3d979e2b	0.07403215
109	0xbe37666a	-0.17910162
110	0xbe811d82	-0.25217825
111	0xbd4fc99e	-0.050729387
112	0x3dc15dbf	0.09441709
113	0xbd8774f6	-0.066141054
114	0xbc3ab7a4	-0.011396322
115	0xbd8bc70b	-0.06825074
116	0xbd9aa00a	-0.07550056
117	0xbe5ef080	-0.21771431
118	0x3f25f1d3	0.6482212
119	0xbe2c3b25	-0.16819437
120	0xbd3d241c	-0.046177015
121	0xbdf76563	-0.12079885
122	0xbdd1df36	-0.10247652
123	0xbe8eb498	-0.27872157
124	0xbe28fb87	-0.165022
125	0xbe73ed28	-0.23820937
126	0x3beff547	0.0073229405
127	0x3a73f814	0.0009306681

fc3.weight f4 [32, 128]
0	0x3d1a0aad	0.037607837
1	0xbc32e63c	-0.01091915
2	0xbd0fa431	-0.035068695
3	0x3d74db97	0.05977973
4	0x3d3f1225	0.046648163
5	0x3a481292	0.0007632162
6	0x3d26f429	0.040760193
7	0xbd930755	-0.07179133
8	0x3d357cc0	0.044308424
9	0xbd60872b	-0.054816406
10	0xbd4c46cc	-0.049872205
11	0xbd984991	-0.07435907
12	0x3d01efab	0.031722706
13	0xbdb16250	-0.0866133
14	0xbbc1a71f	-0.005909815
15	0xbd826944	-0.06367734
16	0x3d84c190	0.064822316
17	0xbdd06c45	-0.10176901
18	0xbd071971	-0.032983247
19	0x3cece349	0.028916972
20	0x3d2e053f	0.04248547
21	0xbdee3022	-0.11630274
22	0x3d51f6d2	0.051260777
23	0x3d20e7f0	0.039283693
24	0xbd88c902	-0.06678964
25	0x3c53b297	0.012920997
26	0xbdcd790b	-0.10032853
27	0xbdbde20d	-0.092716314
28	0x3daa71c4	0.0832248
29	0xbdab824c	-0.083744615
30	0xbccf86fa	-0.025332917
31	0x3a08af2e	0.0005214092
32	0xbcc6f0b2	-0.024284694
33	0xbace1021	-0.001572136
34	0xbce710e7	-0.028206302
35	0xbd697aba	-0.057001807
36	0xbd9242fd	-0.07141683
37	0xbbbca4d4	-0.0057569537
38	0x3c7bb0b1	0.015361951
39	0xbd8ba40f	-0.06818401
40	0x3d2fcc20	0.04291928
41	0xbd810a4d	-0.06300793
42	0xbddcd344	-0.10782483
43	0xbccde791	-0.025134834
44	0x3c3c9dce	0.011512233
45	0xbd2fd782	-0.042930134
46	0x3d46c924	0.048531666
47	0xbd32938d	-0.043597747
48	0x3d19cc6c	0.037548468
49	0xbc7c379e	-0.01539412
50	0x3ca3b33a	0.019982923
51	0xbd9babc8	-0.07601124
52	0xb93051c6	-0.00016815131
53	0xbda3d21c	-0.079990596
54	0x3c8ac5a0	0.016939938
55	0xbdfdede7	-0.12398892
56	0xbd3cee90	-0.04612595
57	0xbd9460c7	-0.07245021
58	0x3d209fd8	0.03921494
59	0xbd91d852	-0.07121338
60	0xbd07781b	-0.033073526
61	0xbcf21925	-0.029553005
62	0xbd913c21	-0.07091547
63	0xbd70a23f	-0.05874848
64	0x3b5c3e3d	0.0033606433
65	0x3ac92ee1	0.0015349054
66	0x3ccbcc48	0.024877682
67	0xbd789dfa	-0.060697533
68	0xbdf85140	-0.12124872
69	0x3c25b024	0.010112796
70	0xbde9f419	-0.11423511
71	0xbd81ad26	-0.063318536
72	0xbd92c3d9	-0.07166261
73	0xbd9ce33d	-0.0766053
74	0x3d954d85	0.07290176
75	0x3d30c49b	0.043156248
76	0x3d0d0b1a	0.034434415
77	0xbdfa7e28	-0.12231094
78	0xbdc8256f	-0.09772765
79	0xbd990e6f	-0.07473456
80	0xbd9787ed	-0.07398973
81	0xbd8c4141	-0.06848384
82	0xbdb5b36b	-0.08872112
83	0x3d5e1d92	0.05422742
84	0xbc90ac33	-0.017660236
85	0xbd59ed95	-0.05320509
86	0xbd533bdf	-0.05157077
87	0xbd56d133	-0.0524456
88	0xbb05a5b7	-0.0020392963
89	0x3c979935	0.018505672
90	0xbd1e6a56	-0.03867563
91	0xbd4813b9	-0.048846934
92	0xbcad011d	-0.021118695
93	0x3d9223f7	0.07135766
94	0x3d310104	0.04321386
95	0xbdbff89c	-0.0937359
96	0x3d37d35e	0.04487931
97	0xbce1d167	-0.027565671
98	0xbcbdf20a	-0.023186702
99	0x3d4dc2d6	0.05023464
100	0xbd0761c1	-0.03305221
101	0xbd8d1262	-0.06888272
102	0xbdc8be35	-0.09801904
103	0xbd5f6283	-0.054537307
104	0xbd90d4c0	-0.07071829
105	0xbd74b2e4	-0.059740916
106	0xbdaa7d08	-0.08324629
107	0x3d2e2347	0.04251411
108	0xbc9ca7dd	-0.019123012
109	0xbb5edb7f	-0.0034005342
110	0xbd11cfbd	-0.035598505
111	0x3d08fa8f	0.033442076
112	0xbda6b3c6	-0.08139758
113	0x3d2501fd	0.0402851
114	0x3d3714f0	0.044697702
115	0xbc80dd6a	-0.015730578
116	0xbd83ba9d	-0.06432078
117	0xbb7cb0c9	-0.003855752
118	0xbd07ff8b	-0.03320269
119	0xbc84c561	-0.016207399
120	0xbdad48b1	-0.084611304
121	0xbdbe4adb	-0.09291621
122	0xbdbfb0fe	-0.093599305
123	0xbd8c7d42	-0.068598285
124	0x3dab0440	0.0835042
125	0xbdd7ab1b	-0.10530683
126	0xbd964012	-0.07336439
127	0xbdc5ae82	-0.09652425
128	0xbde81af0	-0.11333263
129	0x3b98d636	0.004664208
130	0x3d9accb3	0.075585745
131	0x3b5a37bc	0.003329738
132	0x3d7d8dd5	0.06190284
133	0xbd4b50b4	-0.04963751
134	0xbd39d58e	-0.045369677
135	0xbce29d4b	-0.027662894
136	0xbdac9a96	-0.084279224
137	0x3d0cbc9a	0.034359552
138	0xbd807b6b	-0.0627354
139	0xbd9bee4d	-0.07613812
140	0xbb9ee56e	-0.0048491275
141	0x3d6eb8c3	0.05828167
142	0x3b88b470	0.0041719005
143	0xbcbd90a0	-0.023140252
144	0x3d77f01a	0.060531713
145	0xbd0f8395	-0.035037596
146	0x3d059b38	0.03261873
147	0x3d992a18	0.07478732
148	0xbd5187e9	-0.051155005
149	0xbd9da88c	-0.076981634
150	0x3d08f247	0.03343418
151	0xbd44d80e	-0.04805761
152	0xbd7cda6c	-0.06173174
153	0xbcf38c1b	-0.029729893
154	0xbdb605ef	-0.088878505
155	0xbdd45b2b	-0.103689514
156	0xbd82fb54	-0.06395593
157	0xbe0d5edd	-0.13805719
158	0xbca6dd2f	-0.02036914
159	0xbd819395	-0.06326977
160	0xbd834509	-0.06409652
161	0xbc8488f6	-0.01617859
162	0x3d1a91f6	0.037736855
163	0xbdd7f344	-0.10544446
164	0xbd0a3c5b	-0.033748966
165	0x3d380026	0.044922017
166	0xbd75c6d8	-0.060004085
167	0x3cb68c53	0.022283709
168	0x3ae39869	0.0017364147
169	0xbdba9df1	-0.09112156
170	0xbdd3efae	-0.1034845
171	0xbdaf1f5a	-0.08550902
172	0xbd39d868	-0.045372397
173	0x3ca7abc7	0.020467652
174	0xbdf1724d	-0.11789379
175	0x3d0c9cde	0.034329288
176	0x3d3257da	0.043540813
177	0xbd4055ac	-0.046956703
178	0xbdab94a0	-0.08377957
179	0xbdde3665	-0.10850219
180	0x3c21cfef	0.009876235
181	0xbd02b2ea	-0.031908907
182	0xbc319db5	-0.010840823
183	0xbc22e4e0	-0.009942263
184	0x3b3b11df	0.0028544588
185	0x3c26e421	0.010186226
186	0x3a82ada1	0.0009969958
187	0xbdf65481	-0.120278366
188	0xbda72c45	-0.081627406
189	0xbd569d3f	-0.052396055
190	0xbdf98620	-0.121837854
191	0x3d95f4a5	0.07322053
192	0xbd0aeb90	-0.033916056
193	0x3c011556	0.007878622
194	0xbd389ae0	-0.045069575
195	0xbd4936ad	-0.04912441
196	0xbd285133	-0.041093063
197	0x3ce7d32b	0.028298935
198	0xbb8f0705	-0.0043648505
199	0xbdaff33a	-0.08591314
200	0xbd4ba706	-0.049719833
201	0xbd25905f	-0.040420886
202	0x3cd60125	0.026123593
203	0xbdd1a06b	-0.102356754
204	0x3ca1ec53	0.019766008
205	0x3c533b0f	0.012892499
206	0x3da09407	0.07840734
207	0xbd2c78a6	-0.042107247
208	0x3be60e93	0.0070207804
209	0xbd203674	-0.03911443
210	0x3d0b2300	0.033968925
211	0xbc93e4ba	-0.018053401
212	0x3d0966e8	0.033545405
213	0xbd00e3be	-0.031467192
214	0xbd8d316a	-0.068941906
215	0x3c5cf6a7	0.013486541
216	0xbc931522	-0.017954413
217	0xbd16e294	-0.036837175
218	0xbd834e09	-0.064113684
219	0xbdbd09a3	-0.09230354
220	0x3d7a6180	0.06112814
221	0xbd7570d8	-0.05992207
222	0xbdf73410	-0.12070477
223	0x3d28ec96	0.04124125
224	0xbd67e530	-0.056615055
225	0xbcfa2783	-0.030536419
226	0xbc465d46	-0.012107199
227	0xbdebb6e9	-0.11509497
228	0xbd16b7f4	-0.036796525
229	0xbce4cf56	-0.027930897
230	0x3c48b13b	0.012249286
231	0xbc8b7e90	-0.017028123
232	0xbd36e45a	-0.044651367
233	0x3d00f368	0.03148213
234	0x3d1d173f	0.038352247
235	0xbd16078a	-0.036628284
236	0x3d4ea201	0.050447468
237	0x3c27761e	0.010221032
238	0x3d420c30	0.047374904
239	0xbd2f730a	-0.04283432
240	0xbdb95c1a	-0.0905077
241	0x3c6454a5	0.013936196
242	0xbdae4226	-0.085087106
243	0x3db9ef5f	0.090788595
244	0xbd9fa179	-0.0779447
245	0x3cb6ace9	0.022299247
246	0x3d1b5a9e	0.037928216
247	0xbc37b984	-0.011213664
248	0xbd9e2181	-0.07721234
249	0xbd339b4a	-0.043849267
250	0xbe0d524d	-0.13800927
251	0xbdc6ce60	-0.09707332
252	0xbd342854	-0.043983772
253	0xbd7b397a	-0.06133411
254	0x3be65767	0.007029462
255	0x3d83f7f0	0.06443775

fc3.bias f4 [32]
0	0x3d2acfb8	0.041702002
1	0xbdf4e864	-0.119583875
2	0xbe031596	-0.12801203
3	0xbe109a38	-0.1412133
4	0xbdf31df1	-0.11870945
5	0x3d870e9a	0.06594582
6	0x3e8197b9	0.25311068
7	0x3e64671d	0.2230496
8	0xbc9cdb73	-0.01914761
9	0xbdbf4392	-0.0933906
10	0xbd021de0	-0.031766772
11	0xbce69351	-0.028146418
12	0xbdffed76	-0.12496464
13	0xbdaac42d	-0.08338199
14	0xbd551b22	-0.05202783
15	0x3d061034	0.032730296
16	0x3dbe13ef	0.09281146
17	0xbd75af2a	-0.059981503
18	0xbda57d07	-0.08080488
19	0xbe0a7d69	-0.13524403
20	0xbe2e0e28	-0.16997588
21	0xbe67ebc2	-0.22648528
22	0xbbfbdcef	-0.0076862494
23	0xbda5c926	-0.08095007
24	0xbe35b922	-0.17746404
25	0xbde7c3c0	-0.11316633
26	0xbdb4a3bb	-0.088202916
27	0xbd957974	-0.07298556
28	0xbd27d5d7	-0.040975418
29	0xbd5ca8bf	-0.053871866
30	0xbeb08bf6	-0.34481782
31	0xbe8e9592	-0.27848488

out.weight f4 [12, 32]
0	0xbdb5ef04	-0.08883479
1	0xbe427353	-0.18989305
2	0xbf57f187	-0.84352916
3	0xbff790da	-1.934108
4	0xbe0fb4e2	-0.14033845
5	0x3ddb029b	0.10693856
6	0xbd9f19b4	-0.07768574
7	0xbf76fb60	-0.9647732
8	0x3e907570	0.28214598
9	0xbe264b22	-0.16239598
10	0x3e9e46bb	0.30913338
11	0xbd0790a0	-0.03309691
12	0xbfc508cd	-1.5393311
13	0x3e33b3d4	0.17549068
14	0x3e8137f3	0.25237998
15	0xbdf67863	-0.12034681
16	0x3e7e4f9d	0.24835058
17	0xbcfaedb9	-0.030630933
18	0xbee83efa	-0.45360547
19	0xbe6ccd32	-0.23125151
20	0xbef79bd4	-0.48361075
21	0xbf505c64	-0.81390977
22	0xbedfa2a5	-0.43678775
23	0x3e185a90	0.14878297
24	0xbf98510e	-1.1899736
25	0xbf076402	-0.52886975
26	0x3e879b33	0.26485595
27	0xbf625570	-0.8841162
28	0xbde92419	-0.11383838
29	0xbe8ef5cc	-0.27921903
30	0xbfb528d2	-1.4153082
31	0xbf666943	-0.90004367
32	0xbdd58162	-0.104250684
33	0x3debe9b3	0.11519184
34	0x3d6264ca	0.0552719
35	0xbf1a2e3f	-0.60226816
36	0x3c947a2e	0.018124666
37	0x3d7c0207	0.06152537
38	0x3d103a50	0.03521186
39	0xbf821e5a	-1.0165513
40	0x3cab9f37	0.020949943
41	0x3e7d9259	0.24762858
42	0xbf26ad6a	-0.6510836
43	0xbcfa4785	-0.030551681
44	0xbee23213	-0.4417883
45	0xbe62a2a6	-0.22132358
46	0xbd7be2a7	-0.06149545
47	0x3db104a8	0.08643466
48	0x3dd4e318	0.10394877
49	0x3e6d49ee	0.23172733
50	0xbf02eff7	-0.5114741
51	0xbdcb25ac	-0.09919295
52	0xbe1fa7c9	-0.15591349
53	0xbf03d291	-0.51493174
54	0x3d812ecf	0.06307756
55	0xbf573d9b	-0.8407838
56	0xbe91f8de	-0.28510183
57	0x3c4d65a1	0.012536437
58	0xbe386c92	-0.18010166
59	0x3e541777	0.20712076
60	0xbda51d00	-0.08062172
61	0x3dce4856	0.10072391
62	0xbbf4a180	-0.0074655414
63	0xbdb259f8	-0.087085664
64	0x3d33a188	0.04385522
65	0xbbe1aa36	-0.006886746
66	0xbed8485f	-0.42242715
67	0xbe3f7add	-0.18699212
68	0xbe3db683	-0.18526654
69	0xbed052f1	-0.4068828
70	0xbfaca64a	-1.3488247
71	0xbf6f7027	-0.93530506
72	0x3e15c219	0.14624824
73	0xbf3a1888	-0.7269368
74	0xbf90dd6a	-1.131757
75	0x3e5e6468	0.2171799
76	0xbf9121be	-1.1338422
77	0xbe59fa05	-0.21286781
78	0xbd0dca7f	-0.034616943
79	0xbe6a1aa1	-0.2286172
80	0x3d2120d0	0.039337933
81	0xbe027f85	-0.12743957
82	0x3fc60341	1.5469743
83	0xbdb92291	-0.09039796
84	0x3ec50207	0.3847811
85	0xbdf33347	-0.11875015
86	0xbfa4291d	-1.2825047
87	0xbf94afbf	-1.1616133
88	0x3e403cda	0.18773213
89	0xbf0ade4d	-0.54245454
90	0xbf996db2	-1.1986601
91	0xbe17f8d4	-0.14841014
92	0x3e0384a1	0.12843563
93	0x3d8d6d2b	0.06905588
94	0xbda5dd61	-0.08098865
95	0x3e04bc12	0.12962368
96	0xbd98f384	-0.07468322
97	0xbc98d639	-0.018656837
98	0xbf61ff51	-0.88280207
99	0xbfad6aa0	-1.3548164
100	0x3ccf3d66	0.025297832
101	0xbe55c1b2	-0.2087467
102	0xbee8ab88	-0.45443368
103	0xbd0ea9e7	-0.03483
104	0xbe3016d9	-0.17196216
105	0xbcc30828	-0.0238076
106	0x3e5145b6	0.20436749
107	0x3d0dab83	0.034587394
108	0x3ecdae79	0.40172175
109	0xbec2cc9d	-0.38046733
110	0xbe4eb820	-0.20187426
111	0x3e5c12d7	0.21491562
112	0xbe314fe8	-0.17315638
113	0xbe335408	-0.17512524
114	0xbec0537a	-0.37563688
115	0xbf81938a	-1.012315
116	0xbf29a991	-0.6627436
117	0xbf047490	-0.5174036
118	0xbf1c8664	-0.61142564
119	0xbee5d675	-0.4489018
120	0x3e8e812e	0.2783293
121	0xbf1c8356	-0.611379
122	0xbf2377fd	-0.6385496
123	0xbf6a7463	-0.9158384
124	0xbe2faac9	-0.17154993
125	0x3d838e31	0.06423605
126	0xbf172b93	-0.59050864
127	0x3e736564	0.23769146
128	0xbdc14660	-0.09437251
129	0xbdb8708c	-0.090058416
130	0xbf1e10da	-0.61744463
131	0xbea24a41	-0.31697276
132	0xbdd41821	-0.10356165
133	0xbf4dba6b	-0.80362576
134	0xbf92f8e0	-1.1482201
135	0xbf61062d	-0.8790005
136	0x3e3e70e4	0.18597752
137	0x3e01daa6	0.12681064
138	0x3e8a16c7	0.26970503
139	0xbf6205c4	-0.8829005
140	0xbe05fc2d	-0.13084479
141	0x3d245fa2	0.040130265
142	0xbdb69589	-0.0891524
143	0xbd7450cb	-0.059647363
144	0xbf247d2d	-0.64253503
145	0xbee025b9	-0.4377878
146	0xbf21923c	-0.6311376
147	0xbca42914	-0.020039119
148	0xbf2d8223	-0.677767
149	0xbe6c2303	-0.23060231
150	0x3e3ae62b	0.18251865
151	0xbe1a58ca	-0.15072933
152	0xbd95b9c6	-0.07310824
153	0xbf54caa3	-0.831217
154	0x3da32bdd	0.07967351
155	0xbe846d32	-0.2586456
156	0x3d42caa6	0.04755654
157	0xbe050244	-0.12989146
158	0xbf50ad8b	-0.81514806
159	0x3eb7f3a5	0.35928074
160	0x3d07ea69	0.033182535
161	0xbc8fdd7f	-0.017561672
162	0xbf5354ac	-0.82551074
163	0xbf8d90a7	-1.1059769
164	0xbe726794	-0.23672324
165	0xbf8adae5	-1.0848051
166	0xbe878598	-0.2646911
167	0x3e3059ee	0.17221805
168	0xbf63cd21	-0.88984877
169	0x3e43cae5	0.19120367
170	0x3e4883e4	0.19581562
171	0xbf851d18	-1.0399504
172	0xbe9d661c	-0.30741966
173	0xbd122c5f	-0.035686847
174	0xbf305bd3	-0.6889011
175	0xbd6ca64b	-0.057775777
176	0xbe65f371	-0.22456147
177	0x3e9a3080	0.30115128
178	0xbcddcc12	-0.027074847
179	0xbf358b60	-0.70915794
180	0xbfa5d2ae	-1.2954919
181	0xc0081943	-2.1265419
182	0x3e82874e	0.25493854
183	0x3e198536	0.14992222
184	0xbe9a2f0d	-0.30114022
185	0x3d930c59	0.071800895
186	0xbd28f58b	-0.041249793
187	0xbf2e2bb4	-0.68035436
188	0xbe013eeb	-0.12621658
189	0x3dcd8996	0.10036008
190	0x3dc7f255	0.09763018
191	0xbf42ccf9	-0.76094013
192	0x3cfa2477	0.030534966
193	0xbdb14c3f	-0.08657121
194	0x3e18f7d9	0.14938296
195	0x3e5250b1	0.20538594
196	0x3d5a17d4	0.05324538
197	0xbe9ae7f3	-0.30255088
198	0x3e02f4dc	0.12788719
199	0xbdab4747	-0.083632044
200	0xbf466089	-0.7749105
201	0xbef36945	-0.47541252
202	0xbf8feb24	-1.1243634
203	0xbf4ccfd9	-0.8000465
204	0x3e7ebf59	0.24877681
205	0xc0027806	-2.0385756
206	0xbf821ba4	-1.0164685
207	0xbe1e284c	-0.1544506
208	0x3de14b64	0.11000708
209	0x3b035b8d	0.0020043582
210	0xbf387f21	-0.72068983
211	0xbe4013dd	-0.18757577
212	0xbeb7f4b1	-0.35928872
213	0x3e88dc37	0.2673051
214	0x3e623423	0.22090201
215	0xbfa60f84	-1.2973485
216	0xbfb9b422	-1.4508097
217	0x3d31a1ea	0.043367304
218	0xbf2cf98e	-0.6756829
219	0x3d55ae3d	0.05216812
220	0x3dfbba1d	0.12291358
221	0x3c792418	0.015206359
222	0x3de28fee	0.11062609
223	0x3da6397c	0.08116433
224	0x3dd994f7	0.10624116
225	0xbe02c456	-0.12770209
226	0xbf9578e2	-1.1677516
227	0xbed19833	-0.4093643
228	0xbe05c040	-0.13061619
229	0xbe116bb7	-0.14201246
230	0x3db029cd	0.08601723
231	0x3ccde0f5	0.025131682
232	0xbf9a0370	-1.2032299
233	0xbc4f2694	-0.012643475
234	0xbf2b51aa	-0.66921484
235	0x3eca7592	0.39542824
236	0x3f274dd3	0.65353125
237	0xbe7cc841	-0.24685766
238	0xbfd0d3cc	-1.6314635
239	0xbe1da425	-0.15394647
240	0xbf0d5c14	-0.55218625
241	0x3de7a6e7	0.11311131
242	0xbe0ab4f7	-0.13545595
243	0xbe96a521	-0.29422858
244	0xbfdcdfbb	-1.7255777
245	0xbc98a52d	-0.01863345
246	0xbf894105	-1.0722967
247	0xbfa756a2	-1.3073313
248	0xbfdd46bb	-1.728721
249	0xba089527	-0.0005210214
250	0xbfb243b5	-1.3926913
251	0x3e7df539	0.24800576
252	0xbdbbd046	-0.091705844
253	0x3eb3840e	0.35061687
254	0xbe216803	-0.15762334
255	0xbfdf9088	-1.7465982

out.bias f4 [12]
0	0x3d463bf1	0.04839701
1	0xbe3a1ee4	-0.18175846
2	0xbed68732	-0.4190002
3	0xbdd294b4	-0.10282269
4	0x3d1f8096	0.03894099
5	0x3cd28941	0.025700213
6	0xbdec9ee8	-0.115537465
7	0xbe8c3f54	-0.27392066
8	0xbe9b172c	-0.30291116
9	0x3cd34763	0.025790876
10	0xbd70a6b2	-0.058752723
11	0xbe9ba35b	-0.30398068
