JetsonTests/Model3.params (torch, 64709 bytes, 8 tensors)

fc1.weight f4 [64, 42]
0.52115715 -0.15112104 0.23666634 -0.15374938 0.44835314 0.21159916 -0.011427778 0.04108156
-0.61525124 0.039594848 -0.07427142 -0.34322846 0.3747489 0.077005245 0.12999561 -0.14888436
0.32448867 -0.35351956 -0.35652226 -0.16272151 0.24917988 -0.16466148 0.13869096 -0.18080173
0.1838378 -0.23619421 -0.22721183 0.28100854 -0.09408688 0.039277818 -0.04769914 0.082264856
0.08678544 0.042569328 -0.4880196 0.27507025 -0.12564053 0.3905881 0.025047565 0.027561648
0.20158684 -0.21435694 0.21356238 -0.0027046273 0.35683993 -0.13115874 0.17634703 -0.018828023
0.1434871 -0.032550093 -0.348991 0.1262858 -0.00093393034 0.044239707 0.26236925 0.19187117
-0.07333072 -0.19955014 -0.04052249 0.0046938164 -0.2860996 0.22287418 0.45079163 0.08183837
0.10960827 0.08918297 0.27638176 0.27756682 -0.16062173 0.16908629 0.10172101 -0.023537258
0.034216672 0.026787668 -0.030797966 0.2752647 -0.28376943 0.16437624 -0.032209214 0.60892105
-0.28620166 -0.29672006 -0.47910842 -0.6291422 0.80861706 0.10065858 0.5030697 -0.031866193
0.30130598 0.16008282 -0.07073946 0.38444152 -0.8113249 0.36565676 0.094367966 -0.2941899
0.24413988 0.010432109 0.06622432 -0.011551339 0.1048251 -0.030990696 -0.3169519 -0.10568266
-0.0034817012 -0.011250647 0.17233272 0.13197584 0.3360723 -0.09049696 -0.23135182 0.19393747
0.1185538 0.052110218 -0.034191918 -0.038627427 0.12330811 -0.17676015 -0.035939768 0.3009787
0.054462787 0.27245697 -0.01719188 -0.2031859 -0.005196566 -0.56674594 0.015508757 0.31710047
-0.26329213 0.11506564 0.17729327 -0.04749227 0.16282262 -0.2991134 0.122957654 0.20368443
0.21365659 0.30056977 0.05400401 -0.15675995 -0.10644361 0.03250525 0.2111308 0.097267725
-0.025160616 0.44383767 -0.3104156 0.0819124 -0.017447505 -0.11386938 0.07533233 -0.62978095
0.064559154 0.3095344 0.043684453 -0.26223123 -0.17763619 -0.63724923 -0.438801 -1.0477998
0.0073518143 0.09058324 -0.026718546 -0.5267185 0.18147111 0.13542132 0.23646955 0.58849406
-0.021400684 0.007566691 -0.052756418 -0.13169716 -0.13579594 -0.050257966 -0.14731073 -0.054630686
-0.090786375 -0.09323847 0.4575517 0.26396984 0.29971054 0.23016852 0.102733575 0.17229691
0.20043194 0.112987764 0.466027 -0.20835072 -0.07342586 0.08782611 -0.07614126 -0.21021774
-0.3280859 -0.46347058 0.16174285 -0.07812136 -0.43352705 -0.14811683 -0.22821213 0.12686522
0.08640475 0.113115236 -0.034508962 -0.22785136 -0.015531004 0.20799576 0.29892474 0.5541168
0.40794757 0.6700391 0.28294823 0.034231566 -0.0961338 0.21133606 -0.12181012 -0.071903594
0.21114558 -0.23549017 0.68036866 -0.5746357 -0.12290645 0.43568698 -0.75346124 -0.055673342
-0.5763245 -0.08015904 -0.4852911 -0.20654114 -0.16630861 0.791882 -0.7429262 0.18978071
-0.31464678 0.10369537 0.09199528 0.14091128 0.011932359 0.5811873 -0.06939593 0.34801185
-0.048875116 0.19210857 0.010063266 0.15181437 0.30183744 0.2945831 0.09992514 -0.098488025
-0.09676873 -0.45663854 0.06312894 -0.30679068 -0.44575804 -0.35595942 0.03262179 -0.45086402
00000000: 8e6a 053f 79bf 1abe a958 723e 7a70 1dbe
00000010: 8b8e e53e 73ad 583e 933b 3bbc 2345 283d
00000020: 1b81 1dbf 352e 223d 9d1b 98bd a4bb afbe
00000030: 16df bf3e edb4 9d3d 921d 053e 2475 18be
00000040: 6123 a63e 8400 b5be 168a b6be 78a0 26be
00000050: 0329 7f3e 059d 28be 0105 0e3e 1724 39be
00000060: fa3f 3c3e e5dc 71be 38aa 68be 5ae0 8f3e
00000070: 9fb0 c0bd c7e1 203d 2c60 43bd 7a7a a83d
00000080: 91bc b13d 2d5d 2e3d b4dd f9be 02d6 8c3e
00000090: e9a7 00be 2afb c73e 8d30 cd3c f7c8 e13c
000000a0: c86c 4e3e 6380 5bbe 19b0 5a3e 1e40 31bb
000000b0: b9b3 b63e 7a4e 06be 5194 343e 3a3d 9abc
000000c0: 48ee 123e 3f53 05bd f3ae b2be 1151 013e
000000d0: 01d3 74ba b234 353d 4355 863e e079 443e
000000e0: 6b2e 96bd df56 4cbe e9fa 25bd 96ce 993b
000000f0: a67b 92be 2139 643e 29ce e63e e09a a73d
00000100: 4d7a e03d 90a5 b63d e981 8d3e 3d1d 8e3e
00000110: 067a 24be f524 2d3e 1b53 d03d 35d1 c0bc
00000120: c826 0c3d d071 db3c 044c fcbc 7fef 8c3e
00000130: 3a4a 91be 3f52 283e cfed 03bd 40e2 1b3f
00000140: 0689 92be b1eb 97be b34d f5be 770f 21bf
00000150: 8701 4f3f 1626 ce3d 2dc9 003f 2086 02bd
00000160: c744 9a3e c0ec 233e dadf 90bd 85d5 c43e
00000170: fdb2 4fbf 5d37 bb3e fe43 c13d 0fa0 96be
00000180: ceff 793e 70eb 2a3c 9ea0 873d d441 3dbc
00000190: 8bae d63d 33e0 fdbc 8547 a2be 2770 d8bd
000001a0: 412d 64bb a254 38bc fd77 303e ad24 073e
000001b0: ab11 ac3e 7856 b9bd 7ee7 6cbe 8b97 463e
000001c0: 56cc f23d 8671 553d d30c 0cbd cb37 1ebd
000001d0: f688 fc3d 9d00 35be 9435 13bd e119 9a3e
000001e0: 5f14 5f3d 7b7f 8b3e fcd5 8cbc f70f 50be
000001f0: f547 aabb 4316 11bf 7118 7e3c fe5a a23e
00000200: 3ace 86be 89a7 eb3d 5e8c 353e 4187 42bd
00000210: f9ba 263e 6425 99be 39d1 fb3d a792 503e
00000220: cbc8 5a3e 48e4 993e 4f33 5d3d ae85 20be
00000230: 1bff d9bd 3a24 053d ac32 583e 4d34 c73d
00000240: a31d cebc b13e e33e cbee 9ebe b0c1 a73d
00000250: 12ee 8ebc 5934 e9bd d647 9a3d 5339 21bf
00000260: 9737 843d 4b7b 9e3e 78ee 323d 2c43 86be
00000270: 43e6 35be c422 23bf 86aa e0be 4e1e 86bf
00000280: 7de7 f03b b583 b93d dae0 dabc 06d7 06bf
00000290: 90d3 393e e3ab 0a3e 1325 723e 8ca7 163f
000002a0: 7d50 afbc 01f2 f73b 1d17 58bd 9fdb 06be
000002b0: 170e 0bbe 4cdb 4dbd a0d8 16be 6dc4 5fbd
000002c0: 35ee b9bd d0f3 bebd 3744 ea3e 0e27 873e
000002d0: a973 993e 4cb1 6b3e fb65 d23d 9a6e 303e
000002e0: 083e 4d3e 2166 e73d 179b ee3e e459 55be
000002f0: 4c60 96bd 2dde b33d f3ef 9bbd 5243 57be
00000300: e0fa a7be 044c edbe eb9f 253e 17fe 9fbd
00000310: 42f7 ddbe f0ab 17be 71b0 69be f5e8 013e
00000320: f9f4 b03d f6a8 e73d 4559 0dbd de51 69be
00000330: c175 7ebc d7fc 543e aa0c 993e 99da 0d3f
00000340: 81de d03e af87 2b3f 97de 903e 6636 0c3d
00000350: cce1 c4bd 7b68 583e 9677 f9bd 3142 93bd
00000360: 8c36 583e 5624 71be a42c 2e3f 531b 13bf
00000370: 60b6 fbbd 5d12 df3e d6e2 40bf bb09 64bd
00000380: 018a 13bf 6c2a a4bd 1378 f8be 857f 53be
00000390: ce4c 2abe c7b8 4a3f 6930 3ebf e055 423e
000003a0: 6219 a1be 3d5e d43d 0568 bc3d 0c4b 103e
000003b0: f17f 433c b1c8 143f 741f 8ebd 9c2e b23e
000003c0: 4631 48bd 1cb8 443e 66e0 243c 3a75 1b3e
000003d0: 708a 9a3e 99d3 963e 8da5 cc3d 17b4 c9bd
000003e0: af2e c6bd 87cc e9be bf49 813d ab13 9dbe
000003f0: 663a e4be 5040 b6be 6d9e 053d a6d7 e6be

fc1.bias f4 [64]
-0.26652992 0.054392215 0.026137114 -0.18441626 -0.2358187 -0.036353253 -0.105233066 -0.03698198
-0.16851062 0.08123066 0.22350456 -0.05413936 0.058656275 -0.17837265 0.10887942 -0.16643439
-0.22676301 -0.1651958 -0.29643938 0.026257662 -0.067977525 -0.033814967 -0.28738296 0.029081265
0.04492379 -0.10937422 -0.07440118 0.03232234 0.10480227 -0.12856504 -0.065090515 -0.17104055
-0.20430677 -0.16032054 -0.10958687 0.05649146 0.005034219 0.31960294 0.06919512 -0.20352851
0.06700028 -0.05033914 -0.13296205 -0.18233424 -0.27513796 -0.07155986 -0.056973934 -0.28162688
-0.31560948 -0.07095547 0.21063259 0.083104625 -0.022863233 0.0846159 0.13793832 0.09986454
-0.1768955 -0.038461763 -0.005041257 -0.057824064 -0.24696903 -0.05664946 0.0903932 -0.117701665
00000000: 9c76 88be 5fca 5e3d 801d d63c 9ed7 3cbe
00000010: 757a 71be 26e7 14bd 6f84 d7bd 6b7a 17bd
00000020: 0c8e 2cbe 435c a63d 61de 643e 3cc1 5dbd
00000030: 9041 703d 52a7 36be 2cfc de3d c76d 2abe
00000040: 9034 68be 1629 29be e7c6 97be 4f1a d73c
00000050: cd37 8bbd 9081 0abd dc23 93be d53b ee3c
00000060: 0202 383d 97ff dfbd a55f 98bd 6e64 043d
00000070: 93a2 d63d 8ea6 03be 2d4e 85bd 4125 2fbe
00000080: cb35 51be 112b 24be 156f e0bd 9763 673d
00000090: 17f6 a43b ffa2 a33e 2cb6 8d3d c769 50be
000000a0: 7137 893d 6a30 4ebd 3427 08be d4b5 3abe
000000b0: e2de 8cbe fa8d 92bd 805d 69bd 6631 90be
000000c0: 9197 a1be 1a51 91bd 12b0 573e c232 aa3d
000000d0: ad4b bbbc 1a4b ad3d b43f 0d3e c885 cc3d
000000e0: 1824 35be 158a 1dbd 2131 a5bb edd8 6cbd
000000f0: 73e5 7cbe 4409 68bd 1220 b93d 920d f1bd

fc2.weight f4 [128, 64]
-0.5897081 -0.25675717 -0.6616778 0.003417274 -0.0729527 0.28194153 -0.11367504 0.3294176
0.076982446 -0.30833128 -0.46832454 0.25849316 -0.60095316 0.26145238 -0.12174279 0.24608034
-0.19551389 -0.31527156 0.25127637 -0.44208097 0.17608827 -0.04981029 -0.46972692 -0.338655
-0.0827432 -0.26372054 -0.4326131 0.084108554 -0.3747076 -0.11077513 0.22229686 0.3246001
0.008447326 0.22559166 -0.05463305 0.16572264 -0.14100125 0.40076166 -0.031272717 0.16790846
0.3644819 -0.036332384 -0.5833321 -0.25545934 -0.05731653 -0.07897249 -0.10417209 0.19498093
-0.33548567 -0.15539707 0.3123566 0.383955 -0.42359325 -0.09298484 0.02207044 -0.69606274
-0.117319174 0.23116712 -0.42878735 -0.5749696 -0.18206201 -0.34294188 -0.08542544 -0.43959594
0.19810493 -0.04903231 -0.03799113 -0.09635489 -0.45423642 0.17935042 0.46266234 -0.061612885
-0.02087791 -0.12491576 -0.45725632 0.20535302 -0.20384358 0.07415461 0.34043887 0.06691447
0.5040102 0.17641392 0.272942 0.19019042 0.25130725 -0.58537054 -0.22974704 0.17202346
-0.017902471 0.23703751 0.012613456 -0.45044094 0.48382315 0.030125866 -0.15360972 0.07197594
0.02300211 -0.24552712 0.0090649 -0.5886853 -0.06745737 -0.2611844 0.025795324 -0.36560702
-0.12962109 -0.28875902 0.056887258 0.12800343 0.16833912 -0.18695612 -0.10719083 -0.15292352
-0.03961966 -0.13960563 -0.07591914 0.30156124 0.36552376 -0.208108 -0.58877325 0.16799119
0.12322592 -0.47822317 0.29075924 -0.3160249 -0.11546054 0.18536505 -0.46858856 -0.17824869
-0.017652752 -0.08021304 -0.3305373 0.15865232 0.22566709 0.2730746 0.00012816401 0.07801365
0.25067264 -0.004847534 -0.42392412 0.40582937 -0.1809519 0.32186022 0.13514335 0.06646376
0.32524204 -0.1752084 0.09349582 0.21840066 0.1619819 0.10583388 -0.04710595 0.2060808
0.27220166 0.45622277 0.25088644 0.05237577 -0.02527956 0.16540606 0.17967512 -0.3396932
0.05268176 -0.3074111 0.32127464 -0.89702076 -0.04707149 -0.010423017 -0.0891476 0.6215041
-0.09571011 0.10584198 -0.09799473 -0.11896801 0.2431298 0.2290653 0.3962338 0.2552762
0.08109809 -0.30273193 0.2692475 0.4962312 0.24510564 -0.24098267 -0.08756544 -0.12646036
-0.3591493 -0.024077838 0.0031201125 -0.336589 0.13062717 0.058899432 -0.46268368 -0.051687635
-0.5024353 -0.18010657 -0.5149635 0.15241233 0.40780354 -0.20551836 -0.4367249 0.5271675
-0.21965608 -0.008799805 0.116571955 0.30863887 -0.4447205 0.27311513 -0.1952117 0.433232
-0.2023432 -0.96702045 0.14221206 0.19480206 0.08747137 0.13256876 0.14966758 0.16824543
0.11673446 -0.34216318 -0.17229378 0.048632916 -0.43825915 0.0028266308 0.053975053 -0.19811942
-0.17377736 0.30557868 0.21672454 0.38992018 -0.1869542 0.20491469 -0.06692127 0.047266874
0.38901302 0.1449148 -0.6587855 -0.013001024 -0.038403034 -0.03669693 -0.032919087 0.29727808
0.07508098 -0.4705347 0.112225235 -0.0725246 -0.10895855 -0.5711249 0.06645249 0.1051241
-0.043529373 0.18884937 0.04193249 -0.13196743 -0.37447608 -0.060329814 0.23904105 0.056308687
00000000: 1cf7 16bf ad75 83be b763 29bf 58f4 5f3b
00000010: 3a68 95bd a45a 903e 76ce e8bd 6ca9 a83e
00000020: f9a8 9d3d 99dd 9dbe 3cc8 efbe 3759 843e
00000030: 11d8 19bf 16dd 853e 4954 f9bd 7cfc 7b3e
00000040: cb34 48be 466b a1be 4ca7 803e 7058 e2be
00000050: 7c50 343e e005 4cbd 0c80 f0be 3064 adbe
00000060: 4475 a9bd 6106 87be 777f ddbe 1b41 ac3d
00000070: add9 bfbe 12de e2bd caa1 633e fc31 a63e
00000080: a766 0a3c 8001 673e e8c6 5fbd 32b3 293e
00000090: a262 10be a230 cd3e d217 00bd 32f0 2b3e
000000a0: 5f9d ba3e 44d1 14bd 4155 15bf 91cb 82be
000000b0: bdc4 6abd 54bc a1bd 2d58 d5bd 15a9 473e
000000c0: c7c4 abbe 6920 1fbe 34ed 9f3e c095 c43e
000000d0: 37e1 d8be d66e bebd 11cd b43c 2b31 32bf
000000e0: 0945 f0bd 13b7 6c3e 048a dbbe 3531 13bf
000000f0: 776e 3abe 1496 afbe 88f3 aebd b812 e1be
00000100: 05dc 4a3e 1ad6 48bd 969c 1bbd b655 c5bd
00000110: ad91 e8be a3a7 373e 14e2 ec3e cb5d 7cbd
00000120: 2708 abbc d5d3 ffbd 801d eabe 1048 523e
00000130: 5fbc 50be 5fde 973d 014e ae3e 740a 893d
00000140: d006 013f daa5 343e 0ebf 8b3e 47c1 423e
00000150: 58ab 803e d8da 15bf cf42 6bbe eb26 303e
00000160: 34a8 92bc f6b9 723e aba8 4e3c 32a0 e6be
00000170: abb7 f73e 85ca f63c de4b 1dbe 1f68 933d
00000180: ec6e bc3c 766b 7bbe f284 143c 14b4 16bf
00000190: 1727 8abd f6b9 85be b750 d33c d830 bbbe
000001a0: 64bb 04be 39d8 93be 9d02 693d 5513 033e
000001b0: 1761 2c3e 6d71 3fbe de86 dbbd fc97 1cbe
000001c0: 3948 22bd c7f4 0ebe 7e7b 9bbd 3c66 9a3e
000001d0: ee25 bb3e 431a 55be d8b9 16bf e205 2c3e
000001e0: df5d fc3d abd9 f4be 65de 943e 04ce a1be
000001f0: 9376 ecbd 56d0 3d3e d7ea efbe d386 36be
00000200: 819c 90bc bc46 a4bd 2f3c a9be c175 223e
00000210: 4615 673e 6fd0 8b3e c463 0639 9fc5 9f3d
00000220: 2a58 803e 10d8 9ebb 950c d9be dec8 cf3e
00000230: 744b 39be ddca a43e 0563 0a3e 271e 883d
00000240: 2086 a63e d569 33be bd7a bf3d 6ca4 5f3e
00000250: 95de 253e 6fbf d83d 2bf2 40bd d806 533e
00000260: 045e 8b3e 0896 e93e 3074 803e fa87 563d
00000270: 1417 cfbc 3560 293e c1fc 373e 44ec adbe
00000280: d4c8 573d fd64 9dbe 1c7e a43e 27a3 65bf
00000290: 09ce 40bd 4dc5 2abc 0493 b6bd e51a 1f3f
000002a0: aa03 c4bd aec3 d83d 76b1 c8bd 80a5 f3bd
000002b0: 05f7 783e 1890 6a3e 28df ca3e 90b3 823e
000002c0: c116 a63d aeff 9abe cfda 893e 0412 fe3e
000002d0: f9fc 7a3e 29c4 76be 8255 b3bd d37e 01be
000002e0: 6be2 b7be e33e c5bc cd7a 4c3b 6555 acbe
000002f0: 21c3 053e 8840 713d e0e4 ecbe 6ab6 53bd
00000300: 9a9f 00bf db6d 38be a6d4 03bf fa11 1c3e
00000310: a0cb d03e 6873 52be 689a dfbe 73f4 063f
00000320: 86ed 60be 0f2d 10bc 47bd ee3d ea05 9e3e
00000330: 68b2 e3be bfd5 8b3e 93e5 47be 96d0 dd3e
00000340: 0e33 4fbe a78e 77bf 0aa0 113e 317a 473e
00000350: 3124 b33d 1bc0 073e 7542 193e 8848 2c3e
00000360: 7a12 ef3d 0330 afbe c86d 30be 4f33 473d
00000370: 8163 e0be ff3e 393b f214 5d3d d1df 4abe
00000380: b1f2 31be cf74 9c3e 0aed 5d3e 9ea3 c73e
00000390: ec70 3fbe 28d5 513e 050e 89bd e99a 413d
000003a0: b72c c73e 8c64 143e 2ba6 28bf 3f02 55bc
000003b0: 804c 1dbd 854f 16bd 2ad6 06bd d534 983e
000003c0: 0fc4 993d ede9 f0be 58d6 e53d c787 94bd
000003d0: a925 dfbd 3e35 12bf 3e18 883d 4e4b d73d
000003e0: db4b 32bd bb61 413e 67c1 2b3d 7822 07be
000003f0: 54bb bfbe 651c 77bd 2dc7 743e f0a3 663d

fc2.bias f4 [128]
-0.05720966 -0.019259026 -0.02884774 -0.14095013 -0.22017193 0.028383669 -0.041751232 0.10487594
-0.24166608 0.022295391 -0.09786088 -0.12805623 -0.07653549 -0.24459495 -0.08371418 -0.10113983
-0.308041 -0.16112144 -0.014192998 -0.20839274 0.14517006 -0.0051314207 -0.19616826 -0.05140345
-0.0772546 -0.10771344 0.049337633 0.08731059 -0.14163978 0.07431461 0.17150864 -0.0834934
-0.09294434 0.08091034 0.01773131 -0.0056380704 0.04117223 -0.030757077 -0.021833079 -0.27752393
-0.041531347 -0.34879166 -0.048986588 0.21329954 0.059393205 0.027219607 -0.27463037 -0.20681441
0.115086906 -0.06896433 -0.07464028 -0.09043397 0.09280923 -0.1866959 -0.13391246 -0.43543303
-0.017511567 -0.100280166 -0.010886121 -0.07247508 -0.08874425 -0.085636996 0.042546473 -0.2641252
-0.45267326 0.3039757 0.03778662 -0.3370174 -0.029737016 -0.0060985135 -0.19103332 0.0586172
-0.29501003 -0.025697693 0.004950054 0.06595773 0.08222662 0.06930939 -0.185909 -0.10421367
0.008940661 -0.39833078 -0.12539648 0.105147496 -0.038893774 0.0020923847 -0.09915542 -0.0762375
-0.17332411 -0.22289804 0.08695743 0.039897315 -0.28466627 0.15594973 0.025287343 -0.1173696
-0.09002736 0.039380927 -0.11402374 -0.19169083 -0.030150972 0.008205087 -0.052248444 0.103039846
0.026152026 -0.109592214 0.15825887 0.06955427 0.08703619 -0.023026895 0.013505868 -0.27171996
-0.11002466 -0.17762476 0.0055569066 0.0027898024 -0.034312293 -0.17415622 0.11142398 -0.06676233
0.0036701213 0.0055132145 0.12662351 -0.1341518 0.048471414 -0.320486 -0.04092869 -0.3346226
00000000: ad54 6abd 1bc5 9dbc 1852 ecbc 3b55 10be
00000010: c074 61be de84 e83c 5703 2bbd 32c9 d63d
00000020: 5077 77be d3a4 b63c 496b c8bd 2c21 03be
00000030: a4be 9cbd 1977 7abe 5772 abbd 6622 cfbd
00000040: 8db7 9dbe 05fd 24be c089 68bc e864 55be
00000050: 76a7 143e 7a25 a8bb 55e0 48be 6d8c 52bd
00000060: a937 9ebd dd98 dcbd 4216 4a3d e5cf b23d
00000070: 050a 11be 4232 983d f69f 2f3e 96fe aabd
00000080: 9a59 bebd 52b4 a53d 4141 913c 90bf b8bb
00000090: 36a4 283d 44f6 fbbc 49db b2bc 9e17 8ebe
000000a0: c61c 2abd d294 b2be 29a6 48bd 326b 5a3e
000000b0: 4a46 733d a7fb de3c 5a9c 8cbe 28c7 53be
000000c0: afb2 eb3d 2c3d 8dbd 01dd 98bd 7235 b9bd
000000d0: c412 be3d 362d 3fbe 5920 09be 14f1 debe
000000e0: 6b74 8fbc b05f cdbd b35b 32bc d16d 94bd
000000f0: 8cbf b5bd 7362 afbd 3645 2e3d 6b3b 87be
00000100: cac4 e7be b4a2 9b3e 25c6 1a3d 8b8d acbe
00000110: 0b9b f3bc 0ad6 c7bb 3d9e 43be 9718 703d
00000120: 8e0b 97be f883 d2bc 1034 a23b d914 873d
00000130: 6e66 a83d 15f2 8d3d ee5e 3ebe fa6d d5bd
00000140: da7b 123c 03f2 cbbe ef67 00be 9257 d73d
00000150: 144f 1fbd 6420 093b ff11 cbbd 6822 9cbd
00000160: e07b 31be 623f 64be bd16 b23d 5e6b 233d
00000170: c7bf 91be 49b1 1f3e 6727 cf3c 795f f0bd
00000180: 4460 b8bd e54d 213d 4785 e9bd 9a4a 44be
00000190: 2cff f6bc a16e 063c 7702 56bd 8e06 d33d
000001a0: c63c d63c e271 e0bd 9d0e 223e 7872 8e3d
000001b0: 0840 b23d e6a2 bcbc b747 5d3c e11e 8bbe
000001c0: 9c54 e1bd 44e3 35be b616 b63b 1ed5 363b
000001d0: 0c8b 0cbd 0256 32be 4132 e43d b0ba 88bd
000001e0: 6b86 703b 32a8 b43b 98a9 013e 175f 09be
000001f0: f689 463d be16 a4be d8a4 27bd a753 abbe

fc3.weight f4 [32, 128]
0.034467585 -0.46008015 -0.16467154 0.09319735 0.3154237 0.0909395 -0.104048304 0.18793629
-0.106766075 0.118961714 0.1825098 -0.20508406 -0.13015373 0.22343716 -0.38976535 0.2085614
0.025784306 -0.1441575 -0.17761351 -0.4071682 -0.121158145 0.54064506 0.19145758 0.34371278
0.18066508 -1.1238084 -0.14223316 0.58570594 -0.024597961 -0.050739598 0.22443298 -0.32541022
0.35774913 0.0035541928 0.12072673 -0.042302325 -0.5586927 0.10411153 0.4433824 -0.53523767
0.10434609 0.04195319 -0.60513747 -0.6064215 0.15733713 0.4066465 0.23855019 -0.10277375
-0.3279887 0.003810009 0.34753707 -0.041497905 -0.15577665 0.56143945 0.2076522 0.08434819
-0.30793497 0.0142423045 0.16112168 0.37619162 -0.18173675 0.5619632 0.53469974 0.10303117
-0.107705936 -0.40917182 -1.3733969 -0.29049677 -0.11183655 -0.21676561 0.531548 -0.13828714
-0.102940954 0.25713438 -0.11078526 -0.073771484 -0.02765695 0.06096044 -0.5856027 -0.016125403
0.6723105 -0.6002465 -0.35124883 0.08649609 -0.009867628 -0.43918553 0.28362992 0.21976006
0.018527836 0.24741119 0.4336519 0.23796454 -0.42007542 0.25755507 -0.11539985 -0.35125387
0.10984662 0.108906224 -0.35045204 0.30812794 0.05739549 0.20475279 -0.00021417974 -0.014005558
-0.0885634 0.5563471 -0.22696573 0.004302572 0.25270388 0.1820235 -0.06096439 0.4606489
-0.002364699 0.38382137 -0.034987975 -0.7478951 -0.07499664 0.043325268 0.28178546 -0.15647317
0.1698372 0.46388644 -0.12691192 -0.3982631 -0.101385474 -0.50478953 0.6095082 0.26256853
0.17643078 -0.105791494 0.04376396 0.04966651 0.08943478 0.030670164 0.056017946 -0.5251695
0.03036998 -0.17259176 0.123636045 0.13827069 -0.16721706 -0.5230305 0.2761188 0.072451815
-0.029001988 0.44049224 -0.052046854 -0.17973533 -0.9075686 -0.31010026 -0.09764498 -0.09295606
-0.02441115 -0.23884904 0.32150498 0.35021326 0.22903375 -0.6165892 -0.19971997 -0.23203848
0.021834293 -0.06857521 0.063356966 -0.028498957 0.25658318 -0.08006737 0.29417926 0.1464638
-0.121824466 0.03738608 -0.21624453 -0.52292764 0.5341934 0.16480036 0.06677826 0.06215049
0.022025958 0.17143236 0.4675071 0.025348525 -0.01424216 0.055061996 0.2058299 -0.063012525
0.08508969 0.06283495 -0.40108883 0.113918036 0.07172149 -0.057348303 -0.23556645 0.3451803
0.20951475 -0.2103929 -0.54984885 -0.42520088 0.25829923 -0.16634876 -0.30395457 -0.030764593
0.06323507 -0.41665384 -0.22099105 0.07693576 0.07377605 -0.09506687 -0.10776687 -0.07576551
-0.27036464 0.10881568 -0.05902985 -0.2001989 0.26952985 -0.14566772 0.29282427 0.09057652
-0.24755812 0.05682871 -0.10895213 -0.16172966 0.3392352 0.023235273 -0.07787452 -0.09277988
0.28235105 0.1737177 -0.18661521 0.20258959 0.1144407 -0.077536166 -0.077619344 0.084054284
-0.1363912 0.1144035 0.12755947 -0.1081431 -0.0279952 -0.26556468 -0.20098607 -0.26902986
0.11655454 0.31555533 -0.5442763 -0.75475115 0.31888732 -0.09518091 -0.4904489 0.18075864
-0.3199995 0.26077002 -0.18469265 -0.013002768 -0.067749105 -0.11154191 0.849043 0.39515206
00000000: e22d 0d3d a08f ebbe a89f 28be 41de be3d
00000010: 377f a13e 7d3e ba3d 4717 d5bd 5f72 403e
00000020: 2ca8 dabd 33a2 f33d d9e3 3a3e 8e01 52be
00000030: 0547 05be b6cc 643e 538f c7be 1f91 553e
00000040: 9c39 d33c 069e 13be 51e0 35be 5a78 d0be
00000050: c321 f8bd b767 0a3f 750d 443e 1ffb af3e
00000060: 4400 393e f4d8 8fbf 92a5 11be d3f0 153f
00000070: aa81 c9bc 53d4 4fbd c2d1 653e 2b9c a6be
00000080: e52a b73e 76ed 683b 933f f73d 3445 2dbd
00000090: 7c06 0fbf 6d38 d53d 0503 e33e 5605 09bf
000000a0: 67b3 d53d 1cd7 2b3d 4aea 1abf 703e 1bbf
000000b0: fc1c 213e f833 d03e 8046 743e 0b7b d2bd
000000c0: 23ee a7be 58b1 793b 61f0 b13e b5f9 29bd
000000d0: ea83 1fbe 7fba 0f3f c7a2 543e bebe ac3d
000000e0: a7a9 9dbe 8e58 693c 15fd 243e 309c c03e
000000f0: 3319 3abe d2dc 0f3f 15e2 083f 0202 d33d
00000100: ee94 dcbd f87e d1be 78cb afbf febb 94be
00000110: 900a e5bd cef7 5dbe 8813 083f 259b 0dbe
00000120: b5d2 d2bd 1ea7 833e 62e3 e2bd 8115 97bd
00000130: d490 e2bc a8b1 793d 0fea 15bf 6c19 84bc
00000140: 8a1c 2c3f c1a9 19bf e3d6 b3be dd24 b13d
00000150: d5ab 21bc eddc e0be f137 913e c808 613e
00000160: b0c7 973c 5c59 7d3e 9f07 de3e faac 733e
00000170: 2014 d7be 42de 833e c256 ecbd 8cd7 b3be
00000180: 44f7 e03d 3a0a df3d 736e b3be f2c2 9d3e
00000190: 8917 6b3d b7aa 513e 7095 60b9 9177 65bc
000001a0: ba60 b5bd c36c 0e3f b469 68be 97fc 8c3b
000001b0: 6762 813e 5e64 3a3e ccb5 79bd 2cda eb3e
000001c0: 11f9 1abb 3c84 c43e 8d4f 0fbd 0e76 3fbf
000001d0: d797 99bd d675 313d 2f46 903e 813a 20be
000001e0: cee9 2d3e 8682 ed3e 33f5 01be 24e9 cbbe
000001f0: 30a3 cfbd e339 01bf bb08 1c3f 626f 863e
00000200: 45aa 343e 36a9 d8bd d741 333d 1c6f 4b3d
00000210: 9529 b73d ff3f fb3c 1373 653d 8271 06bf
00000220: 77ca f83c e5bb 30be e534 fd3d d596 0d3e
00000230: f33a 2bbe 54e5 05bf 715f 8d3e 9e61 943d
00000240: 9495 edbc 3388 e13e 152f 55bd 8a0c 38be
00000250: 6a56 68bf 76c5 9ebe 17fa c7bd bf5f bebd
00000260: e4f9 c7bc d894 74be 4d9c a43e 274f b33e
00000270: d387 6a3e cad8 1dbf 6483 4cbe 7f9b 6dbe
00000280: d5dd b23c 2971 8cbd 4cc1 813d a576 e9bc
00000290: df5e 833e 5cfa a3bd aa9e 963e 9bfa 153e
000002a0: 1b7f f9bd 2522 193d 356f 5dbe 96de 05bf
000002b0: e6c0 083f 6dc1 283e 0ac3 883d 8391 7e3d
000002c0: c86f b43c f78b 2f3e 175d ef3e b6a7 cf3c
000002d0: f357 69bc b088 613d 13c5 523e b60c 81bd
000002e0: 8143 ae3d 9caf 803d 845b cdbe dc4d e93d
000002f0: b7e2 923d 0ee6 6abd 5538 71be 79bb b03e
00000300: 098b 563e 3d71 57be e5c2 0cbf eeb3 d9be
00000310: cc3f 843e 5457 2abe ef9f 9bbe 0706 fcbc
00000320: 6381 813d a753 d5be 7a4b 62be 7f90 9d3d
00000330: e617 973d 6bb2 c2bd e0b4 dcbd f32a 9bbd
00000340: 3c6d 8abe c1da de3d 49c9 71bd f100 4dbe
00000350: d1ff 893e eb29 15be 10ed 953e 2f80 b93d
00000360: e07f 7dbe 39c5 683d 4b22 dfbd 769c 25be
00000370: 3cb0 ad3e e657 be3c ad7c 9fbd 6103 bebd
00000380: 5190 903e 0ee3 313e 0f18 3fbe a573 4f3e
00000390: e35f ea3d 48cb 9ebd e4f6 9ebd a724 ac3d
000003a0: 22aa 0bbe 624c ea3d f39e 023e 217a ddbd
000003b0: 3156 e5bc 18f8 87be 4bcf 4dbe 48be 89be
000003c0: 26b4 ee3d 7890 a13e b155 0bbf 5f37 41bf
000003d0: 3345 a33e 35ee c2bd 1e1c fbbe cb18 393e
000003e0: f9d6 a3be a683 853e 1220 3dbe 9009 55bc
000003f0: 0bc0 8abd 1670 e4bd e25a 593f 5f51 ca3e

fc3.bias f4 [32]
-0.003940505 -0.05605564 0.07311858 -0.0480886 0.028065363 -0.059106514 -0.02842795 0.029891364
0.1548896 -0.36292997 -0.079043426 -0.10467654 0.047750033 0.019389626 0.011940443 -0.10139542
-0.25788185 0.028231183 -0.19564652 -0.16515844 -0.017409908 -0.17423151 -0.11549886 -0.20235938
-0.10258063 -0.05722921 -0.06941234 -0.2765317 -0.113196686 -0.031066837 -0.24481896 -0.09639505
00000000: 5a1f 81bb 999a 65bd 32bf 953d 8df8 44bd
00000010: 55e9 e53c ac19 72bd bbe1 e8bc bcde f43c
00000020: 619b 1e3e f5d1 b9be 85e1 a1bd a760 d6bd
00000030: 8a95 433d fed6 9e3c d9a1 433c 67a8 cfbd
00000040: 1709 84be 1545 e73c 9057 48be 4b1f 29be
00000050: 399f 8ebc bf69 32be ab8a ecbd 4c37 4fbe
00000060: cb15 d2bd 2d69 6abd 0f28 8ebd 9095 8dbe
00000070: aad3 e7bd e17f febc d2b1 7abe c56a c5bd

out.weight f4 [12, 32]
-0.09528477 0.16386105 0.2043972 0.035879765 0.018956287 -0.36741412 0.09262185 -0.83607906
-0.17448306 -2.1713772 0.17600748 -0.19727324 0.15089451 0.26565343 0.23505022 -1.3747714
-1.0831571 0.22776006 -0.1654352 -0.37055373 -0.2977999 0.13920374 -0.07930935 -1.4595379
-0.24757876 -1.0612267 -0.14872275 -0.5399046 0.19008204 0.12128694 0.14930592 0.17668384
-1.4562451 0.031875454 -0.20742133 -0.8338485 -0.015379999 0.14276032 0.05239796 -0.501183
0.10678315 -0.18963464 -0.06302254 0.028439332 -0.15833916 0.06815303 0.10602486 0.0124856
0.14290471 0.115602285 -0.16486697 -0.061518908 0.15053213 0.47543246 -0.17228766 0.03502377
-0.62287104 -0.15183523 -0.7923638 -0.11683546 -1.0158708 0.13392425 0.0297613 0.0008118104
-0.5121851 -0.67832386 -1.0722178 -0.15665542 0.16099353 0.051979713 -0.60183495 -1.9305925
-1.7155061 -1.2493205 -1.0367112 -2.0361261 -0.76301163 -0.10444052 -0.10245082 -0.5043401
0.2408791 0.10324115 -0.7223726 -0.91061914 0.2829636 -0.5306714 0.02469602 0.007966532
-0.40026182 0.14180219 -1.2440867 -0.077071264 0.20711344 -0.14329113 -0.4383953 0.1812137
-0.5922558 0.07304297 -0.41014442 0.14988774 0.07505704 -0.33315432 -0.19453405 -0.19819018
-0.45600128 -0.141509 -1.7905928 -1.3978337 0.19219342 0.120193675 0.13292857 -1.6232606
-0.38644361 -0.64618 -0.43535265 -0.9204276 -0.37091047 -0.60126686 -0.21177416 0.17643608
-1.1107557 0.28545302 0.37761554 -0.92111325 0.005062162 -0.26246527 -0.07037367 -0.10659718
-0.09230184 -0.96008235 -0.035682347 0.11406489 -0.08123304 -0.73852825 -0.63002807 -1.3883536
-0.79891735 -1.1179768 -0.68119967 0.12832852 0.030097818 -0.37014735 -0.9845799 -1.4504983
0.0764812 -2.2918406 -0.43158117 -0.35789588 -0.5178402 0.2976894 0.1414334 0.19328362
-0.39376792 0.122705735 0.0048790956 0.13648438 -0.2747334 -0.303312 0.25294134 -0.14320691
0.15052928 -0.118495405 -1.0409143 0.16922984 -0.14145705 -0.9709484 -0.6397809 -0.08900797
0.20083764 -0.32957533 0.2378594 0.26583546 -0.23822016 -0.81760955 -0.47744668 -0.16315117
-1.0640067 -0.536879 -1.0351478 0.25197107 -0.6741305 -0.88085043 -0.0750306 -1.1171606
-0.9161883 0.00070734584 0.17196624 0.11823153 -1.9313394 -0.8176985 0.0042882287 -0.7751625
-0.95332336 -0.7909464 -1.2140346 -1.0208251 0.04425355 -0.20644926 -1.1334699 0.09461909
-0.078016326 0.41215774 -0.76581883 0.07032481 -0.69020855 -0.7399034 -1.318063 0.070838116
0.019017905 -0.8569904 0.14661239 0.21094258 -0.0091961315 -0.85287315 -0.034929797 -0.98436755
0.32054427 -1.8159304 -0.1892146 0.29972687 -0.63396144 -0.589432 -0.558352 0.0684102
-1.8112257 0.06718062 -1.1148993 0.24050921 -0.1691587 0.24971792 -0.27335322 -0.33566743
0.25744307 -1.4816903 -0.8658069 -1.7756957 -1.407407 -0.6151871 -0.5413043 0.15056744
-0.54545885 0.12367037 -0.17061475 -0.68096614 -0.52419215 -0.06418809 -0.047673475 -1.5929116
0.15468933 -1.8922158 -0.12486852 -0.7646949 -1.2350512 -0.016542878 -0.7422742 -0.24835882
00000000: a924 c3bd 31cb 273e 804d 513e a9f6 123d
00000010: 374a 9b3c b41d bcbe 86b0 bd3d 4709 56bf
00000020: b0ab 32be d8f7 0ac0 4e3b 343e ff01 4abe
00000030: 1784 1a3e ba03 883e 01b1 703e 82f8 afbf
00000040: e4a4 8abf ef39 693e d867 29be 38b9 bdbe
00000050: 3a79 98be 6d8b 0e3e f16c a2bd 23d2 babf
00000060: 4985 7dbe 47d6 87bf c74a 18be 3037 0abf
00000070: dea4 423e 4a65 f83d a7e3 183e 9cec 343e
00000080: 3d66 babf d68f 023d 4266 54be 1877 55bf
00000090: 64fc 7bbc c32f 123e 3e9f 563d 874d 00bf
000000a0: 20b1 da3d 952f 42be f611 81bd 9af9 e83c
000000b0: a923 22be d193 8b3d 9023 d93d 6790 4c3c
000000c0: 9d55 123e e4c0 ec3d e3d2 28be 40fb 7bbd
000000d0: 1825 1a3e e26b f33e 2d6c 30be 1675 0f3d
000000e0: 7a74 1fbf b27a 1bbe 5bd8 4abf 6e47 efbd
000000f0: 0e08 82bf 7023 093e f8cd f33c accf 543a
00000100: 901e 03bf a2a6 2dbf 6f3e 89bf 476a 20be
00000110: 7ddb 243e aee8 543d db11 1abf a81d f7bf
00000120: b495 dbbf bce9 9fbf f4b2 84bf e44f 02c0
00000130: bb54 43bf e9e4 d5bd bcd1 d1bd 6f1c 01bf
00000140: 03a9 763e 1970 d33d 69ed 38bf 561e 69bf
00000150: 9be0 903e 15da 07bf 4f4f ca3c 0f86 023c
00000160: 1eef ccbe 9834 113e 3c3e 9fbf 8ad7 9dbd
00000170: 8c15 543e e9ba 12be 5975 e0be 1690 393e
00000180: 139e 17bf 8d97 953d 73fe d1be 2c7c 193e
00000190: 81b7 993d 3493 aabe ef33 47be 5ef2 4abe
000001a0: 0079 e9be bce7 10be 2532 e5bf 37ec b2bf
000001b0: 5ace 443e 1a28 f63d 6d1e 083e 01c7 cfbf
000001c0: f0db c5be 0d6c 25bf 8be6 debe 25a1 6bbf
000001d0: fae7 bdbe a0ec 19bf 53db 58be a9ab 343e
000001e0: 3e2d 8ebf e626 923e d356 c13e 14ce 6bbf
000001f0: 7ee0 a53b d961 86be 1220 90bd 9f4f dabd
00000200: bf08 bdbd f5c7 75bf a727 12bd da9a e93d
00000210: 825d a6bd 3010 3dbf 8549 21bf 92b5 b1bf
00000220: d985 4cbf dd19 8fbf 1a63 2ebf 8d68 033e
00000230: b38f f63c f483 bdbe 6e0d 7cbf eea9 b9bf
00000240: 2da2 9c3d 84ad 12c0 35f8 dcbe 213e b7be
00000250: 2d91 04bf bf6a 983e ebd3 103e 24ec 453e
00000260: f39b c9be 254d fb3d d2e0 9f3b 90c2 0b3e
00000270: dba9 8cbe b64b 9bbe 8781 813e d5a4 12be
00000280: 5924 1a3e b8ad f2bd ae3c 85bf 964a 2d3e
00000290: 1eda 10be 1390 78bf aec8 23bf d049 b6bd
000002a0: 62a8 4d3e 19be a8be 6a91 733e 961b 883e
000002b0: fcef 73be dc4e 51bf e473 f4be 1a11 27be
000002c0: 5f31 88bf e770 09bf b97f 84bf 5a02 813e
000002d0: d193 2cbf 6a7f 61bf a5a9 99bd 1eff 8ebf
000002e0: 518b 6abf 2d6d 393a eb17 303e 5f23 f23d
000002f0: 2136 f7bf b054 51bf 4584 8c3b 0d71 46bf
00000300: 000d 74bf 777b 4abf 7c65 9bbf 66aa 82bf
00000310: 3643 353d 6f67 53be 8b15 91bf a7c7 c13d
00000320: 06c7 9fbd 5706 d33e b40c 44bf 7406 903d
00000330: 82b1 30bf 4f6a 3dbf 4ab6 a8bf 9313 913d
00000340: 70cb 9b3c b963 5bbf 8f21 163e 5501 583e
00000350: 5fab 16bc e555 5abf 8c12 0fbd 83ff 7bbf
00000360: 611e a43e 6870 e8bf 79c1 41be cd75 993e
00000370: 4c4b 22bf 04e5 16bf 28f0 0ebf a61a 8c3d
00000380: 3ed6 e7bf fe95 893d 05b5 8ebf 0c48 763e
00000390: f037 2dbe 0eb6 7f3e f4f4 8bbe 9adc abbe
000003a0: 94cf 833e 07a8 bdbf 85a5 5dbf ff49 e3bf
000003b0: ea25 b4bf e77c 1dbf eb92 0abf 5a2e 1a3e
000003c0: 31a3 0bbf e446 fd3d a2b5 2ebe cc53 2ebf
000003d0: 7531 06bf 0c75 83bd 4345 43bd 87e4 cbbf
000003e0: e166 1e3e 2134 f2bf 11bb ffbd 0cc3 43bf
000003f0: 2816 9ebf ee84 87bc af05 3ebf c651 7ebe

out.bias f4 [12]
0.030133238 -0.020542717 -0.29739988 0.15741053 -0.118394636 0.17115352 -0.16606428 -0.049822118
-0.26069027 -0.096870795 -0.0737516 -0.49815342
00000000: fbd9 f63c 3349 a8bc cc44 98be 3a30 213e
00000010: e378 f2bd de42 2f3e c10c 2abe 4712 4cbd
00000020: 3279 85be 3264 c6bd 140b 97bd f70d ffbe
