JetsonTests/model21.tflite (tflite, 2204 bytes, 6 tensors)

sequential/dense/BiasAdd/ReadVariableOp/resource f4 [2]
3.9811234 3.619779
00000000: baca 7e40 76aa 6740

sequential/dense_1/BiasAdd/ReadVariableOp/resource f4 [4]
0.6824744 -0.0050987857 -6.7080097 0.0
00000000: a4b6 2e3f b713 a7bb 04a8 d6c0 0000 0000

sequential/dense_2/BiasAdd/ReadVariableOp/resource f4 [12]
-0.7060036 -3.5774608 -1.665333 0.19974408 9.241891 7.1165586 -4.7081423 -2.5796726
0.11947906 -3.9735024 -3.8930113 -5.1285954
00000000: a7bc 34bf 1ef5 64c0 a229 d5bf b689 4c3e
00000010: c9de 1341 d9ba e340 1aa9 96c0 5b19 25c0
00000020: 70b1 f43d dd4d 7ec0 1927 79c0 741d a4c0

sequential/dense/MatMul f4 [2, 42]
-0.046101015 -0.15848798 0.034625858 0.25956115 0.01877108 -0.7067699 -0.56043476 -0.08317807
0.41102862 0.11247831 -0.10156875 0.30063504 0.22003655 0.84253335 0.32254183 -0.17524378
-0.6827422 -1.5461938 0.31842792 0.22135077 -0.38574484 -1.0187454 0.3379037 0.9472445
0.03289995 0.7153671 0.08021575 -0.02767774 -0.16101077 -0.51041067 -0.032907605 1.1762481
0.22371346 0.123064294 -0.2487171 -0.28885102 -0.25662532 -1.4981118 0.24229 0.872979
0.001146065 1.3866043 0.23794039 -0.28870106 -0.14605589 0.23324233 0.221069 0.5107982
-0.12631907 -1.1846821 2.0306988 0.6888586 -0.15130718 0.26932016 -0.22430865 -1.2961318
0.15591718 0.27950677 0.22014232 0.9672549 -0.7204869 0.6082719 0.15531006 -0.18547754
-0.040279035 0.4049875 0.05499406 1.350861 0.35110006 -0.53738755 -0.40717027 0.00070619717
-0.062158562 0.39995226 0.14879087 0.8684654 0.34950438 0.122104995 -0.38228193 -0.722065
-0.27632827 -0.05245635 0.16154549 0.041187745
00000000: 6bd4 3cbd ac4a 22be d8d3 0d3d 33e5 843e
00000010: cfc5 993c dfee 34bf a778 0fbf 4459 aabd
00000020: 5872 d23e 075b e63d 4703 d0bd d6ec 993e
00000030: 4351 613e 44b0 573f 3424 a53e 1b73 33be
00000040: 31c8 2ebf aee9 c5bf fc08 a33e c7a9 623e
00000050: 5980 c5be 4066 82bf b701 ad3e 9e7e 723f
00000060: 19c2 063d 4c22 373f 2848 a43d 6ebc e2bc
00000070: 02e0 24be 46aa 02bf 20ca 06bd 4c8f 963f
00000080: 2415 653e 2209 fc3d b2af 7ebe 48e4 93be
00000090: 6564 83be 21c2 bfbf df1a 783e 8d7b 5f3f
000000a0: 8f37 963a 407c b13f a5a6 733e a0d0 93be
000000b0: ad8f 15be 14d7 6e3e e95f 623e acc3 023f
000000c0: c959 01be aaa3 97bf f8f6 0140 0a59 303f
000000d0: 45f0 1abe 55e4 893e 2bb1 65be a6e7 a5bf
000000e0: c1a8 1f3e 831b 8f3e fd6c 613e 049e 773f
000000f0: d471 38bf b5b7 1b3f 9a09 1f3e d3ed 3dbe
00000100: a1fb 24bd 865a cf3e 7441 613d 03e9 ac3f
00000110: 63c3 b33e 3b92 09bf 9f78 d0be 1720 393a
00000120: fa99 7ebd 8bc6 cc3e a25c 183e c053 5e3f
00000130: 3df2 b23e 2f12 fa3d 75ba c3be 40d9 38bf
00000140: e67a 8dbe 78dc 56bd 2e6c 253e 7bb4 283d

sequential/dense_1/MatMul f4 [4, 2]
4.44716 -0.54782736 0.006755992 4.5034227 2.4791656 1.0103992 -0.6990485 -0.012312412
00000000: 224f 8e40 6a3e 0cbf 5e61 dd3b 0a1c 9040
00000010: a6aa 1e40 c354 813f d8f4 32bf 00ba 49bc

sequential/dense_2/MatMul f4 [12, 4]
-0.48566777 0.223723 0.2116015 0.057578683 1.0040381 -1.6677094 1.2447306 -0.4292497
1.4650905 -3.0472512 0.3824208 0.020437777 1.769553 -1.3156463 -2.9523642 0.18647683
0.1272213 -3.3981295 0.42804968 0.20661062 -3.459025 0.49563944 -2.1140814 0.08584142
-0.04090906 -0.5468612 1.2495959 -0.5805098 1.0708891 -0.07076093 -1.4582493 0.5006129
1.2666905 0.8206711 -5.5892525 0.504787 -3.3511214 0.91272956 1.07691 0.47925764
-2.5474005 0.7807094 1.0078166 0.4629777 -1.1759956 1.3471923 -3.4450595 -0.53697145
00000000: 72a9 f8be a417 653e 10ae 583e a0d7 6b3d
00000010: 5284 803f 8077 d5bf 5553 9f3f 9ec6 dbbe
00000020: 1688 bb3f 2a06 43c0 a9cc c33e 206d a73c
00000030: b680 e23f 1967 a8bf 89f3 3cc0 c8f3 3e3e
00000040: 4d46 023e f47a 59c0 5429 db3e bc91 533e
00000050: aa60 5dc0 74c4 fd3e 1c4d 07c0 a0cd af3d
00000060: 4290 27bd 18ff 0bbf c2f2 9f3f 4a9c 14bf
00000070: e512 893f 1beb 90bd eaa7 babf 2b28 003f
00000080: ea22 a23f 8017 523f 28db b2c0 b939 013f
00000090: c678 56c0 a5a8 693f 30d8 893f 4261 f53e
000000a0: 9c08 23c0 92dc 473f 2200 813f 6a0b ed3e
000000b0: 0687 96bf cc70 ac3f db7b 5cc0 f676 09bf
