JetsonTests/model2_1.tflite (tflite, 8180 bytes, 4 tensors)

sequential_14/dense_27/BiasAdd/ReadVariableOp f4 [12]
0	0x3ca4a38a	0.020097513
1	0xbd3b2c04	-0.045696273
2	0x3c327145	0.010891263
3	0x3ca7756f	0.020441739
4	0x3d1d5ce2	0.038418658
5	0x3d2f1c4b	0.04275159
6	0x3b6d0130	0.0036164038
7	0xbc0c1646	-0.008550232
8	0x3cc74b6e	0.02432796
9	0x3c9e7f30	0.019347757
10	0x3cb26132	0.021774862
11	0xbc9547b5	-0.01822267

sequential_14/dense_26/BiasAdd/ReadVariableOp f4 [30]
0	0x3cbe2d2f	0.023214905
1	0xbcff5111	-0.031166585
2	0x3cee4b18	0.029088542
3	0xbc89610d	-0.01676991
4	0x3ce324e8	0.02772756
5	0x00000000	0.0
6	0xbc8247ff	-0.015903471
7	0xbc05daa8	-0.0081698075
8	0x3cb19000	0.02167511
9	0xbc2dd10f	-0.0106089255
10	0xbd033d80	-0.032041073
11	0x3d1c2c3b	0.03812812
12	0x3cb2ee50	0.021842152
13	0xbcd23839	-0.025661575
14	0xbca5646b	-0.020189485
15	0xbc8aeefe	-0.016959663
16	0x3c652360	0.013985485
17	0xbd104113	-0.03521831
18	0xbc1793f3	-0.009251582
19	0xbbb32f8e	-0.0054683154
20	0xbb9072e0	-0.0044082254
21	0xbc40b0ed	-0.011760932
22	0xbc38736b	-0.011257987
23	0xbc32b8b4	-0.0109082945
24	0x00000000	0.0
25	0xbc3d2989	-0.011545547
26	0xbcded787	-0.02720238
27	0x3c87379a	0.016506005
28	0xbd2055b1	-0.03914422
29	0x3d048702	0.032355316

sequential_14/dense_26/MatMul f4 [30, 42]
0	0xbdce2e77	-0.10067456
1	0x39fa0c97	0.00047693096
2	0xbdbbe138	-0.091738164
3	0x3e7a1dfd	0.24425502
4	0xbd9cf9eb	-0.076648556
5	0xbe1dd5b4	-0.15413553
6	0x3e30cd43	0.17265801
7	0x3df0ba9e	0.117543444
8	0x3e5a9f3b	0.21349804
9	0x3e89fba5	0.26949802
10	0x3e0159d0	0.12631917
11	0x3d29592b	0.041344803
12	0xbd23a188	-0.03994897
13	0x3ddb78c8	0.107163966
14	0xbdd0f735	-0.10203401
15	0xbe543ae2	-0.20725587
16	0x3ca60da9	0.020270186
17	0xbd94dfae	-0.07269226
18	0xbe5132ff	-0.2042961
19	0xbd12a933	-0.035805892
20	0xbd9c0e05	-0.076198615
21	0xbd941fbe	-0.07232617
22	0xbd6e9d33	-0.058255386
23	0x3df7237d	0.12067316
24	0x3db3fd66	0.08788566
25	0xbc2d4d4a	-0.010577509
26	0xbbc972c7	-0.0061477157
27	0x3e6f99e5	0.2339855
28	0xbcdb2321	-0.02675015
29	0x3e139816	0.14413485
30	0xbe4e04e1	-0.20119049
31	0x3e107b19	0.14109458
32	0xbd28954e	-0.041158013
33	0xbd0b4b59	-0.034007404
34	0xbe2e678a	-0.17031685
35	0x3e2cc34c	0.16871375
36	0x3df40485	0.119149245
37	0x3d2d7d7e	0.042356007
38	0x3e3137c7	0.17306434
39	0xbd82a778	-0.063795984
40	0x3e8ff907	0.2811968
41	0xbcde2619	-0.027117776
42	0x3e5a17bb	0.21298115
43	0xbe7e6a33	-0.248452
44	0x3db4539c	0.0880501
45	0xbde5cc67	-0.11220627
46	0xbd07ef2d	-0.03318708
47	0xbe80eabb	-0.25179085
48	0xbd403cc4	-0.04693295
49	0x3c94184a	0.018077988
50	0x3a6b34a0	0.00089723803
51	0x3d9efa5d	0.07762597
52	0xbd211e65	-0.039335627
53	0xbd8619b6	-0.06547873
54	0x3e0b919d	0.13629766
55	0x3e3e4f04	0.1858483
56	0x3e716114	0.23572189
57	0xbe6d1f4c	-0.2315647
58	0xbd6f6560	-0.058446288
59	0xbe131450	-0.14363217
60	0x3e660ba3	0.22465377
61	0x3da60af0	0.08107555
62	0xbd016c43	-0.031597387
63	0xbb6e7771	-0.003638711
64	0x3d9f1879	0.0776834
65	0x3dc7bd7b	0.097529374
66	0xbcf33ecf	-0.029693035
67	0xbe0d027f	-0.13770483
68	0xbde91165	-0.11380271
69	0x3e6bc5a5	0.23024614
70	0xbe4a3d2a	-0.19749895
71	0xbe34ace8	-0.17644083
72	0xbd8c180c	-0.06840524
73	0xbe32baf7	-0.17454134
74	0x3d82c990	0.06386101
75	0x3e9b303c	0.30310237
76	0xbea10b0d	-0.31453744
77	0x3e2958f4	0.16537839
78	0xbe98e24a	-0.29860145
79	0xbe6a5dda	-0.22887364
80	0xbe34ca7b	-0.17655365
81	0x3d8a5682	0.06754781
82	0xbdeba345	-0.115057506
83	0x3e53230b	0.20618837
84	0x3db5af8d	0.08871374
85	0xbe4a1808	-0.1973573
86	0xbd7631a0	-0.06010592
87	0x3dfe0fd0	0.1240536
88	0xbe2d9011	-0.16949488
89	0x3e8affff	0.27148435
90	0xbe5b16b4	-0.2139538
91	0xbe7c8f20	-0.24663973
92	0xbe4c3b53	-0.19944505
93	0xbdc0b245	-0.09409002
94	0x3c1f88ad	0.009737176
95	0x3e071c27	0.13194333
96	0x3deb91ba	0.115024045
97	0x3be314c4	0.0069299657
98	0xbe384dc0	-0.1799841
99	0xbdc72656	-0.09724109
100	0xbd1db4dc	-0.03850256
101	0xbe05ed93	-0.13078909
102	0xbd9827bb	-0.07429453
103	0x3e623f52	0.22094467
104	0x3e37c8aa	0.17947641
105	0xbdbc0735	-0.09181062
106	0x3e021226	0.12702236
107	0x3b869e9c	0.004108263
108	0x3dc2aeff	0.09506034
109	0x3e3b9352	0.18317917
110	0x3de841c9	0.113406725
111	0x3ea070e7	0.31336138
112	0xbcbe280a	-0.023212451
113	0x3dc843a6	0.09778528
114	0x3e36f898	0.17868268
115	0x3e15e1f4	0.14636976
116	0x3daebaf5	0.08531753
117	0xbd31b79c	-0.043387994
118	0x3dc4081b	0.095718585
119	0x3cf8ab0b	0.030354997
120	0x3deeaae7	0.11653691
121	0xbd5d8531	-0.0540821
122	0x3e910c15	0.2832953
123	0x3e524343	0.20533471
124	0xbd72bd95	-0.05926283
125	0x3e8703ba	0.2637003
126	0x3d13791b	0.036004167
127	0x3e113b4b	0.14182775
128	0x3e672f47	0.22576629
129	0xbbcc6a0c	-0.0062382277
130	0x3e661ff4	0.22473127
131	0xbd763c9b	-0.06011639
132	0xbd8eba69	-0.06969149
133	0x3e27fe72	0.16405657
134	0xbc9cd640	-0.019145131
135	0x3cb88306	0.022523414
136	0xbe150172	-0.14551333
137	0x3dcfe387	0.10150819
138	0x3e1f6223	0.1556478
139	0xbe09e3c6	-0.13465795
140	0xbd85c1a3	-0.06531074
141	0xbd263b89	-0.04058412
142	0x3dcaebb6	0.099082395
143	0x3ecae043	0.39624223
144	0xbe55a467	-0.20863496
145	0xbdcbccbf	-0.099511616
146	0xbe14ad4b	-0.14519231
147	0x3d883006	0.06649785
148	0x3e5476c6	0.20748433
149	0x3eaa0822	0.3320933
150	0x3e9f4612	0.31108147
151	0x3bade39b	0.0053066737
152	0x3d445080	0.047928333
153	0xbe92d01c	-0.286744
154	0xbe5ec27d	-0.21753879
155	0x3d94292d	0.07234416
156	0xbe36b2b0	-0.17841601
157	0x3e11d440	0.14241123
158	0x3e4a7e5c	0.19774765
159	0x3e00baa7	0.12571202
160	0x3e74e684	0.2391606
161	0x3d840f34	0.06448212
162	0x3e828c5d	0.25497714
163	0xbe77642b	-0.24159305
164	0x3e27b820	0.16378832
165	0x3c756e11	0.014979855
166	0xbc103f86	-0.008804208
167	0x3dceb4e6	0.100930974
168	0x3e90e149	0.2829688
169	0xbc7363b9	-0.014855319
170	0x3e54bbeb	0.2077481
171	0xbe66853c	-0.22511762
172	0xbd3f52c1	-0.04670978
173	0x3e8b4fb7	0.27209255
174	0x3da50db5	0.08059255
175	0x3e8d8353	0.27639255
176	0xbec0e2a7	-0.37672922
177	0x3e17728f	0.14789794
178	0xbda00090	-0.07812607
179	0xbb1a8efa	-0.0023583756
180	0x3dcf56a9	0.10123951
181	0x3eb0496c	0.34431016
182	0xbd5adf11	-0.05343539
183	0x3e258db3	0.16167335
184	0x3e424a50	0.1897366
185	0xbda5a0e7	-0.0808733
186	0x3e2c7733	0.16842346
187	0xbda1d500	-0.07901955
188	0x3e5f3b4f	0.21799968
189	0xbd13c7c8	-0.036079198
190	0x3e09e8d2	0.1346772
191	0xbd563826	-0.05229964
192	0x3e328728	0.1743437
193	0x3d19e1b0	0.037568748
194	0xbe497c4d	-0.19676323
195	0x3e925a16	0.28584355
196	0xbe1564dc	-0.14589256
197	0xbe03aac2	-0.12858108
198	0xbe8bcf05	-0.2730638
199	0xbe938b73	-0.2881733
200	0x3e5962aa	0.21229044
201	0xbe897953	-0.26850376
202	0x3e046c5f	0.12931965
203	0xbe94c2a5	-0.29054752
204	0xbd45cd7d	-0.048291672
205	0xbded1638	-0.115765035
206	0x3e480423	0.19532828
207	0x3e11ba6c	0.1423127
208	0xbddeeec5	-0.108853854
209	0xbd21ed6b	-0.03953306
210	0x3d3c0cd8	0.045910686
211	0xbe917abf	-0.2841396
212	0xbe908052	-0.282229
213	0x3e898c4c	0.2686485
214	0x3dd3ac00	0.10335541
215	0x3c81a240	0.015824437
216	0x3d426770	0.047461927
217	0x3e4a8652	0.19777802
218	0xbe5cd430	-0.21565318
219	0xbe913173	-0.2835804
220	0x3e75448c	0.2395193
221	0x3e8c73e8	0.2743218
222	0xbe91c414	-0.28469908
223	0x3d23b1d0	0.039964497
224	0x3dbbced8	0.09170312
225	0xbe53a96c	-0.20670098
226	0xbe41fb85	-0.18943603
227	0xbe5e3ab4	-0.21702081
228	0x3e4e83ee	0.20167515
229	0x3e350b30	0.17680049
230	0xbe57db34	-0.21079713
231	0xbe911ffc	-0.28344715
232	0xbe901cb5	-0.28146902
233	0xbe1fbe0b	-0.1559984
234	0xbe872c1a	-0.26400834
235	0x3e91b572	0.28458744
236	0xbdeecca0	-0.11660123
237	0xbdc449ee	-0.095844135
238	0xbca51780	-0.020152807
239	0xbe24d7f9	-0.16098012
240	0x3d2b8a90	0.04188019
241	0x3e83ee18	0.2576759
242	0x3e0c1102	0.13678363
243	0xbd6d5b60	-0.05794847
244	0xbe0973ee	-0.1342313
245	0xbe884eac	-0.26622522
246	0x3de463a4	0.111518174
247	0x3d57a5d0	0.052648365
248	0x3dcfc9d8	0.101459205
249	0xbdffdc88	-0.12493235
250	0xbcb26460	-0.021776378
251	0x3dd09e0c	0.10186395
252	0x3e6121fd	0.21985622
253	0xbd386988	-0.045022517
254	0x3e6246a0	0.22097254
255	0xbe3c1bb2	-0.1836994

sequential_14/dense_27/MatMul f4 [12, 30]
0	0xbe092e0a	-0.13396469
1	0x3e319eb1	0.17345692
2	0x3e82ad2e	0.2552275
3	0x3e5ca229	0.21546234
4	0xbd6857af	-0.056724247
5	0x3e7eb2ca	0.2487289
6	0xbe9c631b	-0.3054436
7	0x3e6578ef	0.22409414
8	0xbe2bb9d9	-0.16770114
9	0xbe7e7089	-0.24847616
10	0x3b957c52	0.0045619393
11	0x3e06b14d	0.13153572
12	0xbf07050e	-0.5274209
13	0xbd179a02	-0.037012108
14	0x3e9e8f44	0.30968678
15	0x3c986437	0.018602474
16	0xbe8fd42d	-0.28091565
17	0xbde9375a	-0.113875106
18	0x3ddc9a38	0.107716024
19	0xbee4269d	-0.4456071
20	0x3c68690b	0.0141852
21	0xbc2e2455	-0.010628779
22	0x3e33ba7a	0.17551604
23	0x3e4946ff	0.19655989
24	0x3e970ecb	0.29503474
25	0x3ea5e287	0.3239939
26	0x3ea1da03	0.31611642
27	0xbe1459d1	-0.14487387
28	0x3d701597	0.05861434
29	0xbe7266f5	-0.23672087
30	0xbe01134d	-0.12605019
31	0x3e5e27e9	0.21694912
32	0xbe02f266	-0.1278778
33	0xbd20ea48	-0.039285928
34	0x3c8acb6a	0.016942699
35	0xbe939512	-0.2882467
36	0xbd9d58fe	-0.076829895
37	0xbd978931	-0.07399214
38	0xbe81040f	-0.2519841
39	0x3e66abe2	0.22526506
40	0x3e9b1aec	0.30293977
41	0xbe1f8f88	-0.15582097
42	0x3a9e3bdf	0.0012072286
43	0x3ea3520d	0.31898537
44	0xbea0fc0d	-0.314423
45	0xbe9b10c7	-0.30286238
46	0xbc7c130c	-0.0153854005
47	0xbd3985e0	-0.04529369
48	0xbe44f403	-0.19233708
49	0x3e8f3a03	0.27973947
50	0x3e1ef238	0.15522087
51	0x3e78b36c	0.24287194
52	0x3e96d4d8	0.29459262
53	0x3e4d3007	0.20037852
54	0xbdb82328	-0.089910805
55	0xbc3a34e4	-0.011365149
56	0x3e1ff92b	0.15622394
57	0xbd57fdf5	-0.052732427
58	0x3e0a55f4	0.13509351
59	0xbef3d8e3	-0.4762641
60	0xbcfd6a29	-0.03093441
61	0xbd990aa2	-0.07472731
62	0x3ea98309	0.33107784
63	0xbea3dde5	-0.3200523
64	0xbd9e6efd	-0.07736013
65	0xbe859248	-0.26088166
66	0x3dda6964	0.10664633
67	0x3daa893e	0.08326958
68	0x3e83500c	0.25647008
69	0x3e617736	0.22018132
70	0xbe10b3d8	-0.14131105
71	0xbdf10335	-0.1176819
72	0x3e6a2e87	0.22869311
73	0x3dd8a26e	0.10577856
74	0xbd946ed7	-0.072477035
75	0xbd51d507	-0.05122855
76	0x3dca28cb	0.09871062
77	0x3e24b608	0.16085064
78	0x3e819bd9	0.25314215
79	0x3e183e19	0.14867438
80	0x3dcbd96e	0.09953581
81	0x3c428ccc	0.011874389
82	0x3e378815	0.17923005
83	0x3dbc9cfe	0.092096314
84	0xbe2ffa51	-0.17185332
85	0x3e83098a	0.25593215
86	0x3dbc3b1a	0.0919096
87	0x3e99e556	0.30057782
88	0xbdc69890	-0.09697068
89	0xbd9b51f0	-0.07583988
90	0x3e46c8fc	0.19412607
91	0xbe9c60fd	-0.30542746
92	0x3dbba43a	0.09162183
93	0xbea52523	-0.32254896
94	0x3eedbcac	0.46433008
95	0xbeafa3b4	-0.34304583
96	0xbe357552	-0.17720535
97	0xbd8b44ed	-0.06800256
98	0xbdcdbde8	-0.10045987
99	0xbd9a8f2a	-0.07546838
100	0x3e85b5db	0.26115307
101	0x3df02862	0.117264524
102	0x3ea58789	0.32329968
103	0xbea3a92b	-0.31965002
104	0x3ead7b24	0.3388301
105	0x3e901926	0.28144187
106	0x3e9e3427	0.30899164
107	0x3e3cfc9a	0.18455735
108	0xbe768381	-0.24073602
109	0xbe87010e	-0.26367992
110	0xbeb08c7a	-0.34482175
111	0xbdfd4bbd	-0.123679616
112	0xbd56b98a	-0.052423038
113	0x3e2a3f82	0.16625789
114	0x3e8fbc03	0.2807313
115	0x3c83cfe8	0.016090348
116	0x3e912d9f	0.2835512
117	0x3e3dd7bc	0.18539327
118	0xbe9ce79b	-0.3064545
119	0x3b0793c8	0.002068745
120	0x3d34506c	0.04402201
121	0xbe7e298a	-0.24820533
122	0x3e4defe5	0.20111044
123	0xbeab0f42	-0.33410078
124	0x3e912e0a	0.28355438
125	0xbe3e4cc3	-0.1858397
126	0xbe8e9c44	-0.27853596
127	0xbdd8fc02	-0.10594942
128	0x3e23bf54	0.15990955
129	0x3df04d14	0.117334515
130	0x3e170c63	0.14750819
131	0xbe199a7f	-0.15000342
132	0xbe9d98d5	-0.30780664
133	0xbe2f3d9a	-0.17113343
134	0xbe4a8064	-0.1977554
135	0x3e8ad075	0.27112165
136	0x3db85654	0.09000841
137	0x3ea4de91	0.32201055
138	0xbe17aa59	-0.14811076
139	0x3e750f3d	0.23931594
140	0xbe3fdbf7	-0.18736254
141	0x3e354ac3	0.177043
142	0x3e4c9a89	0.19980825
143	0xbe95277f	-0.29131696
144	0xbe22d5ad	-0.15901823
145	0x3ca801d1	0.020508679
146	0x3d92bf6d	0.07165418
147	0x3e50103c	0.20318693
148	0xbe36705e	-0.17816302
149	0x3d13d5e8	0.03609267
150	0x3d8b5282	0.068028465
151	0xbe799d83	-0.24376492
152	0xbe19dac8	-0.15024865
153	0xbe0caf8b	-0.1373884
154	0xbdd9377f	-0.10606288
155	0xbdb663fc	-0.08905789
156	0xbc78de5e	-0.015189735
157	0x3d0eee0a	0.03489498
158	0xbdf0ba9e	-0.117543444
159	0xbeac9478	-0.33707023
160	0x3c173950	0.009229973
161	0x3d3bef84	0.045882717
162	0x3ed289b8	0.41120696
163	0xbda62e0a	-0.0811425
164	0xbe7ce597	-0.24696957
165	0x3e80a9ed	0.25129643
166	0x3e1d3e3a	0.15355769
167	0xbe5ee58b	-0.21767251
168	0xbdbda004	-0.09259036
169	0x3e72b3e6	0.23701438
170	0x3cbea1cd	0.023270512
171	0xbe84613e	-0.2585544
172	0x3eb667a4	0.35625947
173	0xbee84480	-0.4536476
174	0x3e87b1dd	0.26502886
175	0x3d6f8257	0.05847391
176	0x3d69f317	0.057116594
177	0x3e1ed934	0.15512544
178	0xbd4b0b98	-0.049571604
179	0x3a8145fb	0.0009862775
180	0x3eb930be	0.3617
181	0xbe67cfff	-0.22637938
182	0x3e0b2825	0.13589533
183	0xbe9826cc	-0.297171
184	0x3eadac58	0.3392055
185	0x3de25b04	0.11052516
186	0x3dae64fe	0.085153565
187	0xbd52b6ca	-0.051443852
188	0xbc95d801	-0.018291475
189	0xbe6cbb78	-0.23118389
190	0x3c818200	0.01580906
191	0xbddc57ca	-0.10758932
192	0xbdebcf5e	-0.115141615
193	0xbcf9d902	-0.030498985
194	0x3ebe5ae1	0.3717871
195	0xbe97248d	-0.29520074
196	0xbe605a49	-0.21909441
197	0x3cc74504	0.024324901
198	0xbdd23124	-0.10263279
199	0x3eacf62a	0.33781558
200	0x3e3668d7	0.1781343
201	0x3eaec0f3	0.34131584
202	0xbe63797b	-0.2221431
203	0x3e49f7bc	0.1972341
204	0x3d51bb18	0.051203817
205	0xbe0e72bb	-0.13910954
206	0x3d54e2df	0.051974174
207	0xbe9a5f91	-0.30151036
208	0x3ea8bb5d	0.32955447
209	0xbda57f8b	-0.080809675
210	0x3eb77568	0.3583176
211	0x3e0671ea	0.13129392
212	0xbd79234a	-0.06082467
213	0xbd9656f3	-0.07340803
214	0xbd3fbd24	-0.046811238
215	0xbea062ee	-0.31325477
216	0xbe9860c3	-0.29761323
217	0x3e0b7b66	0.13621292
218	0xbeca0395	-0.39455858
219	0xbe40a705	-0.18813713
220	0x3e9b6c31	0.3035598
221	0x3ca9052c	0.020632349
222	0xbe83e01e	-0.25756925
223	0x3ec56dbc	0.38560283
224	0x3e03ea33	0.12882309
225	0x3e9ff1ed	0.31239262
226	0x3dfab47d	0.12241457
227	0xbe6cb876	-0.23117241
228	0x3cf9c28b	0.030488273
229	0xbe33a384	-0.17542845
230	0x3ed0044b	0.40628275
231	0x3d8b4d48	0.068018496
232	0x3dd83167	0.10556298
233	0x3e2457be	0.16049096
234	0x3e8e7961	0.2782698
235	0xbe8c8b1e	-0.27449888
236	0xbe14dc4e	-0.14537165
237	0x3e7e42b1	0.24830128
238	0xbe3ba854	-0.18325931
239	0xbe4432cc	-0.19160002
240	0xbe5f51ce	-0.2180855
241	0xbe81465a	-0.25248986
242	0xbe5fc446	-0.21852216
243	0xbdf15098	-0.1178295
244	0xbe33c2e6	-0.17554817
245	0x3eb639b5	0.35590902
246	0x3ea576ae	0.32317108
247	0x3e5d1140	0.21588612
248	0xbeb34a9a	-0.35017854
249	0xbe9e0d70	-0.30869627
250	0x3e164209	0.14673628
251	0xbe2302c4	-0.15919024
252	0xbdeb26aa	-0.11481984
253	0xbcf90555	-0.03039805
254	0xbdd9242c	-0.10602602
255	0x3dc9fccf	0.098626725
