JetsonTests/Model2_NC.params (torch, 65123 bytes, 8 tensors)

fc1.weight f4 [64, 42]
0	0x3e02f8d3	0.12790231
1	0x3e98d71d	0.29851618
2	0x3dd804b1	0.1054777
3	0xbd21241b	-0.039341073
4	0xbd89ef32	-0.06735076
5	0xbded0386	-0.11572938
6	0x3dd1cbf8	0.10243982
7	0x3e250714	0.16115981
8	0x3eef3d2b	0.46726355
9	0xbe0672a1	-0.13129665
10	0xbdca419d	-0.09875796
11	0xbeae6fe1	-0.34069732
12	0xbe5fb573	-0.21846561
13	0xbe3e3d20	-0.18578005
14	0xbeadfcbe	-0.3398189
15	0xbd7d7af9	-0.061884854
16	0xbe5b0078	-0.21386898
17	0x3e609673	0.21932392
18	0x3d626590	0.05527264
19	0x3e0d7ef2	0.13817957
20	0x3d4891e1	0.048967246
21	0xbdf69c18	-0.12041491
22	0xbe518921	-0.20462467
23	0xbde7884b	-0.11305293
24	0x3d363930	0.044488132
25	0x3e1b477f	0.15163992
26	0x3e47c179	0.19507398
27	0x3dec0c3b	0.1152577
28	0x3e64c4fe	0.22340772
29	0xbdb3a8c7	-0.08772426
30	0x3e0cc6ce	0.13747713
31	0xbc941889	-0.018078106
32	0x3e55d0c8	0.20880425
33	0xbc880ed1	-0.016608628
34	0x3e54e41c	0.20790142
35	0x3d0d07c1	0.034431223
36	0x3c7caf74	0.015422691
37	0x3dbc8c6b	0.0920647
38	0xbe660e41	-0.22466375
39	0xbef3035a	-0.47463495
40	0xbf1c1524	-0.6096976
41	0xbf7c40ba	-0.98536265
42	0x3ee847be	0.45367235
43	0xbdb10217	-0.08642977
44	0x3ea44ab0	0.32088232
45	0x3dd813a7	0.105506234
46	0x3e985533	0.29752502
47	0x3c6a041e	0.014283208
48	0xbd91e5b4	-0.071238905
49	0x3e98af99	0.2982147
50	0xbf1e773c	-0.6190069
51	0xbe4c0690	-0.19924378
52	0xbe2b5519	-0.16731681
53	0xbe3c6a50	-0.1839993
54	0x3e70aec1	0.23504163
55	0xbb158834	-0.002281678
56	0x3defd405	0.117103614
57	0xbe956bb6	-0.2918374
58	0x3df4058b	0.1191512
59	0xbe790611	-0.2431872
60	0xbf3f1af2	-0.7465049
61	0x3dc29bc6	0.09502368
62	0x3d47c713	0.048773836
63	0xbd96954a	-0.073526934
64	0xbdff74ef	-0.12473475
65	0xbc6e60f3	-0.014549482
66	0x3de336c2	0.110944286
67	0xbdc805c7	-0.09766727
68	0xbeab8fb0	-0.33508062
69	0x3e912c72	0.28354222
70	0xbdec3677	-0.11533826
71	0x3e7e0525	0.2480665
72	0x3eab57a3	0.334653
73	0x3f06625a	0.5249382
74	0x3ef8d37d	0.48598853
75	0x3eb04679	0.34428766
76	0xbedc85fc	-0.43070972
77	0x3e8cc993	0.2749754
78	0x3d84cfb6	0.0648493
79	0x3ea699a8	0.32539105
80	0xbdccade1	-0.09994102
81	0x3e9b4096	0.30322713
82	0x3df02a89	0.11726863
83	0xbe05c41b	-0.1306309
84	0xbd1b77cd	-0.037956048
85	0x3ce9b6b7	0.028529508
86	0xbe67ad63	-0.22624736
87	0x3da07cbd	0.07836292
88	0xbe754833	-0.23953323
89	0xbe25c75b	-0.1618933
90	0xbdb2fa7c	-0.08739182
91	0x3ea9eb63	0.33187398
92	0x3eb69190	0.3565793
93	0x3f050731	0.519641
94	0x3df17472	0.11789788
95	0xbf3eb220	-0.7449055
96	0xbea9ff81	-0.33202747
97	0xbe114127	-0.1418501
98	0x3e3eb8bb	0.18625157
99	0x3ed9a4b8	0.42508483
100	0x3d8b5531	0.06803358
101	0x3ecae405	0.3962709
102	0xbe796565	-0.24355085
103	0xbf419228	-0.7561364
104	0xbec61e03	-0.38694772
105	0x3e2e112c	0.16998738
106	0x3ec19d33	0.37815246
107	0x3e733956	0.2375234
108	0x3ecaed25	0.39634052
109	0xbd4a82c3	-0.04944111
110	0x3b33e864	0.0027451748
111	0xbe430b9d	-0.19047399
112	0xbe4d65e0	-0.20058393
113	0xbe62ebb1	-0.22160222
114	0xbcade868	-0.021228984
115	0xbecc6a0f	-0.39924666
116	0xbe2d38fe	-0.16916272
117	0xbecf14ea	-0.40445644
118	0x3daf6728	0.08564597
119	0x3d3072cd	0.043078233
120	0xbdf0c7be	-0.11756848
121	0xbe029b8e	-0.12754652
122	0x3c94d2c7	0.018166913
123	0x3e83ee74	0.25767863
124	0x3c6ea0e3	0.014564726
125	0x3e0462a9	0.12928261
126	0xbe99fa19	-0.30073622
127	0xbd67ecc5	-0.056622285
128	0x3e07e2b6	0.13270077
129	0xbe96c35c	-0.29445922
130	0x3ee05605	0.43815628
131	0xbde9dc7c	-0.11419007
132	0x3e87c712	0.26519066
133	0xbef39404	-0.47573864
134	0xbeee6802	-0.46563727
135	0x3ed29006	0.41125506
136	0xbe2f575d	-0.1712317
137	0x3f30f8ec	0.69129825
138	0x3de9ff89	0.114256926
139	0x3eaaee6b	0.33385023
140	0x3e2109e5	0.1572643
141	0xbeb23127	-0.34803125
142	0xbe0af9c0	-0.13571835
143	0xbef817b1	-0.48455575
144	0xbe7cafaf	-0.24676393
145	0x3ee38d61	0.444438
146	0xbddd3d03	-0.10802653
147	0xbcda6a46	-0.026662003
148	0xbe0ca4c6	-0.13734731
149	0xbec88dea	-0.39170772
150	0xbea38d25	-0.31943622
151	0xbd88239a	-0.066474155
152	0x3de7b95c	0.11314651
153	0x3e4ae5d4	0.19814235
154	0xbd072ab2	-0.0329997
155	0x3d57d0f3	0.052689504
156	0xbdfe1e77	-0.124081545
157	0xbdc77591	-0.09739221
158	0xbd8e56ef	-0.06950175
159	0x3e97841a	0.29592973
160	0x3d1889bb	0.037240725
161	0x3d468e1a	0.048475362
162	0x3e447aca	0.19187465
163	0xbd79bbe4	-0.060970202
164	0x3e665fb7	0.2249745
165	0x3d3ca2ce	0.0460537
166	0x3eb76df3	0.35826072
167	0x3f12651e	0.5718554
168	0xbd850df8	-0.06496805
169	0x3dd3b0e2	0.10336472
170	0x3e3ba0a2	0.18322995
171	0xbd7b4adf	-0.0613507
172	0x3d931f35	0.07183687
173	0x3c293516	0.010327598
174	0x3ea2d6aa	0.318044
175	0xbead2d54	-0.33823645
176	0x3e55741d	0.20845075
177	0xbf17e667	-0.5933594
178	0xbbb88497	-0.0056310403
179	0x3f30701a	0.68921053
180	0xbe310c66	-0.17289886
181	0x3dc0e590	0.094187856
182	0xbc6182db	-0.0137641085
183	0xbd358bab	-0.04432265
184	0x3c565299	0.013081216
185	0x3e456a8d	0.19278927
186	0x3e84ed4a	0.25962287
187	0x3f95f8a0	1.1716499
188	0x3e2c2c9b	0.1681389
189	0x3da23493	0.07920184
190	0xbe819a74	-0.2531315
191	0xbe92578f	-0.28582427
192	0xbe3fe37d	-0.18739124
193	0xbe18ac1c	-0.14909405
194	0x3e233a3f	0.15940188
195	0x3f111bfa	0.56683314
196	0x3e48ff23	0.19628577
197	0x3e90bc49	0.2826865
198	0xbd33ceb0	-0.043898284
199	0x3e26d817	0.16293369
200	0xbe530a66	-0.20609435
201	0x3e441166	0.19147262
202	0x3e36c30a	0.17847839
203	0x3d9c7e93	0.076413296
204	0x3e905f08	0.28197503
205	0xbd64bc7c	-0.055843815
206	0xbdc59eaa	-0.096494034
207	0xbf36409d	-0.7119234
208	0xbeb2ecd1	-0.34946302
209	0xbf94b7e2	-1.1618617
210	0x3db381e0	0.08765006
211	0x3d05c96a	0.032662787
212	0xbdbee325	-0.09320668
213	0x3e35188c	0.17685145
214	0x3e60ffdb	0.21972601
215	0x3e7eb2fd	0.24872966
216	0x3ee79c36	0.45236367
217	0xbe01b929	-0.12668289
218	0x38df9be0	0.000106625026
219	0x3eda3fd7	0.4262683
220	0xbd7d129e	-0.061785333
221	0xbdd940f2	-0.106080905
222	0xbdaad638	-0.0834164
223	0x3e15454b	0.14577214
224	0xbe10730a	-0.14106384
225	0xbd732518	-0.059361547
226	0xbe0c76bb	-0.13717167
227	0x3db1e32a	0.08685906
228	0x3e83608a	0.2565959
229	0xbe9c44bc	-0.3052119
230	0xbed393af	-0.4132361
231	0x3e2cb585	0.16866119
232	0xbea696d9	-0.32536963
233	0xbdf0ddbd	-0.11761043
234	0xbea11448	-0.31460786
235	0xbeff5691	-0.49870732
236	0x3eb006d0	0.34380198
237	0xbd164050	-0.036682427
238	0x3dad6c64	0.084679395
239	0xbdb1831c	-0.08667585
240	0x3a0d2f37	0.00053857587
241	0xbee4afae	-0.44665283
242	0xbe6e1746	-0.23251066
243	0xbf50e3cd	-0.81597596
244	0x3dbb0996	0.09132688
245	0xbda3f5e3	-0.080058835
246	0x3e0e1747	0.13876067
247	0xbeb6de80	-0.3571663
248	0x3d854968	0.06508142
249	0x3df2d937	0.11857837
250	0x3ea993f9	0.33120707
251	0x3efe386c	0.4965242
252	0xbde081d7	-0.10962265
253	0x3da789e6	0.08180599
254	0xbe13fdb2	-0.14452246
255	0x3dbeb104	0.09311107

fc1.bias f4 [64]
0	0x3d3dd2f3	0.046343755
1	0x3e2e024d	0.16993065
2	0xbd1898ed	-0.037255216
3	0xbe53a7b5	-0.20669444
4	0x3e25193b	0.16122906
5	0xbdc2bc75	-0.095086016
6	0xbe08c3e1	-0.13355972
7	0x3dd4576a	0.103682354
8	0x3c982772	0.018573496
9	0xbe00c622	-0.12575582
10	0xbd5ccae3	-0.053904425
11	0xbda306ff	-0.07960319
12	0x3beebac7	0.007285449
13	0x3d9211df	0.07132315
14	0xbdcd696b	-0.100298725
15	0x3daf22e4	0.08551577
16	0x3c65e711	0.014032141
17	0x3dab7da9	0.08373577
18	0xbd711772	-0.05886025
19	0x3dccb66b	0.09995731
20	0x3cd93a26	0.026516985
21	0x3e47b014	0.19500762
22	0x3ddd94ef	0.108194225
23	0xbd247a61	-0.040155772
24	0xba329b12	-0.00068132684
25	0x3d9c6489	0.07636363
26	0xbd7ee915	-0.062234003
27	0xbe40241c	-0.18763775
28	0x3d0a5be8	0.033779055
29	0xbe675973	-0.22592716
30	0x3e14b95f	0.14523838
31	0xbad3a452	-0.0016146994
32	0x3dd62e7c	0.10458085
33	0x3dd2baab	0.1028951
34	0xbc5fe5dc	-0.013665643
35	0x3e463754	0.19357044
36	0xbd717ca5	-0.05895676
37	0xbe3a2d3b	-0.18181317
38	0x3bd3b1e9	0.0064604175
39	0xbca4d884	-0.020122774
40	0x3d48fb6e	0.049067907
41	0x3bcf6d52	0.0063301707
42	0x3dd83441	0.10556842
43	0xbc7a0f26	-0.015262401
44	0xbd9a9d7b	-0.07549568
45	0xbe10fd9d	-0.14159246
46	0xbdd5d997	-0.104418926
47	0x3d1b99dc	0.03798853
48	0xbd76ce39	-0.060255263
49	0x3e4574d7	0.19282852
50	0x3db72e3c	0.089443654
51	0xbc66233a	-0.014046485
52	0xbc882365	-0.01661844
53	0xbe53571e	-0.20638701
54	0xbe14cc5a	-0.14531079
55	0x3e81d538	0.25357985
56	0x3e932389	0.2873805
57	0x3e800898	0.25006557
58	0x3ddc7fb1	0.10766543
59	0x3d863134	0.065523535
60	0x3d8f1200	0.06985855
61	0xbdd60d18	-0.10451716
62	0x3e3f4bba	0.18681231
63	0x3cbdd6e6	0.02317376

fc2.weight f4 [128, 64]
0	0x3df0f00e	0.11764537
1	0xbdffe3ac	-0.12494597
2	0xbcbe4f70	-0.023231238
3	0xbecf57ab	-0.40496573
4	0x3e04d234	0.12970811
5	0xbe348303	-0.17628102
6	0xbe8824ab	-0.26590475
7	0xbe4640f5	-0.19360717
8	0x3dd73097	0.10507315
9	0x3cdbf36a	0.026849467
10	0x3ea72682	0.32646567
11	0xbf107a6a	-0.5643679
12	0xbd64c184	-0.055848613
13	0x3f0a3dff	0.5400085
14	0xbe1f00ac	-0.155276
15	0xbe9cd9dd	-0.30634966
16	0xbdac9466	-0.08426742
17	0x3e57a120	0.21057558
18	0xbe171e1e	-0.14757583
19	0xbed1c4cd	-0.4097046
20	0x3e4fb857	0.20285164
21	0xbe385ed2	-0.18004921
22	0xbde399a8	-0.11113292
23	0x3da4bff0	0.08044422
24	0xbf2de8f1	-0.67933565
25	0x3e9a8de3	0.30186376
26	0x3c345aaf	0.011007949
27	0xbcd23125	-0.0256582
28	0x3e0d6717	0.13808857
29	0x3e329737	0.17440496
30	0x3da5b5a7	0.08091288
31	0x3ebffd1d	0.37497798
32	0xbecc8708	-0.3994677
33	0xbeb0af18	-0.34508586
34	0xbece8127	-0.4033291
35	0x3f3b735f	0.7322292
36	0xbece9a2a	-0.40351993
37	0x3d8f5c80	0.07000065
38	0x3e87d49e	0.26529402
39	0x3e4783a6	0.19483814
40	0x3d78de91	0.06075913
41	0x3ea0e978	0.31428123
42	0xbe99a30b	-0.30007204
43	0x3dc2d736	0.095137045
44	0x3bab0ac7	0.0052197906
45	0x3e475c25	0.19468744
46	0xbe9b2436	-0.30301064
47	0x3d152230	0.036409557
48	0x3e380ae0	0.17972898
49	0x3d9fa5be	0.07795285
50	0x3e769e38	0.24083793
51	0xbe41221c	-0.18860668
52	0xbe9a97d1	-0.30193952
53	0x3aae7c1e	0.0013312136
54	0xbe903e0f	-0.28172347
55	0x3ead248a	0.3381694
56	0x3d66d67c	0.056356892
57	0xbea02aa0	-0.3128252
58	0x3d05c81a	0.032661535
59	0x3d161f00	0.036650658
60	0x3dde4c36	0.1085438
61	0xbda8fec4	-0.08251718
62	0x3f300dd2	0.6877109
63	0x3e951098	0.29114223
64	0x3b10a4eb	0.0022070955
65	0xbce91cf4	-0.028456189
66	0x3ee5c83c	0.4487933
67	0xbf134dca	-0.5754057
68	0xbd2d1844	-0.04225947
69	0x3df82ec1	0.121182926
70	0xbe43727d	-0.19086643
71	0xbe8c624b	-0.27418742
72	0xbe87cb6c	-0.26522386
73	0x3d5efe46	0.054441713
74	0xbdc9d1c5	-0.098544635
75	0x3eaa2b2a	0.33236057
76	0x3f5c2cc8	0.8600583
77	0x3ece37c6	0.40276927
78	0xbf1e935f	-0.6194362
79	0x3e46c208	0.19409955
80	0x3eb2b041	0.34900096
81	0xbd24ebeb	-0.04026405
82	0xbe1e4f22	-0.15459874
83	0xbe0a8658	-0.1352781
84	0xbf1f90a5	-0.62330085
85	0x3e857340	0.2606449
86	0xbd7f33de	-0.062305324
87	0x3eca560f	0.39518782
88	0xbd92bcdb	-0.071649276
89	0x3eb714a0	0.35757923
90	0xbebce41b	-0.3689278
91	0xbd5b646f	-0.053562578
92	0xbe30bb37	-0.17258917
93	0x3e0988e1	0.13431121
94	0xbf123747	-0.57115597
95	0x3d56640f	0.052341517
96	0xbdb254ea	-0.08707602
97	0x3e979084	0.29602444
98	0xbc8ab39f	-0.016931353
99	0x3e109e94	0.14122993
100	0x3ec91b57	0.3927867
101	0xbd5c495d	-0.053780902
102	0x3f01b74d	0.5067032
103	0x3e90700a	0.2821048
104	0xbf20780d	-0.6268318
105	0xbe443a67	-0.19162904
106	0x3e91f398	0.2850616
107	0x3c5f435f	0.013626902
108	0xbda4366e	-0.08018194
109	0x3d7c1917	0.061547365
110	0xbea8a1b1	-0.3293586
111	0xbda1d444	-0.079018146
112	0xbd8c971d	-0.0686476
113	0x3e54aa69	0.20768131
114	0x3ea9ff1d	0.33202448
115	0x3e17a5a4	0.1480928
116	0x3dfea2b2	0.124333754
117	0x3ef762d6	0.48317593
118	0xbe6a6e84	-0.22893721
119	0x3dd61e40	0.104549885
120	0xbde8d92c	-0.11369547
121	0x3cc12764	0.023578353
122	0xbe079c00	-0.13243103
123	0x3defddf2	0.117122546
124	0x3e380e05	0.17974098
125	0x3dd2473a	0.10267492
126	0x3c95e806	0.018299114
127	0x3f0673b0	0.52520275
128	0x3efbe1ff	0.4919586
129	0x3e97804e	0.29590076
130	0x3eaaad0e	0.33335155
131	0xbed31d9d	-0.4123353
132	0x3f1aa801	0.60412604
133	0x3dc12dbd	0.09432552
134	0xbe062731	-0.13100888
135	0xbe9a485f	-0.3013334
136	0x3bac35d1	0.005255439
137	0xbcfbe732	-0.030749891
138	0xbf3cf11f	-0.7380542
139	0xbed2d61e	-0.41178983
140	0xbe821415	-0.25405946
141	0xbdba24e0	-0.090890646
142	0xbeb5694e	-0.35431904
143	0x3e83dbd5	0.25753656
144	0x3d9f948f	0.07792007
145	0xbea78c2d	-0.32724133
146	0xbe98c5de	-0.2983846
147	0x3d7c49b2	0.06159372
148	0xbeb72f0f	-0.3577809
149	0xbe6757ef	-0.22592138
150	0x3d9ef9c1	0.077624805
151	0x3ef2cfa8	0.47424054
152	0xbea13eb5	-0.31493154
153	0x3edb7a61	0.42866805
154	0x3d95c974	0.07313815
155	0xbe1a1bbe	-0.15049645
156	0xbf0def79	-0.5544353
157	0x3db0f51b	0.086405
158	0xbe541bca	-0.20713726
159	0xbe2fdde0	-0.17174482
160	0x3e959e42	0.29222304
161	0xbdf54b71	-0.1197728
162	0x3e73164a	0.23738971
163	0x3e300fc2	0.17193511
164	0xbee5c558	-0.44877124
165	0xbf45fc09	-0.773377
166	0xbda5bce5	-0.080926694
167	0x3e59a1d8	0.21253145
168	0xbe3f84e2	-0.18703035
169	0xbe45e1e3	-0.1932445
170	0xbe7152bf	-0.23566721
171	0x3e6e8581	0.23293115
172	0xbdb6f7fb	-0.08934017
173	0xbf25282a	-0.6451441
174	0xbece43ab	-0.40286002
175	0x3dc096a9	0.09403736
176	0xbec36c6a	-0.3816865
177	0xbe2d6626	-0.16933498
178	0x3d2e7380	0.042590618
179	0x3ddfa9db	0.10921069
180	0xbea1afc7	-0.3157942
181	0x3e9c957a	0.30582792
182	0xbe47ba25	-0.19504602
183	0xbdb99681	-0.090619095
184	0xbd0d6234	-0.034517482
185	0xbe11a475	-0.14222892
186	0xbe682d3a	-0.22673503
187	0xbd37fcdf	-0.04491889
188	0x3cf2cde5	0.029639194
189	0xbdddeb37	-0.10835879
190	0x3e9b63e8	0.3034966
191	0x3f39a9f0	0.7252493
192	0x3e8590ee	0.26087135
193	0xbe1a98e4	-0.15097386
194	0x3e831cf1	0.25608018
195	0xbf4665b7	-0.77498955
196	0xbe937a73	-0.2880436
197	0xbdfacef4	-0.122465044
198	0x3e2109fc	0.15726465
199	0xbeb8b7df	-0.36077783
200	0xbd46bd4a	-0.048520364
201	0xbe1fe76d	-0.15615626
202	0xbe9d51d7	-0.307265
203	0xbeb4c78e	-0.35308498
204	0x3e8e1925	0.2775356
205	0x3df69d15	0.1204168
206	0xbe2cd62d	-0.16878577
207	0x3ebeba75	0.3725163
208	0xbe02a170	-0.12756896
209	0x3df7b921	0.120958574
210	0xbea84abc	-0.32869518
211	0xba8276af	-0.0009953583
212	0xbe7e4c24	-0.24833733
213	0xbd4b2a01	-0.049600605
214	0xbe575671	-0.21029069
215	0xbec72419	-0.38894728
216	0x3eb4ce79	0.35313776
217	0x3d960784	0.07325652
218	0x3e97fed1	0.29686597
219	0xbe3fd60b	-0.18733995
220	0xbe6cfc42	-0.23143104
221	0xbe913fb9	-0.2836893
222	0xbf5ced02	-0.86299145
223	0x3ebababc	0.36470592
224	0x3e39d3e0	0.1814723
225	0x3c0dce36	0.008655122
226	0xbda4effe	-0.080535874
227	0x3e318ab0	0.17338061
228	0x3eb8e732	0.36113888
229	0xbe202b2f	-0.15641473
230	0x3e294f0d	0.16534062
231	0xbd485921	-0.048913125
232	0xbd9c81f0	-0.07641971
233	0xbd3319f7	-0.043725934
234	0xbf4639de	-0.7743205
235	0xbe36e4a7	-0.17860661
236	0x3c08eaae	0.008356733
237	0xbeb87ffc	-0.36035144
238	0xbe563b75	-0.20921119
239	0x3e508e1f	0.20366715
240	0x3e5b8561	0.21437599
241	0xbeefb5d8	-0.46818423
242	0x3e89ea4c	0.26936567
243	0xbdea5fd6	-0.114440605
244	0xbea88026	-0.3291027
245	0x3ebe4708	0.37163568
246	0xbc9ea16b	-0.01936408
247	0x3ebd802d	0.37011853
248	0x3ebc2222	0.3674479
249	0x3cd49be7	0.025953246
250	0xbe57e3f3	-0.2108305
251	0x3ec50751	0.38482144
252	0x3ebe4681	0.37163165
253	0x3e84db4e	0.25948566
254	0x3eac76b4	0.33684313
255	0xba31b854	-0.0006779481

fc2.bias f4 [128]
0	0x3db66e12	0.08907713
1	0x3df849d2	0.12123455
2	0xbdb70605	-0.08936695
3	0x3e046be2	0.12931779
4	0xbe1f0861	-0.1553054
5	0xbde5febe	-0.11230229
6	0xbdb35eee	-0.08758341
7	0x3dc5a137	0.0964989
8	0xbe44d422	-0.19221547
9	0x3e609961	0.2193351
10	0x3d82aba1	0.06380392
11	0x3d4d7c1c	0.050167188
12	0x3d8dd919	0.06926174
13	0xbcb22f3b	-0.021751037
14	0x3d473dc3	0.048642885
15	0xbccfb31f	-0.025353966
16	0x3cdbab55	0.026815096
17	0x3d1654fe	0.03670215
18	0xbe8cc8e5	-0.2749702
19	0xbea4657a	-0.3210867
20	0x3eafb679	0.34318903
21	0x3e8eda08	0.2790072
22	0x3bdeaa8c	0.006795233
23	0xbce00943	-0.027348166
24	0x3d1751be	0.03694319
25	0x3eff2bc9	0.49838093
26	0x3ea0ead7	0.3142917
27	0xbe210c2c	-0.157273
28	0x3d354a04	0.04426004
29	0x3ea1bef4	0.31590998
30	0xb78405dc	-1.5738355e-05
31	0xbd87b88c	-0.066269964
32	0x3d8bbeac	0.06823477
33	0x3e08a97d	0.13345905
34	0xbe93a6fa	-0.2883833
35	0x3e256d2b	0.16154926
36	0xbbb9732f	-0.005659483
37	0xbea0f2cf	-0.31435248
38	0xbdbf1fb4	-0.09332219
39	0x3ec32682	0.38115317
40	0x3ea8c087	0.32959387
41	0x3ddae6ac	0.106885284
42	0xbdbe1149	-0.09280641
43	0x3e0ed7a9	0.13949455
44	0x3debc029	0.11511261
45	0x3cc88067	0.02447529
46	0xbe8bd43c	-0.2731036
47	0xbca64b16	-0.020299476
48	0xbe61a6cc	-0.22036284
49	0x3cdca4e3	0.026934093
50	0xbe73269a	-0.23745194
51	0xbe589fe9	-0.21154751
52	0xbd5930e3	-0.053025138
53	0x3dbe47c3	0.09291031
54	0x3c3f22f2	0.011666046
55	0x3ebf9791	0.37420323
56	0x3db9a776	0.09065144
57	0x3e932bb0	0.28744268
58	0xbe28dc34	-0.16490251
59	0xbda98e70	-0.08279121
60	0x3bea1540	0.0071436465
61	0x3ee6ac06	0.45053118
62	0x3ce955cb	0.028483292
63	0xbd0210bb	-0.031754237
64	0x3e440745	0.19143398
65	0xbde1c575	-0.1102399
66	0x3d0eebef	0.034892973
67	0xbd7a242d	-0.061069656
68	0x3ec3fb0c	0.3827747
69	0x3e03c7c6	0.12869176
70	0xbd87b160	-0.066256285
71	0xbc929833	-0.01789484
72	0xbe27f5d2	-0.16402367
73	0xbe92fd82	-0.28709036
74	0xbd4e1771	-0.050315324
75	0xbec9b7ca	-0.39398032
76	0xbe11e808	-0.14248669
77	0xbd94d0b9	-0.07266373
78	0xbe7e5aca	-0.24839321
79	0x3dabd726	0.08390646
80	0x3e98f2f2	0.29872853
81	0x3e891e3a	0.26780874
82	0x3de3dff9	0.11126704
83	0xbdb3fddd	-0.08788655
84	0xbe7160c3	-0.23572068
85	0x3e15f491	0.14644076
86	0x3d2bec82	0.0419736
87	0xbece7d8f	-0.4033017
88	0xbe642776	-0.22280678
89	0x3de1e2ae	0.11029564
90	0xbe059a49	-0.13047136
91	0xbe81c6f8	-0.25347114
92	0x3df3fe39	0.119137235
93	0xbd435329	-0.04768673
94	0xbd755bfc	-0.059902176
95	0x3e9e5bbf	0.30929372
96	0xbc3d7d6f	-0.01156555
97	0x3e15f02e	0.14642403
98	0xbdffc9d0	-0.124896646
99	0xbc9ea8f7	-0.019367678
100	0x3dc416a2	0.09574629
101	0xbd4b6144	-0.049653307
102	0x3e788fc3	0.2427359
103	0xbe59553f	-0.21223925
104	0x3e968852	0.2940088
105	0x3af9b971	0.0019052458
106	0xbee00ff1	-0.43762162
107	0xbd0e5c5f	-0.03475606
108	0x3d80f376	0.062964365
109	0x3e3515df	0.17684124
110	0x3e116485	0.14198501
111	0xbe1e5b03	-0.15464406
112	0xbdc84c2d	-0.097801544
113	0x3e3ee98d	0.1864378
114	0x3e549318	0.20759237
115	0xbb826884	-0.0039797444
116	0x3e325561	0.17415382
117	0x3d4d5ae1	0.050135497
118	0xbde415e2	-0.11136986
119	0xbdfb65fa	-0.1227531
120	0xbc173dc4	-0.009231035
121	0x3e162202	0.1466141
122	0xba6f0daf	-0.00091191655
123	0xbe110073	-0.14160328
124	0xbdde445e	-0.10852884
125	0xbde1d1bd	-0.110263325
126	0xbe5bc380	-0.21461296
127	0x3c1d7e98	0.009612702

fc3.weight f4 [32, 128]
0	0x3efd8641	0.4951649
1	0x3cee09fc	0.029057495
2	0xbe6e6e6b	-0.23284309
3	0x3e4c61ff	0.19959258
4	0x3ccbdb67	0.024884893
5	0xba99ae62	-0.0011724944
6	0xbcb56cb0	-0.022146553
7	0xbecef3d1	-0.40420392
8	0xbe5301c5	-0.20606144
9	0x3de8e5a7	0.11371928
10	0xbe01cbfe	-0.12675473
11	0xbd3fb33e	-0.046801798
12	0x3e6ae05c	0.22937149
13	0xbdb4e7ea	-0.088332966
14	0x3eb22e43	0.3480092
15	0x3ec957a0	0.39324665
16	0xbe234fee	-0.1594846
17	0x3f012595	0.5044797
18	0xbe7145be	-0.23561761
19	0x3e3297d1	0.17440726
20	0x3c732f60	0.014842838
21	0x3e0c8e7f	0.13726233
22	0x3d3a5310	0.04548937
23	0x3e8da43a	0.27664357
24	0xbd2840b4	-0.04107733
25	0xbe14d6a3	-0.14535002
26	0x3eec00f9	0.46094492
27	0x3e92d483	0.2867776
28	0x3d659094	0.056046084
29	0xbe22085d	-0.15823503
30	0xbda5ecc7	-0.08101802
31	0x3f0c5f77	0.5483317
32	0xbdafa426	-0.08576231
33	0xbdbdb4a2	-0.092629686
34	0x3dde4ce2	0.10854508
35	0x3ebaf41f	0.36514375
36	0xbed68e3b	-0.41905388
37	0xbefd4d57	-0.49473068
38	0xbf26d521	-0.6516896
39	0xbd8eaff2	-0.06967153
40	0x3e870286	0.26369113
41	0xbdbea62f	-0.09309041
42	0xbd09337d	-0.03349637
43	0x3ec08526	0.37601584
44	0xbd6fb3c0	-0.058521032
45	0xbe70c7ca	-0.23513713
46	0x3e0233a6	0.12715015
47	0x3ced952a	0.029001791
48	0xbecaf2f3	-0.3963848
49	0x3ec28588	0.379925
50	0xbebec3ab	-0.37258658
51	0xbe853d74	-0.26023448
52	0xbe4bcc59	-0.19902171
53	0xbe21d91b	-0.15805475
54	0x3e7a0a75	0.24418052
55	0x3f31545d	0.69269353
56	0xbe149344	-0.14509302
57	0x3e3ef2ca	0.18647304
58	0xbd83fe4f	-0.0644499
59	0xbe09cd54	-0.13457233
60	0xbe09dd58	-0.13463342
61	0xbe0d514a	-0.1380054
62	0xbd86de15	-0.065853275
63	0xbc5f6820	-0.013635665
64	0xbde3ed91	-0.111292966
65	0xbe6b4c87	-0.22978412
66	0x3db16a39	0.086628385
67	0x3a3fa4c6	0.0007310625
68	0x3e1a13d5	0.15046628
69	0xbeb107c7	-0.34576246
70	0xbf00c054	-0.5029347
71	0xbe7337d1	-0.23751761
72	0xbe2c93f6	-0.16853318
73	0xbdb6a8ec	-0.08918938
74	0xbe9d1119	-0.30677107
75	0xbe61f7ef	-0.22067235
76	0x3e98a35d	0.29812136
77	0x3d058f17	0.032607164
78	0xbe98ef84	-0.29870236
79	0xbe898964	-0.26862633
80	0x3dc66e21	0.09688974
81	0x3d00faf1	0.031489316
82	0x3c01012e	0.007873816
83	0x3e7b33d7	0.24531494
84	0x3e6ec05c	0.23315567
85	0x3e8836ff	0.2660446
86	0x3deb8785	0.11500458
87	0xbf14fa4c	-0.5819442
88	0x3e072a0a	0.1319963
89	0xbed7fc94	-0.4218489
90	0x3e1749e2	0.14774278
91	0xbea26cc2	-0.317236
92	0x3e21aa31	0.15787579
93	0x3e8517c4	0.25994694
94	0x3c05fbe9	0.008177736
95	0x3c297d47	0.01034481
96	0x3d6dac64	0.058025733
97	0xbe28bc20	-0.16478014
98	0x3dc739f7	0.09727853
99	0xbef3e1a0	-0.47633076
100	0xbdf8f17e	-0.12155436
101	0xbd0d9c97	-0.034573164
102	0x3eafb401	0.3431702
103	0x3e548778	0.20754802
104	0xbe9fbf71	-0.31200746
105	0x3e2868ff	0.16446303
106	0xbecb897c	-0.3975333
107	0xbe2f9cd5	-0.1714967
108	0x3e96950b	0.29410586
109	0x3ae9735c	0.0017810869
110	0xbf20db01	-0.62834173
111	0xbbc28ee9	-0.0059374464
112	0x3e874d06	0.26425952
113	0xbd737df1	-0.05944628
114	0x3f08d05d	0.5344294
115	0x3e338e55	0.17534764
116	0x3d4ff7b0	0.050773323
117	0x3d8dde68	0.06927186
118	0xbdeb3751	-0.1148516
119	0x3ea3e45f	0.3201017
120	0x3e8d2ab9	0.27571657
121	0x3ef22aca	0.4729827
122	0xbd84fa8d	-0.06493101
123	0xbe326c94	-0.17424232
124	0xbc874a08	-0.016514793
125	0xbdcee5ad	-0.10102401
126	0xbe10fd47	-0.14159118
127	0xbe2fa095	-0.17151101
128	0x3e29277a	0.16518965
129	0x3eec637a	0.46169645
130	0x3bd6e700	0.006558299
131	0x3e93b569	0.28849342
132	0x3e9a22b8	0.30104613
133	0x3e37cdad	0.17949553
134	0xbcb462cc	-0.022019766
135	0xbc49ee1b	-0.012324835
136	0x3d9df814	0.07713333
137	0x3e9d2695	0.30693498
138	0x3e2baa51	0.1676419
139	0x3e2f8585	0.17140777
140	0xbe8cf716	-0.27532262
141	0xbd32b1b3	-0.0436265
142	0x3d7a70f8	0.06114289
143	0xbdbde240	-0.092716694
144	0x3edce18f	0.43140838
145	0x3d96c2f9	0.07361407
146	0xbb2ee6c0	-0.002668783
147	0x3d33539c	0.043780908
148	0x3f0a92da	0.5413033
149	0x3ea5093b	0.32233605
150	0x3d196a17	0.03745469
151	0xbe4cc143	-0.19995598
152	0xbec64e6f	-0.38731715
153	0x3d744c34	0.059642985
154	0x3edb28ca	0.42804557
155	0xbe5bd0f6	-0.21466431
156	0xbeb98e36	-0.3624131
157	0xbe2a7447	-0.16645919
158	0x3e6db70e	0.23214361
159	0x3e49e762	0.19717172
160	0x3e509dea	0.2037274
161	0xbda5ef5d	-0.081022955
162	0xbef99499	-0.48746184
163	0x3e2800c4	0.16406542
164	0xbd74cef1	-0.059767667
165	0xbf1c38a7	-0.61023945
166	0xbeaf06c4	-0.3418485
167	0x3f0cacc3	0.54951113
168	0x3c45eec6	0.012080854
169	0x3e84a924	0.25910294
170	0xbf403aa0	-0.75089455
171	0x3e96cbf6	0.29452485
172	0x3d962dca	0.07332952
173	0xbe6615fd	-0.22469325
174	0x3e30bafe	0.17258832
175	0x3e80d9a8	0.2516606
176	0x3d27f75d	0.04100739
177	0x3de5eac2	0.11226417
178	0xbe93addb	-0.2884358
179	0xbe9fa6e0	-0.31182003
180	0xbecb94ca	-0.39761955
181	0x3e257362	0.16157296
182	0xbeddd3eb	-0.43325743
183	0x3ec5452f	0.38529345
184	0xbe8f3755	-0.27971902
185	0x3da3a85d	0.07991097
186	0x3dbfe8ac	0.093705505
187	0xbe879234	-0.26478732
188	0xbdbb12df	-0.09134459
189	0x3ee731af	0.45155093
190	0xbedd7f18	-0.43261027
191	0xbdeafb68	-0.11473733
192	0x3e95aade	0.29231924
193	0xbeb99636	-0.36247414
194	0x3ea5bbe2	0.32369906
195	0x3e0d1189	0.1377622
196	0xbce4e965	-0.027943322
197	0xbe08402d	-0.13305731
198	0x3d34f418	0.0441781
199	0xbe91b7d9	-0.28460577
200	0xbedd194b	-0.4318336
201	0xbe8fca4d	-0.2808403
202	0x3e952236	0.29127663
203	0x3d64177b	0.055686455
204	0xbe90c5ba	-0.28275853
205	0x3e78f7e3	0.24313311
206	0x3cd891fd	0.0264368
207	0x3d1ee04a	0.038788117
208	0xbce19c40	-0.027540326
209	0xbe063d48	-0.13109314
210	0x3eeba4ed	0.46024266
211	0xbddeee16	-0.10885255
212	0x3e11e316	0.14246783
213	0xbe566f4b	-0.20940892
214	0xbd8c69b1	-0.068560965
215	0xbdfe6966	-0.12422447
216	0x3edc7a67	0.43062136
217	0x3df5776b	0.11985668
218	0xbedc4190	-0.4301877
219	0xbdc9ccee	-0.0985354
220	0xbe303b07	-0.17210017
221	0xbe65e3c0	-0.22450161
222	0x3d489b20	0.048976064
223	0x3ee73476	0.45157212
224	0x3e0cb2a0	0.13740015
225	0x3e101481	0.14070322
226	0x3e54ac56	0.20768866
227	0xbd85ec66	-0.0653923
228	0x3eecb768	0.46233678
229	0x3e7a991a	0.24472466
230	0x3e48e568	0.19618762
231	0xbd89e845	-0.06733755
232	0x3e15178a	0.1455976
233	0xbba83bc2	-0.005134077
234	0xbe67fc3e	-0.22654817
235	0x3dda8a08	0.106708586
236	0xbc20f3aa	-0.009823719
237	0xbe266962	-0.16251138
238	0xbe70983e	-0.23495576
239	0xbe861868	-0.26190495
240	0x3eb9f67e	0.3632087
241	0x3edb91e5	0.42884746
242	0xbe218a08	-0.15775311
243	0x3e0b1ad1	0.13584448
244	0x3f010452	0.5039722
245	0x3e98e4ef	0.29862162
246	0xbcd3e480	-0.025865793
247	0xbd0c3e10	-0.034238875
248	0x3e811f14	0.25219023
249	0x3eae4be9	0.3404229
250	0x3dded9e6	0.108814046
251	0x3e2515d7	0.16121612
252	0x3c4e891c	0.012605932
253	0xbe18e4d3	-0.1493104
254	0x3ea3166a	0.31853038
255	0x3eb4bbe2	0.35299593

fc3.bias f4 [32]
0	0x3e49e4eb	0.19716232
1	0x3ea92362	0.33034807
2	0x3dcd8278	0.100346506
3	0x3d03af8f	0.032149848
4	0x3e18e1de	0.14929911
5	0x3e536349	0.20643343
6	0xbed5eb32	-0.41781002
7	0xbf01666b	-0.505469
8	0xbe0c45f5	-0.13698561
9	0x3e680e4b	0.22661702
10	0x3e9e1940	0.3087864
11	0xbda6e8e2	-0.081498876
12	0x3e836f86	0.25671023
13	0x3e5033e3	0.20332293
14	0xbe362857	-0.17788826
15	0xbde0e3ee	-0.10980974
16	0x3da69f55	0.08135859
17	0x3e87a013	0.26489314
18	0xbe80eb0b	-0.25179324
19	0xbdad36a7	-0.0845769
20	0x3ccf1804	0.025280006
21	0xbe482be7	-0.19547997
22	0xbea94184	-0.33057797
23	0xbd2e130d	-0.042498637
24	0x3e47e85a	0.19522229
25	0xbe60d4ed	-0.21956225
26	0xbe8707ec	-0.2637323
27	0xbe931df9	-0.28733805
28	0x3e3d90ad	0.1851222
29	0x3e2115c6	0.15730962
30	0x3e17b99f	0.14816903
31	0x3e2c45db	0.16823523

out.weight f4 [12, 32]
0	0x3efea61a	0.497361
1	0x3eb9617f	0.36207196
2	0xbe439738	-0.19100654
3	0xbe262a95	-0.16227181
4	0x3f468ed1	0.7756167
5	0x3daff6c8	0.08591992
6	0xbf1f4bb8	-0.6222491
7	0xbee41a0f	-0.4455113
8	0x3f2d9d51	0.6781817
9	0x3f51d40a	0.8196417
10	0x3dd84439	0.105598874
11	0xbfd5193b	-1.6648325
12	0xbf8f823f	-1.1211623
13	0x3f70843f	0.9395179
14	0xbee1f119	-0.44129255
15	0x3efca377	0.49343464
16	0xbe351ac8	-0.17685997
17	0x3e99feae	0.30077118
18	0x3f651053	0.89478034
19	0xbedc425d	-0.4301938
20	0x3e25a2c3	0.1617537
21	0x3f957e88	1.1679239
22	0x3f0356b3	0.5130417
23	0x3f9006e6	1.1252105
24	0xbfb00e2c	-1.3754325
25	0xbf97bbf2	-1.1854231
26	0x3fb47e70	1.4101086
27	0xbece38a3	-0.40277585
28	0xbf8ed88c	-1.1159835
29	0xbf8e9c37	-1.1141423
30	0xbe9d739f	-0.30752274
31	0x3ec9fc94	0.39450514
32	0x3f2aac05	0.6666873
33	0x3ecdda08	0.40205407
34	0xbf03fb13	-0.51554984
35	0x3e19d4a9	0.1502253
36	0x3f64f5de	0.89437664
37	0x3f01d5c5	0.5071681
38	0xbf431b33	-0.7621338
39	0xbe032f1a	-0.12810937
40	0xbf4cc4e8	-0.79987955
41	0x3ea49259	0.32142904
42	0x3f564091	0.8369227
43	0x3f1fdd01	0.624466
44	0xbf5c74aa	-0.86115515
45	0xbf8b2e2e	-1.0873468
46	0xbf031c6a	-0.5121523
47	0x3e926428	0.28592038
48	0x3f047ffa	0.51757777
49	0xbc0f1ef8	-0.008735411
50	0x3e611a11	0.219826
51	0xbf1263c4	-0.5718348
52	0x3f129ad0	0.57267475
53	0x3ef750fb	0.4830397
54	0x3e8f7e3d	0.28026
55	0xbf0e2ba6	-0.5553535
56	0x3f3617e8	0.7113023
57	0x3f509d3d	0.81489927
58	0xbfb2c4b9	-1.3966285
59	0xbe046b03	-0.12931447
60	0x3f533067	0.8249573
61	0xbbd6e858	-0.0065584593
62	0x3f022d18	0.5085006
63	0x3aac50b7	0.0013146613
64	0xbf8e2f47	-1.1108178
65	0xbf879c6d	-1.0594612
66	0xbf587840	-0.84558487
67	0x3f3a38b5	0.7274278
68	0xbf99558d	-1.1979233
69	0xbf909ca4	-1.1297803
70	0xbf1e249f	-0.6177463
71	0xbf25a9a6	-0.6471199
72	0x3f99fe04	1.2030644
73	0x3e2b4d7a	0.16728774
74	0xbf9ba4bc	-1.2159648
75	0xbe78492a	-0.2424666
76	0x401f209c	2.4863653
77	0xbf307f27	-0.6894402
78	0xbfed7f0e	-1.8554399
79	0xbfb62201	-1.4229127
80	0x3ee2ff0b	0.44335207
81	0x3f2614b5	0.64875346
82	0x3ee4d3f8	0.4469297
83	0x3fd9aa35	1.7005068
84	0xbfbd6f86	-1.4799659
85	0x3f7f476e	0.9971837
86	0x3f5b2f50	0.8561907
87	0xbf67b8e2	-0.90516484
88	0x3fe591a4	1.7935071
89	0xbe285005	-0.16436775
90	0xbdb98a80	-0.0905962
91	0xbe8b3b7c	-0.2719382
92	0xbcda8a9e	-0.026677426
93	0xbde99210	-0.11404812
94	0x3f247195	0.6423581
95	0x3f2ccee4	0.6750319
96	0xbecff773	-0.40618476
97	0x3f883b5e	1.0643117
98	0x3fca9266	1.5825927
99	0xbe979196	-0.2960326
100	0xbf6e9f31	-0.93211657
101	0xbfa13463	-1.2594112
102	0xbec50262	-0.3847838
103	0xbeee0c0a	-0.4649356
104	0x3f3fedf2	0.7497245
105	0xbe88c54f	-0.26713035
106	0xbf3aeb4c	-0.73015285
107	0x3f29b536	0.6629213
108	0x3dea1399	0.11429519
109	0x3e54405a	0.20727673
110	0x3f4e473f	0.8057746
111	0xbfcba84c	-1.5910735
112	0xbf007c0c	-0.5018928
113	0x3f15a6f4	0.58457875
114	0x3f1782ac	0.59183764
115	0xbee9ef14	-0.45690215
116	0x3ec32230	0.3811202
117	0xbe0ffc70	-0.14061141
118	0xbf3db9f4	-0.74111867
119	0x3f386505	0.72029144
120	0xbf3e0de9	-0.74239975
121	0x3f96b676	1.1774433
122	0xbed741f2	-0.420425
123	0xbf7958ed	-0.97401315
124	0x3f6730ce	0.90308845
125	0xbf6ae750	-0.91759205
126	0xbe586484	-0.21132094
127	0xbeab146d	-0.3341402
128	0xbf911d02	-1.1336977
129	0xbd6c4212	-0.057680197
130	0xbec1bcd1	-0.37839368
131	0x3ec40dc2	0.38291746
132	0xbf70acf2	-0.94013894
133	0xbc9a4f44	-0.018836625
134	0xbc877a1c	-0.016537718
135	0xbeb12e11	-0.34605458
136	0xbf11e6d1	-0.5699282
137	0x3e580049	0.21093859
138	0xbfb28a3a	-1.3948433
139	0x3f4a035e	0.7891139
140	0xbf278333	-0.6543457
141	0xbfb35747	-1.401101
142	0x3fa2c83c	1.2717357
143	0x3fa209eb	1.2659277
144	0x3e9aa0a6	0.3020069
145	0x3ef7891d	0.48346797
146	0x3f1bb419	0.6082168
147	0x3f3600d4	0.71095014
148	0x3e8a8e84	0.27061856
149	0x3f1cc8f1	0.6124411
150	0x3fafe3ff	1.3741454
151	0x3e34f1a3	0.17670302
152	0xbf3f2295	-0.74662143
153	0xbf2c3658	-0.6727042
154	0xbf2f81c0	-0.6855736
155	0x3f82b73a	1.0212166
156	0xbf29c280	-0.6631241
157	0x3f458881	0.77161413
158	0x3e8d899f	0.2764406
159	0x3f28c316	0.6592268
160	0xbf3eaf92	-0.7448665
161	0x3ece71eb	0.40321288
162	0x3ecb28b7	0.396795
163	0x3f6eff47	0.9335827
164	0xbf6e4dbe	-0.93087375
165	0x3f376804	0.7164309
166	0xbf7c630c	-0.98588634
167	0x3f35d46f	0.7102727
168	0xbef19856	-0.47186536
169	0x3db89494	0.09012714
170	0x3f2f5094	0.6848233
171	0xbf7e2e4a	-0.9928938
172	0xbd0e6d89	-0.03477243
173	0x3f3b9b53	0.7328388
174	0x3ed8bad7	0.42330047
175	0xbebf045d	-0.37308016
176	0x3ea60d13	0.3243185
177	0xbf4cf76b	-0.8006503
178	0xbf1c328e	-0.6101464
179	0x3f3c0112	0.73439133
180	0xbf78e019	-0.97216946
181	0xbe0135bd	-0.12618156
182	0xbef6e10a	-0.48218566
183	0x3f208adb	0.62711877
184	0xbee36c1f	-0.44418427
185	0xbea61190	-0.32435274
186	0x3ed652b8	0.41859984
187	0x3eac50be	0.3365535
188	0xbf18efce	-0.5974091
189	0x3ee4fa05	0.44722
190	0x3f70e5a5	0.9410041
191	0xbf254a81	-0.6456681
192	0x3d719e17	0.058988657
193	0xbf5ac0ea	-0.85450613
194	0xbe5c3a86	-0.215067
195	0xbf1e5757	-0.6185202
196	0x3df5afea	0.119964436
197	0x3e9fc2c8	0.31203294
198	0x3f5ac38c	0.8545463
199	0xbf0ff960	-0.5623989
200	0xbf654575	-0.8955911
201	0xbf856aed	-1.0423256
202	0x3d81b3bc	0.0633311
203	0xbf5ad1ad	-0.8547619
204	0x3f6659ec	0.8998096
205	0x3edb2fdb	0.42809948
206	0xbdc0d01b	-0.09414693
207	0x3e32eaee	0.17472431
208	0xbf4beda6	-0.796595
209	0x3f29cbc9	0.66326576
210	0xbf21103b	-0.6291539
211	0xbefd2183	-0.4943963
212	0xbf8cfdd2	-1.101496
213	0xbf4c6b05	-0.798508
214	0xbf1dca6b	-0.6163699
215	0xbeecc60b	-0.46244845
216	0x3e5ad3e7	0.21369897
217	0x3f46e7cc	0.77697444
218	0xbf5068a3	-0.8140966
219	0xbf013975	-0.504783
220	0x3f206a6b	0.6266238
221	0xbe9502ba	-0.29103643
222	0xbf2efa59	-0.6835075
223	0x3f02d947	0.5111279
224	0x3f350def	0.70724386
225	0xbfba4f83	-1.4555515
226	0xbf28ce57	-0.6593985
227	0x3e324603	0.1740952
228	0x3e576fe9	0.21038784
229	0xbf656138	-0.8960147
230	0x3ff5d095	1.9204279
231	0x3f7f04f8	0.99616957
232	0x3f00e746	0.50352895
233	0x3fbea3f8	1.4893789
234	0x3e8808a6	0.26569098
235	0x40046561	2.0686877
236	0x3f066d44	0.52510476
237	0x3fc47472	1.5348036
238	0xbee97c42	-0.45602614
239	0xbed7f254	-0.4217707
240	0x3fad93a5	1.3560683
241	0xbf0984e3	-0.53718394
242	0xbf1a9a4a	-0.60391676
243	0x3f8ad7fa	1.0847161
244	0xbe9214e9	-0.28531578
245	0xbeffa4ae	-0.49930328
246	0xbf227782	-0.63463604
247	0xbfa2c409	-1.2716075
248	0x3f78a485	0.97126037
249	0x3f9feb39	1.2493659
250	0x4009c8d0	2.1528816
251	0x3f454b1e	0.77067745
252	0x3f105c73	0.56391066
253	0xbf70f595	-0.9412473
254	0x3ec3be68	0.38231206
255	0xbf184675	-0.5948251

out.bias f4 [12]
0	0xbee3ec4c	-0.44516218
1	0xbe869956	-0.2628886
2	0xbef112c2	-0.47084624
3	0x3c365682	0.0111290235
4	0xbe2bb006	-0.16766366
5	0xbdb27df9	-0.087154336
6	0x3d3e028c	0.046389148
7	0xbe45fc71	-0.1933458
8	0xbd561d4f	-0.052274045
9	0xbdf0de96	-0.11761205
10	0xbc2445f6	-0.010026446
11	0xbfbd798e	-1.480272
